models/cnn_bilstm.pth (torch, 780661 bytes, 23 tensors)

conv1d.weight f4 [32, 14, 3]
0	0x3bc34a5a	0.005959791
1	0x3c1f8781	0.0097368965
2	0xbb4d9eb9	-0.0031375124
3	0x3b6586a8	0.0035022888
4	0x3c045205	0.008076196
5	0xbb3b1cf0	-0.0028551184
6	0x3c2935ce	0.010327769
7	0x3c91eec8	0.017814055
8	0xbb04473d	-0.0020184063
9	0xbd90e879	-0.07075591
10	0xbd381314	-0.04494007
11	0xbd0baa73	-0.0340981
12	0xbb8ebb14	-0.0043557975
13	0x3c0611cc	0.008182954
14	0x3c591354	0.013249237
15	0xbd77a023	-0.060455453
16	0xbd7a184e	-0.061058335
17	0xbd233240	-0.039842844
18	0x3c31bd45	0.010848348
19	0x3b07fcd2	0.0020750058
20	0x3c210fc3	0.009830418
21	0x3e0f1de1	0.13976242
22	0x3e1a9ffd	0.15100093
23	0x3d3abaaa	0.045588173
24	0x3b58c37b	0.00330755
25	0x3c15d477	0.009144894
26	0xbc11e517	-0.008904717
27	0x3b823d2a	0.0039745765
28	0x3c0f576f	0.008748873
29	0xbbceab68	-0.0063070543
30	0x3d24dc15	0.04024895
31	0x3d405201	0.046953205
32	0x3cc6256e	0.02418777
33	0x3c997ca8	0.018736199
34	0x3cbe4fbf	0.023231385
35	0x3c7ecc42	0.015551629
36	0x3c032651	0.008004741
37	0x3c312305	0.010811572
38	0x3c11bc65	0.008895014
39	0x3b9ab0d7	0.004720788
40	0x3ba93574	0.005163843
41	0xbbd77c40	-0.006576091
42	0x3b8cec5c	0.004300637
43	0x3ba37932	0.004988813
44	0xbafc605a	-0.0019254789
45	0x3b336695	0.0027374376
46	0x3b89eda6	0.004209238
47	0xbabee755	-0.0014564792
48	0x3ba426be	0.0050095012
49	0x3bdf4b1e	0.0068143746
50	0xbb018736	-0.001976443
51	0xbd34de5a	-0.044157363
52	0xbcfc5d16	-0.030806106
53	0xbcc902fc	-0.024537556
54	0xbc111f72	-0.008857595
55	0xb9fb106e	-0.00047886692
56	0x3c3a3e19	0.011367344
57	0xbd420d06	-0.0473757
58	0xbd0a5279	-0.03377006
59	0xbce0bce9	-0.02743383
60	0x3b614c58	0.003437778
61	0xb8690ee0	-5.5565382e-05
62	0x3bb10757	0.0054024863
63	0x3de005be	0.10938595
64	0x3def8457	0.11695164
65	0x3ca4a2b9	0.020097123
66	0xbb7893c9	-0.0037929884
67	0xba99dfce	-0.0011739673
68	0xbbbdbdea	-0.005790462
69	0xbab20948	-0.0013583088
70	0x39ee203a	0.00045418908
71	0xbb713a0e	-0.0036808285
72	0x3d02cf92	0.031936236
73	0x3d29772f	0.041373428
74	0x3c47e5bd	0.01220077
75	0x3c89a20e	0.016800907
76	0x3c96d1f8	0.018410668
77	0x3c18dd03	0.009330037
78	0x3c713c0d	0.01472379
79	0x3c6ebda8	0.014571585
80	0x3c1ce4cd	0.009576035
81	0x395d0864	0.00021079328
82	0x3b1dafc4	0.0024061063
83	0xbb74d22a	-0.0037356713
84	0xbcdbeae6	-0.026845407
85	0xbcfd2cc3	-0.030905133
86	0xbc93679f	-0.017993746
87	0xbcde0aa8	-0.02710469
88	0xbd00505d	-0.03132664
89	0xbc97ac46	-0.018514764
90	0xbcdb8bac	-0.0268
91	0xbcfcec00	-0.030874252
92	0xbc93095b	-0.017948797
93	0xbb6d89dd	-0.0036245503
94	0xbc5a5c01	-0.0133275995
95	0xbbb803d7	-0.005615692
96	0xbbb5325f	-0.0055296863
97	0xbc4855e9	-0.012227514
98	0xbc4a8434	-0.012360621
99	0x3c089eb0	0.008338615
100	0x3c3ec466	0.011643505
101	0x3c82e4f4	0.015978314
102	0x3b954259	0.0045550284
103	0x3c35f82f	0.011106535
104	0x3becba7e	0.00722438
105	0xbde9fc9a	-0.11425133
106	0xbdfc9dc6	-0.123347804
107	0xbdaaf850	-0.08348143
108	0xbd05c5a5	-0.03265919
109	0xbd19ae80	-0.03751993
110	0xbca53700	-0.020167828
111	0xbced02ab	-0.028931936
112	0xbd083891	-0.03325707
113	0xbc8e89f6	-0.01739977
114	0xbda52129	-0.080629654
115	0xbdbb55d5	-0.091472305
116	0xbd6754f0	-0.056477487
117	0xbc5f6d02	-0.013636829
118	0xbc8b9e9a	-0.0170434
119	0xbc2b6c94	-0.010462899
120	0xbc344552	-0.011002855
121	0xbc609286	-0.013706809
122	0xbc227276	-0.009914985
123	0xbcef3998	-0.029202268
124	0xbd0a3c22	-0.033748753
125	0xbcaf416f	-0.021393506
126	0x3ceb9f37	0.028762443
127	0x3d1721c8	0.03689745
128	0xbc1f525e	-0.009724228
129	0x3a023460	0.0004966911
130	0x3c1f50b3	0.00972383
131	0xbc1dd3cb	-0.009633015
132	0x3ade7815	0.0016973043
133	0x3d0a405e	0.03375279
134	0xbbc5e562	-0.0060393075
135	0xbddde8b1	-0.10835398
136	0xbd9b3bba	-0.07579751
137	0xbd3b3f3b	-0.0457146
138	0xb9b8ba0c	-0.0003523383
139	0x3c34a05a	0.011024559
140	0x3cc73e96	0.024321835
141	0xbd8f3bba	-0.06993814
142	0xbdbba4fc	-0.09162328
143	0xbda3dcd2	-0.080011025
144	0x3c86c621	0.016451897
145	0x3b68bafd	0.0035511844
146	0x3c6463be	0.013939796
147	0x3e32c5c4	0.17458254
148	0x3e6e3458	0.23262155
149	0x3d9da659	0.07697744
150	0x390b284c	0.00013271085
151	0x3c8946dd	0.016757423
152	0xbc8925b7	-0.016741617
153	0x3c281489	0.010258802
154	0x3b2d2494	0.0026419507
155	0xbc5a25e5	-0.013314699
156	0x3d4c807b	0.049927216
157	0x3da6a7f7	0.081375055
158	0x3cee7790	0.029109746
159	0x3ce67eb6	0.028136592
160	0x3d25dbbd	0.040492762
161	0x3c7104a1	0.014710576
162	0x3be3fcb7	0.006957616
163	0x3cd2081f	0.025638638
164	0x397bc6a0	0.00024011219
165	0x3b6a0aaa	0.0035711923
166	0xbb99da27	-0.0046951952
167	0xbc65b8dc	-0.014021125
168	0xbc9c8a2d	-0.019108856
169	0xbcba1118	-0.022713229
170	0xbc771ae8	-0.015082099
171	0xbcb262b4	-0.021775581
172	0xbcb8ccd6	-0.02255861
173	0xbc71f9ae	-0.014769001
174	0xbc9ed0f7	-0.019386752
175	0xbccd3b2d	-0.025052631
176	0xbc81189d	-0.015758807
177	0xbc7dc9f0	-0.01549004
178	0xbcac7681	-0.0210526
179	0xbbc8102e	-0.0061054444
180	0xbb6c1b06	-0.003602685
181	0xba48b4b6	-0.00076563226
182	0xbbf6fa69	-0.0075371754
183	0xbd18d89a	-0.037315942
184	0xbcf2305a	-0.029564071
185	0xbc7cf84f	-0.015440061
186	0x3c5ff21d	0.013668564
187	0x3c154276	0.009110084
188	0x3c3d1d7a	0.011542672
189	0x3cecd491	0.028909953
190	0x3c411e85	0.011787062
191	0xba988793	-0.0011637084
192	0xbcb4bbdd	-0.022062236
193	0xbcd997a5	-0.026561568
194	0xbc842245	-0.016129622
195	0xbcc59e2a	-0.02412327
196	0xbcaea830	-0.021320432
197	0xbc83b239	-0.016076194
198	0xbba641ff	-0.0050737853
199	0xbcad88c6	-0.021183383
200	0xbc79fc40	-0.015257895
201	0xbc14aa36	-0.009073785
202	0xbc283d89	-0.010268577
203	0xbbf414d9	-0.0074487743
204	0xbb93ddb8	-0.004512515
205	0xbb73edce	-0.00372206
206	0xbb39fdf1	-0.002838012
207	0xbca62751	-0.02028242
208	0xbcb4ad4c	-0.02205529
209	0xbc76dd27	-0.015067375
210	0xb878a9bb	-5.928588e-05
211	0xb885fbdd	-6.3888474e-05
212	0xafdf220a	-4.058765e-10
213	0xb8787b24	-5.924249e-05
214	0xb94650ba	-0.00018912824
215	0xb0309f9e	-6.4255257e-10
216	0xb69ad456	-4.614277e-06
217	0xb924c1af	-0.00015712412
218	0xaf477bf1	-1.8142977e-10
219	0xb6898417	-4.0982954e-06
220	0x35826a18	9.716632e-07
221	0x2e12e9c5	3.3404186e-11
222	0x2b03c0fa	4.680836e-13
223	0x2f3b121a	1.7013982e-10
224	0x2a9da303	2.8001914e-13
225	0xb9878ccb	-0.00025854105
226	0x39a9a54e	0.00032357353
227	0xb45542f4	-1.9861528e-07
228	0x32898ace	1.601202e-08
229	0xb2b6658e	-2.123377e-08
230	0x2b5d6d62	7.866677e-13
231	0xb84f5614	-4.9432812e-05
232	0x396fabc2	0.00022856801
233	0x334e196e	4.798624e-08
234	0xb9b59603	-0.00034634778
235	0xb9d99201	-0.00041498247
236	0xb5110a6d	-5.403188e-07
237	0xba0a7ce2	-0.0005282891
238	0xb9a03168	-0.0003055439
239	0xb45e7055	-2.0716227e-07
240	0x3824cd1c	3.929167e-05
241	0x39beea5f	0.00036414244
242	0x33e3c56e	1.06064235e-07
243	0x39911255	0.00027670214
244	0x399bc2b7	0.00029708978
245	0x3609d1d1	2.053672e-06
246	0x39af3e4e	0.00033425022
247	0x3a2fbc83	0.00067038106
248	0x3678e4e7	3.7088118e-06
249	0xb85cf57d	-5.2680716e-05
250	0xb799a814	-1.8317289e-05
251	0xb12b963e	-2.4969178e-09
252	0x3cb45af9	0.022016035
253	0x3b895caa	0.0041919546
254	0xbbb4177c	-0.0054959636
255	0x3c40ddbb	0.011771615

conv1d.bias f4 [32]
0	0xbe6df984	-0.23239714
1	0xbe287dd2	-0.16454247
2	0x3c0356ec	0.008016329
3	0xbe986bb0	-0.2976966
4	0xbd000569	-0.03125516
5	0xbc1bcf9a	-0.009509945
6	0xbe9073b6	-0.2821328
7	0xbd9f6ea1	-0.07784773
8	0xbe788cc4	-0.24272448
9	0xbd97404f	-0.07385313
10	0xbea9d599	-0.33170775
11	0xbdb4481c	-0.08802816
12	0x3b6cef82	0.00361535
13	0xbe7854a9	-0.24251045
14	0xbce404a8	-0.027834252
15	0xbdc19944	-0.09453061
16	0xbe99b790	-0.3002286
17	0xbdbda3ca	-0.09259756
18	0xbe7b834e	-0.24561808
19	0xbde5d947	-0.11223083
20	0xbe924964	-0.28571618
21	0xbe9ac135	-0.3022553
22	0xbdaa6edb	-0.08321925
23	0xbc62a422	-0.013833078
24	0xbce2d467	-0.027689172
25	0xbe846bbc	-0.25863445
26	0xbc2bc45e	-0.010483829
27	0x39e76ba0	0.0004413994
28	0xbe9087a2	-0.2822848
29	0xbe7cdd12	-0.24693707
30	0xbe520b7a	-0.2051219
31	0x3d149a19	0.03627977

conv_to_lstm.weight f4 [100, 32]
0	0xb9c69a10	-0.00037880288
1	0xb98dd619	-0.0002705313
2	0xb92076ae	-0.00015303
3	0xba3bafcd	-0.000715968
4	0xb9149b76	-0.00014172294
5	0xb400eb2e	-1.2006487e-07
6	0xba0f1650	-0.0005458342
7	0xb9757c25	-0.00023411268
8	0xba011b7e	-0.0004925056
9	0xb906c960	-0.00012854254
10	0xba256b25	-0.0006310216
11	0xb91125d7	-0.00013842374
12	0xb77384bc	-1.4514833e-05
13	0xba18425f	-0.000580823
14	0x38ec8c0b	0.00011279442
15	0xb8bd4e9c	-9.0268644e-05
16	0xba0923b8	-0.0005231458
17	0xb932cb0a	-0.00017051041
18	0xb9b83067	-0.00035131277
19	0xba077de9	-0.00051686034
20	0xba036fe3	-0.0005013926
21	0xba3e9869	-0.00072706357
22	0xb9760d3a	-0.00023465315
23	0x351ee1f0	5.918837e-07
24	0x36991eec	4.563355e-06
25	0xba2b355c	-0.00065310835
26	0xb98f440f	-0.00027325793
27	0xb8a718f4	-7.9678284e-05
28	0xba28df81	-0.0006441996
29	0xb9eea72f	-0.0004551946
30	0xb9bb1146	-0.0003568029
31	0xb989153b	-0.00026146494
32	0x39c27dcd	0.00037096292
33	0x395c8b4c	0.00021032727
34	0xbab9aad6	-0.0014165293
35	0x394cabf6	0.00019519016
36	0xb9f29e19	-0.0004627563
37	0xb5467334	-7.392839e-07
38	0x39f70484	0.00047114876
39	0xbadc9795	-0.0016829843
40	0x399ee59a	0.00030307175
41	0x38480f7c	4.7698137e-05
42	0x39e49479	0.0004359817
43	0x38852fba	6.350824e-05
44	0xb9831c94	-0.0002500756
45	0x37c4be96	2.345377e-05
46	0xba67c891	-0.00088418374
47	0x3a04a624	0.0005060157
48	0x3a00c90a	0.00049127697
49	0xbb054a3e	-0.0020338441
50	0x39f0d04d	0.00045931563
51	0xbaf8a2ba	-0.0018969395
52	0x39dee204	0.00042511534
53	0x39e966d3	0.00044517833
54	0xbae5994d	-0.0017517001
55	0x36dd9327	6.603444e-06
56	0xb7675bf8	-1.3790086e-05
57	0xb92efd31	-0.00016688254
58	0xbab606fe	-0.0013887582
59	0xba201534	-0.0006106675
60	0x3971f7d4	0.00023075874
61	0x39e1b132	0.00043047365
62	0x39c32edc	0.0003722821
63	0xbac508c4	-0.001503252
64	0xb8b90c18	-8.82374e-05
65	0xb88dd4ff	-6.7630775e-05
66	0xb98cd540	-0.00026861764
67	0xb9207322	-0.0001530168
68	0xb90f35b4	-0.00013657549
69	0xb41ec684	-1.4787116e-07
70	0xb8ef7d3c	-0.00011419735
71	0xb9b3cb40	-0.00034292974
72	0xb8f1d4d6	-0.00011531419
73	0xb832216c	-4.2469634e-05
74	0xb90d7003	-0.00013488535
75	0xb820a1c4	-3.829763e-05
76	0xb8391660	-4.4128275e-05
77	0xb934c0b9	-0.00017237932
78	0xb8b8b6a5	-8.807824e-05
79	0x3711ef5a	8.698402e-06
80	0xb8d7da7a	-0.00010292693
81	0xb9c6feb1	-0.00037955263
82	0xb87e74bb	-6.0667033e-05
83	0xb9f2c31b	-0.00046303202
84	0xb8dd366d	-0.00010548239
85	0xb930ce97	-0.00016861629
86	0xb9b93960	-0.00035328697
87	0x35f0fc99	1.7954909e-06
88	0x363a8c00	2.779765e-06
89	0xb93f26c5	-0.00018229622
90	0xb9a2de6c	-0.00031064765
91	0xb919cee6	-0.00014668293
92	0xb92362d6	-0.0001558171
93	0xb8c1bf7f	-9.238626e-05
94	0xb8b60e7a	-8.681133e-05
95	0xb9a97ee0	-0.0003232872
96	0x3a28a080	0.0006432608
97	0x3a620498	0.00086219003
98	0x3bef82d4	0.007309297
99	0x3aa4db60	0.0012577586
100	0x3b58c0c8	0.003307389
101	0x3518fb36	5.698997e-07
102	0x3a32ad84	0.0006816017
103	0x3c137833	0.009000826
104	0x3a5b0f67	0.0008356482
105	0x3a194286	0.00058463996
106	0x3a5f306d	0.0008513991
107	0x3a2ac29d	0.0006513985
108	0x3ac8e896	0.0015328105
109	0x3ad7d9e9	0.001646814
110	0x3b69cd48	0.0035675336
111	0xba9af3c5	-0.0011821917
112	0x3a06123c	0.00051144115
113	0x3c254cd6	0.01008912
114	0x39aaefb0	0.00032603508
115	0x3c29e8d9	0.010370457
116	0x3a0fd52c	0.0005486782
117	0x3aa5f6c2	0.001266204
118	0x3c185698	0.009297989
119	0xb846b082	-4.7371264e-05
120	0x368213e4	3.8766175e-06
121	0x3b12428b	0.0022317495
122	0x3bfed10a	0.0077763842
123	0x3b8c4443	0.0042805984
124	0x3ab255bb	0.0013605872
125	0x3a3496e5	0.000688894
126	0x3a22d174	0.00062110205
127	0x3c0573f7	0.008145324
128	0xbd5d0feb	-0.05397026
129	0xbd16fb5a	-0.0368608
130	0x3d337ba5	0.04381909
131	0xbdaa5c14	-0.08318344
132	0x3c987765	0.01861162
133	0xb8027655	-3.110462e-05
134	0xbd93d35f	-0.0721805
135	0x3d59a390	0.0531345
136	0xbd756b3c	-0.05991672
137	0xbc5d3737	-0.013501934
138	0xbdb1458b	-0.086558424
139	0xbc8fe234	-0.017563917
140	0x3be662a1	0.0070308005
141	0xbd9ca0e2	-0.076478735
142	0x3d1b2ba6	0.037883423
143	0xbd65a394	-0.056064203
144	0xbd9a1dd7	-0.07525223
145	0x3d571850	0.05251342
146	0xbd663155	-0.05619939
147	0x3d7c179a	0.061545946
148	0xbd89e1c6	-0.06732516
149	0xbdbce221	-0.09222818
150	0x3d628122	0.055298932
151	0xb9e7889a	-0.0004416153
152	0xbaa96924	-0.0012925011
153	0xbdb14c02	-0.086570755
154	0x3d2cff6b	0.042235773
155	0x3cbd32e5	0.023095557
156	0xbda22220	-0.07916665
157	0xbd7eb89e	-0.062187783
158	0xbd474ad1	-0.048655335
159	0x3d3d732a	0.046252407
160	0xb9338092	-0.00017118666
161	0xb90dc6e9	-0.00013520908
162	0xba91b386	-0.0011116124
163	0xb9992ac6	-0.00029214303
164	0xba0d5991	-0.00053920696
165	0xa9a64509	-7.3838566e-14
166	0xb92e818f	-0.00016642197
167	0xbaba1a33	-0.0014198482
168	0xb942b8f7	-0.00018570187
169	0xb8a0d91d	-7.669835e-05
170	0xb970e64b	-0.00022973974
171	0xb8b1aa21	-8.471707e-05
172	0xb954e77d	-0.00020304132
173	0xb9a3ca90	-0.00031240704
174	0xba0a9d06	-0.00052876805
175	0x391e8524	0.00015117653
176	0xb93b756a	-0.0001787745
177	0xbaf0d373	-0.0018373564
178	0xb889c195	-6.5687265e-05
179	0xbacd983c	-0.0015685628
180	0xb9181cf7	-0.0001450664
181	0xb9a7cc3b	-0.00032004886
182	0xbac0e9b1	-0.0014718083
183	0x36f9c232	7.4433856e-06
184	0xb4f4b965	-4.5583434e-07
185	0xb99ee01a	-0.00030303077
186	0xba9b6b07	-0.0011857458
187	0xba3b4df5	-0.00071451004
188	0xb9a679fa	-0.00031752867
189	0xb91bca13	-0.0001485723
190	0xb8d1c180	-0.00010001939
191	0xba9fbf1b	-0.0012187691
192	0x39f89a4e	0.00047417212
193	0x39c8678b	0.00038224118
194	0xb9726c35	-0.00023119229
195	0x3a4a59a4	0.0007719046
196	0x38d09172	9.945304e-05
197	0xb6f8aa90	-7.410832e-06
198	0x3a1a893e	0.00058950845
199	0xb97fb7da	-0.00024387185
200	0x3a149a25	0.0005668721
201	0x393a2e48	0.00017755583
202	0x3a57e980	0.00082363933
203	0x3954962a	0.00020273836
204	0xb881cfc2	-6.189897e-05
205	0x3a1a1176	0.00058772357
206	0xb9839d12	-0.00025103294
207	0x39b37d36	0.0003423483
208	0x3a1ef480	0.0006063655
209	0xb9942603	-0.0002825708
210	0x39ed1754	0.00045221543
211	0xb92f91e5	-0.0001674365
212	0x3a2d3a3a	0.00066081027
213	0x3a6d0559	0.00090416294
214	0xb9840eae	-0.0002518794
215	0x3643bf77	2.9168712e-06
216	0xb7874819	-1.6126827e-05
217	0x3a24d36d	0.00062876084
218	0xb9320e37	-0.00016980698
219	0xb8a99d20	-8.087815e-05
220	0x3a1deaf6	0.00060240866
221	0x3a1130ec	0.0005538601
222	0x39e3be60	0.00043438654
223	0xb94e1f89	-0.00019657439
224	0x3b8dbcc2	0.00432548
225	0x3b5ea4c2	0.0033972715
226	0x3c32e43e	0.010918675
227	0x3bffd8d1	0.007807829
228	0x3ba22099	0.0049477336
229	0x3095532e	1.0864818e-09
230	0x3bb69858	0.00557236
231	0x3c5e86df	0.01358196
232	0x3bad2fee	0.0052852547
233	0x3ae7de40	0.0017690137
234	0x3bda64b8	0.0066648386
235	0x3af5eec4	0.0018763174
236	0x3ae49c75	0.0017441647
237	0x3c002251	0.007820682
238	0x3b879cfd	0.0041385875
239	0x3a8631e2	0.0010238255
240	0x3bb736e7	0.0055912617
241	0x3c5b8fea	0.013401011
242	0x3b724522	0.0036967476
243	0x3c97ee22	0.018546168
244	0x3ba755d7	0.0051066685
245	0x3c018e00	0.007907391
246	0x3c62eabb	0.013849909
247	0xb8745664	-5.825459e-05
248	0xb71db0fd	-9.3991375e-06
249	0x3c168465	0.009186839
250	0x3c555b96	0.013022324
251	0x3bc141ae	0.005897722
252	0x3bf18648	0.007370744
253	0x3b9ee25d	0.004848762
254	0x3b80818b	0.0039216927
255	0x3c565a5b	0.013083066

conv_to_lstm.bias f4 [100]
0	0x392ac36b	0.00016285262
1	0x3a06ea23	0.00051465834
2	0x384836d7	4.773479e-05
3	0x3a94ab1d	0.00113425
4	0x3d993194	0.074801594
5	0xb906ea46	-0.0001286651
6	0xb9a73514	-0.00031892268
7	0xbb17e503	-0.0023177273
8	0xbd7c7146	-0.061631463
9	0xb8be4b98	-9.0739864e-05
10	0x3c8e71dc	0.017388277
11	0x3cb9a75b	0.02266281
12	0x39af133e	0.00033392938
13	0x3ab8cfb4	0.0014099986
14	0x39771838	0.00023564778
15	0x3a07d350	0.00051813293
16	0xbb45c74a	-0.00301786
17	0x3a177bd6	0.0005778646
18	0x3b416228	0.0029507969
19	0xbc90c5e0	-0.01767248
20	0xbc6e2b6e	-0.014536722
21	0x38839c0a	6.275631e-05
22	0x398571bc	0.00025452476
23	0x39a8df94	0.00032210036
24	0xbd0b7c02	-0.03405381
25	0xb973d21a	-0.00023252555
26	0x39f7532a	0.00047173473
27	0xbd22c6e5	-0.03974046
28	0x39c40deb	0.00037394403
29	0xb92859e8	-0.00016055221
30	0x39a4dc2a	0.00031444553
31	0xb9084702	-0.00012996423
32	0x39d1a9ce	0.000399901
33	0x3a10bb76	0.0005521098
34	0x3a8e7f14	0.0010871612
35	0xbb943fbc	-0.0045241993
36	0x3941616c	0.00018442207
37	0xba6200bc	-0.0008621325
38	0x3bb4e5ed	0.0055205734
39	0xbd450b31	-0.048106376
40	0xb99ac1dc	-0.00029517605
41	0xbcaedad0	-0.021344572
42	0xbd479476	-0.048725568
43	0xb905e88b	-0.00012770497
44	0xb9a0d7ad	-0.0003067827
45	0x3a1d1ab2	0.00059930526
46	0xbc6dcd02	-0.01451421
47	0x3af25e3c	0.0018491219
48	0xbd5572d2	-0.052111454
49	0xb97b79b6	-0.00023982566
50	0x3cd40438	0.025880918
51	0x3cf949ad	0.03043064
52	0x3ccb6d58	0.024832413
53	0xb9cae35e	-0.00038697844
54	0x3af3d040	0.0018601492
55	0x3a629b43	0.00086443516
56	0xba95769c	-0.0011403146
57	0xba2c2a78	-0.00065676076
58	0xbd127aaf	-0.03576153
59	0x39412128	0.00018418266
60	0x3d496bfe	0.049175255
61	0xbd582088	-0.0527654
62	0xbafda67e	-0.0019351987
63	0xb9bc72d7	-0.00035943717
64	0xb8eb1242	-0.00011209074
65	0xb9d24e60	-0.00040112715
66	0x3a9537ef	0.0011384467
67	0x3b7cd1e4	0.0038577253
68	0x3b2a8009	0.0026016256
69	0x3b4afeb6	0.0030974573
70	0x3a50ac6a	0.0007960262
71	0x39af813e	0.00033474894
72	0xbc7ff2d2	-0.015621858
73	0x3cb241bc	0.02175986
74	0x3a8d278e	0.0010769235
75	0xb9ad2468	-0.00033024256
76	0xb8d5fc5a	-0.000102036356
77	0xb9bcc404	-0.00036004197
78	0x3a66692b	0.0008789475
79	0x3ad14dfb	0.0015968675
80	0xbaaf0ea6	-0.0013355806
81	0xb88c3e04	-6.6872715e-05
82	0x38d88d83	0.00010326041
83	0x3a13e216	0.00056412944
84	0x38299eae	4.0440522e-05
85	0xbd6261be	-0.055268995
86	0xbb170648	-0.0023044515
87	0x3c833dbc	0.016020648
88	0xb9e32b36	-0.0004332901
89	0x38ef6103	0.00011414478
90	0x3ae06420	0.0017119683
91	0x3996cbc8	0.00028762058
92	0x3a9ffbfd	0.0012205836
93	0xb80106be	-3.0762276e-05
94	0x3cf804c9	0.03027572
95	0x3b1147b1	0.0022167976
96	0x3c786b54	0.015162308
97	0x3a4d9a94	0.00078431633
98	0xbb9156bf	-0.00443539
99	0xbb574502	-0.0032847528

bilstm.weight_ih_l0 f4 [256, 100]
0	0xb8c60492	-9.442227e-05
1	0xb7d98241	-2.592907e-05
2	0xb8207810	-3.825879e-05
3	0x3a0d54b5	0.00053913455
4	0xbba1cd8e	-0.004937834
5	0xb8af6c16	-8.364783e-05
6	0x389748a1	7.213769e-05
7	0x3ab1a6bc	0.0013553719
8	0x3c632058	0.013862692
9	0xba39e636	-0.0007091494
10	0x391aa380	0.00014747493
11	0xbbcbcb0e	-0.0062192744
12	0x3999a08c	0.0002930205
13	0x3a0b301c	0.0005309598
14	0x3947ae8a	0.0001904314
15	0xb81dd394	-3.7628764e-05
16	0x3ab466d6	0.0013763558
17	0xba289618	-0.0006431057
18	0xba1ae02e	-0.0005908039
19	0x39b75b51	0.00034972516
20	0xba6277e3	-0.00086390803
21	0xb915b586	-0.0001427737
22	0xb83e2c9a	-4.534107e-05
23	0xba1ddb7d	-0.0006021781
24	0xbae720a1	-0.0017633626
25	0x3a229099	0.00062013563
26	0xb92f8753	-0.00016739713
27	0xbacda283	-0.0015688691
28	0xba5bb470	-0.00083810743
29	0x38dbc75c	0.00010479867
30	0x39889a5f	0.00026054957
31	0x36febaad	7.591522e-06
32	0xba17277e	-0.00057660777
33	0x39ce2eca	0.00039326242
34	0xba9a3ade	-0.0011766811
35	0x3a5283e0	0.0008030515
36	0x38620996	5.3891526e-05
37	0x3a29f54d	0.0006483391
38	0xba8498f1	-0.0010116381
39	0x385f38bc	5.322018e-05
40	0xb7e02056	-2.6717938e-05
41	0xb9d5ef34	-0.00040804746
42	0x3bef8a36	0.007310177
43	0x38b18f98	8.466764e-05
44	0xb96c2151	-0.00022519125
45	0xb9e5336b	-0.00043716593
46	0x3c37b24c	0.011211943
47	0x3b1ed15d	0.0024233677
48	0x3ad4a97e	0.0016224829
49	0x3796cfd9	1.797818e-05
50	0x3afaea3c	0.0019143294
51	0x3b59eb1c	0.0033251708
52	0x3b75845a	0.003746292
53	0x39937794	0.00028127118
54	0xb9dafb5d	-0.0004176748
55	0x3a1faf16	0.00060914585
56	0x39691400	0.00022228062
57	0x3a8d2725	0.0010769112
58	0x3b35db21	0.002774902
59	0x39c72504	0.00037983817
60	0xbba12caf	-0.004918657
61	0x3b3e33d6	0.0029022596
62	0x396f295e	0.00022808227
63	0x38549e73	5.0692306e-05
64	0x398e22d2	0.00027110294
65	0xb9ac770e	-0.000328951
66	0xbac1fddc	-0.0014800387
67	0xba678ced	-0.000883295
68	0xb9aa70b4	-0.00032508897
69	0x3a12867b	0.0005589497
70	0x399e7e36	0.00030230143
71	0xb97cf93e	-0.00024125443
72	0xbaf947b0	-0.0019018557
73	0xbbf88aa1	-0.007584885
74	0xbaacf32e	-0.0013195032
75	0xb97ef705	-0.0002431535
76	0x375abb5b	1.3037435e-05
77	0x38f669a7	0.000117498734
78	0xba275342	-0.0006382951
79	0xb98e16fc	-0.00027101475
80	0x3923d295	0.0001562334
81	0x36263218	2.4765086e-06
82	0x3757ef42	1.2870705e-05
83	0xb9491007	-0.00019174824
84	0x37c859e2	2.3883713e-05
85	0x3afd4943	0.0019324202
86	0xb9adec46	-0.0003317317
87	0xb512ce00	-5.468901e-07
88	0xb811a27a	-3.4722012e-05
89	0xb8abc2c9	-8.190197e-05
90	0xba6cc667	-0.000903225
91	0xb8ccd35c	-9.766847e-05
92	0xb9bc9509	-0.00035969194
93	0xb70a2045	-8.232954e-06
94	0x3b2ca2d7	0.0026342177
95	0xba1d5f8b	-0.0006003312
96	0xba7fddf4	-0.00097605516
97	0xba4ee6fd	-0.00078926963
98	0x3ac14539	0.0014745361
99	0x3a50fafb	0.00079719693
100	0x342d4fc3	1.6140898e-07
101	0xb36819aa	-5.404005e-08
102	0xb3bace72	-8.698852e-08
103	0xb528f1f9	-6.2936994e-07
104	0x37d36fa6	2.520515e-05
105	0xb3eddf56	-1.1076797e-07
106	0xb47ebd30	-2.372442e-07
107	0xb64eb65b	-3.0802537e-06
108	0xb828f8dc	-4.028609e-05
109	0x35caf07e	1.5120165e-06
110	0x36239c2b	2.4379794e-06
111	0x37f60c99	2.9331351e-05
112	0x34091924	1.2768265e-07
113	0xb527fcd4	-6.258026e-07
114	0xb4216905	-1.50325e-07
115	0x3400baa7	1.1988833e-07
116	0xb53edb7b	-7.10999e-07
117	0x35b67816	1.3595006e-06
118	0x3604ea95	1.9806077e-06
119	0xb687b3e4	-4.0442555e-06
120	0x342a3342	1.5851131e-07
121	0x3297d518	1.7675617e-08
122	0x33ef76e7	1.1150933e-07
123	0x35a85515	1.2541738e-06
124	0xb5bc2599	-1.4018034e-06
125	0xb5ae71a0	-1.299708e-06
126	0xb533c07d	-6.6962804e-07
127	0xb645c931	-2.9472396e-06
128	0x35f58ade	1.8294338e-06
129	0xb40f263e	-1.3331825e-07
130	0x3248aaa0	1.1680328e-08
131	0x32a94602	1.9706025e-08
132	0x350b7241	5.1947796e-07
133	0xb3ab4662	-7.9756106e-08
134	0x36516932	3.1204659e-06
135	0xb57baf87	-9.376021e-07
136	0xb3acdcec	-8.0495596e-08
137	0xb5d378f1	-1.5755924e-06
138	0x357af802	9.3493156e-07
139	0xb74b1def	-1.2106712e-05
140	0x340b886d	1.2995015e-07
141	0xb62825bf	-2.5055922e-06
142	0xb8078cac	-3.231752e-05
143	0x3470c9d2	2.2425164e-07
144	0x344ec2f6	1.9256171e-07
145	0x3581c0a8	9.667319e-07
146	0xb8189b55	-3.638429e-05
147	0xb6c8efed	-5.9883955e-06
148	0xb7a2aa1d	-1.939112e-05
149	0xb0eb5724	-1.7123267e-09
150	0xb5a665cc	-1.2397591e-06
151	0xb655aebc	-3.1841182e-06
152	0xb6abd00e	-5.120418e-06
153	0x3453fdca	1.9743234e-07
154	0x35727d76	9.0334595e-07
155	0xb58d4250	-1.0524618e-06
156	0xb50364a3	-4.894775e-07
157	0xb62cdf9b	-2.5760153e-06
158	0xb7ac9291	-2.0572248e-05
159	0xb2032120	-7.632735e-09
160	0x37d9e5dd	2.5975454e-05
161	0xb7b482e9	-2.1518632e-05
162	0xb58b8020	-1.0393596e-06
163	0xb42cde64	-1.6099654e-07
164	0xb47b811e	-2.3423169e-07
165	0x35192b3a	5.7059844e-07
166	0x36aaaac7	5.086276e-06
167	0x36500a88	3.1000545e-06
168	0x343c2474	1.7522126e-07
169	0xb4a09da2	-2.9917015e-07
170	0xb2f9c32c	-2.9076169e-08
171	0xb36edf1e	-5.5616617e-08
172	0x35e22563	1.6849193e-06
173	0x3803705b	3.1337473e-05
174	0x365caae9	3.2882037e-06
175	0x348a3b5a	2.5747687e-07
176	0xb3a8e906	-7.865496e-08
177	0xb4563f26	-1.9953276e-07
178	0x36008dd6	1.9156046e-06
179	0x33d209f1	9.7806954e-08
180	0xb337025a	-4.2610147e-08
181	0xb1fb89e9	-7.32074e-09
182	0x30dba920	1.5982415e-09
183	0x352b445a	6.380193e-07
184	0x333ff005	4.468895e-08
185	0xb79c8540	-1.8658699e-05
186	0xb34ba2ee	-4.7412804e-08
187	0x3648faaf	2.994824e-06
188	0x32ea27a8	2.7259219e-08
189	0x3409bd4e	1.2827988e-07
190	0x351552d8	5.562738e-07
191	0x32274fe6	9.738846e-09
192	0xb35c1c08	-5.1248236e-08
193	0xb1599baf	-3.1666152e-09
194	0xb5fa414a	-1.8645453e-06
195	0x34103df1	1.3433579e-07
196	0x36b53574	5.400443e-06
197	0x35a28e7d	1.211141e-06
198	0xb5d2898c	-1.5686251e-06
199	0x346a0929	2.179628e-07
200	0x33409252	4.483656e-08
201	0xb28afd33	-1.6180456e-08
202	0x325bef5c	1.2801902e-08
203	0xb3e1ffa5	-1.05238804e-07
204	0x3665df31	3.4253574e-06
205	0x3278230c	1.4443469e-08
206	0xb345ba5d	-4.6037133e-08
207	0xb4f45944	-4.551349e-07
208	0xb6aab2a9	-5.0871936e-06
209	0x3469bddc	2.1768886e-07
210	0x34c553d5	3.6755105e-07
211	0x367dde16	3.7829209e-06
212	0x32bc12e7	2.1894676e-08
213	0xb3f2ca6a	-1.1305822e-07
214	0xb33b4a41	-4.3606864e-08
215	0x32b7db16	2.1403633e-08
216	0xb4a99c1f	-3.1592296e-07
217	0x346357e6	2.1173e-07
218	0x349e88be	2.9529286e-07
219	0xb522cfc5	-6.065205e-07
220	0xb256db1e	-1.2506261e-08
221	0x32a34fa1	1.9011908e-08
222	0x32cca4f3	2.3823736e-08
223	0x34491154	1.8725888e-07
224	0xb498184c	-2.8329885e-07
225	0xb44f495e	-1.9305068e-07
226	0x338e95fb	6.6396716e-08
227	0xb5079aca	-5.0516667e-07
228	0x348f5bf0	2.670272e-07
229	0xb31c3eb8	-3.6378623e-08
230	0xb21362c2	-8.578981e-09
231	0xb18cb5aa	-4.095189e-09
232	0x33ccb17f	9.5317766e-08
233	0xb1ba45e6	-5.421259e-09
234	0x34e839f4	4.3255534e-07
235	0xb4707350	-2.2393692e-07
236	0xb30d2e08	-3.2870986e-08
237	0xb47ce55f	-2.3552774e-07
238	0x34959c44	2.786711e-07
239	0xb5e34eff	-1.6935809e-06
240	0x32df0897	2.5964523e-08
241	0xb4d473f8	-3.9572456e-07
242	0xb68c0283	-4.1726175e-06
243	0xb341643b	-4.5027473e-08
244	0x32e6bd15	2.6861509e-08
245	0x342489c5	1.532381e-07
246	0xb69843a1	-4.537826e-06
247	0xb54fca79	-7.7408146e-07
248	0xb63683fc	-2.7196938e-06
249	0xb1111d80	-2.1117046e-09
250	0xb404d72b	-1.2371736e-07
251	0xb4b4302b	-3.356266e-07
252	0xb52e45e1	-6.492174e-07
253	0xb367c1c4	-5.3960107e-08
254	0x34329c7b	1.6634469e-07
255	0xb4342f75	-1.6781071e-07

bilstm.weight_hh_l0 f4 [256, 64]
0	0x3acf0112	0.0015793166
1	0xb828766a	-4.0164603e-05
2	0x38048ec2	3.1604206e-05
3	0x3b65f8b5	0.0035090868
4	0xb83ee6f8	-4.5514636e-05
5	0x3b9c9935	0.004779006
6	0xbabebd5c	-0.0014552283
7	0x36b83eb4	5.490927e-06
8	0xb794cbe8	-1.7737926e-05
9	0xb7c5550f	-2.3523839e-05
10	0xb6877b48	-4.0376653e-06
11	0x3854be8c	5.07222e-05
12	0x3b2e83a8	0.0026628766
13	0xb779b76c	-1.4884263e-05
14	0x3ad490b4	0.0016217441
15	0x38d14b4c	9.979922e-05
16	0xbb27329f	-0.002551235
17	0xb78af1c8	-1.656347e-05
18	0x3782af9a	1.5578978e-05
19	0xbadc759c	-0.0016819718
20	0xbae03896	-0.0017106708
21	0x37042c4f	7.8781295e-06
22	0xbb99ad59	-0.004689854
23	0xb7b0b46b	-2.1064849e-05
24	0x3733fa6b	1.0727536e-05
25	0x37f0bdac	2.8698552e-05
26	0x3aec3c56	0.0018023353
27	0xbb8fc48a	-0.004387443
28	0x3b79b8e6	0.0038104593
29	0x38913192	6.923372e-05
30	0xb7ad2e20	-2.0644686e-05
31	0x3a8853ef	0.0010400991
32	0xb809f478	-3.2891025e-05
33	0x3ba37e85	0.0049894475
34	0x3b6f5f79	0.0036525412
35	0xba2a0d4a	-0.00064869656
36	0xbaed4de4	-0.0018104878
37	0x3b9cbb1f	0.0047830488
38	0x38370aba	4.364059e-05
39	0x37c6c5d9	2.369557e-05
40	0x37dbf283	2.6219763e-05
41	0xbac5808c	-0.0015068217
42	0xb8233556	-3.89119e-05
43	0x38115a6a	3.46549e-05
44	0xb6dee3e6	-6.6426464e-06
45	0x378146a0	1.5410886e-05
46	0xbb95572a	-0.00455751
47	0x382f5914	4.180621e-05
48	0x3815bef1	3.5702196e-05
49	0x36b2a12a	5.3235754e-06
50	0xb69b03aa	-4.6197865e-06
51	0xb7919f71	-1.7359593e-05
52	0xb89e4aca	-7.547958e-05
53	0xb82a9f72	-4.0679653e-05
54	0x37876e4d	1.6144617e-05
55	0xb781d3aa	-1.5476562e-05
56	0xb797f8c8	-1.811645e-05
57	0x3b90b478	0.004416045
58	0xb7148dec	-8.854531e-06
59	0x38a40ab0	7.82212e-05
60	0xb892a9e4	-6.993467e-05
61	0xb89cf9a1	-7.485157e-05
62	0x37d6dc7c	2.5613459e-05
63	0x371dee8e	9.413472e-06
64	0xb691a206	-4.3401988e-06
65	0xb5032e1e	-4.886841e-07
66	0x34363c78	1.6972069e-07
67	0xb7210318	-9.597068e-06
68	0xb2f0d833	-2.8037993e-08
69	0xb73dd7f5	-1.1315559e-05
70	0x360cecdf	2.0999503e-06
71	0x32555856	1.2418317e-08
72	0xb42eb02c	-1.6269104e-07
73	0x3267860a	1.3476447e-08
74	0xb1ea7182	-6.8232007e-09
75	0xb1ad89c6	-5.0506257e-09
76	0xb5de4d24	-1.656274e-06
77	0xb402db2e	-1.218693e-07
78	0x35574ecc	8.0208406e-07
79	0xb487188a	-2.5163564e-07
80	0x36e953e2	6.9537064e-06
81	0xb45d2af1	-2.0597851e-07
82	0x31ce09f9	5.996523e-09
83	0x36828c18	3.890611e-06
84	0x35c2b4ee	1.4506784e-06
85	0x334043e4	4.476523e-08
86	0x370fe189	8.575976e-06
87	0xb4860a29	-2.4966837e-07
88	0x33fe841f	1.18518294e-07
89	0xb302d31a	-3.045998e-08
90	0xb6a1fd35	-4.827651e-06
91	0x3736478b	1.0864703e-05
92	0xb71d97f2	-9.393307e-06
93	0x34dc36b3	4.1017992e-07
94	0xb454bbb2	-1.9812322e-07
95	0xb634a9a0	-2.6920825e-06
96	0xb349a555	-4.6949328e-08
97	0xb745f27a	-1.1798571e-05
98	0xb70b5b7c	-8.306346e-06
99	0xb61f4ecb	-2.373871e-06
100	0x36bea42a	5.6815525e-06
101	0xb73edb84	-1.13759925e-05
102	0x33375136	4.268187e-08
103	0xb2a56eff	-1.9259003e-08
104	0x33b8d43f	8.606775e-08
105	0x36389b1e	2.7508427e-06
106	0xb3ba2eb6	-8.6697966e-08
107	0x34081b36	1.2675886e-07
108	0x32eaf1fb	2.7351225e-08
109	0x346fdd5b	2.2339138e-07
110	0x372a3d01	1.0146993e-05
111	0x3419d654	1.4327208e-07
112	0xb4513df8	-1.9487186e-07
113	0x33116be1	3.385856e-08
114	0x33d73c5e	1.00226984e-07
115	0x34979127	2.8231554e-07
116	0xb4b2fbae	-3.3338205e-07
117	0xb457ee3f	-2.0110109e-07
118	0x33bfd020	8.931988e-08
119	0xb3ea3a5b	-1.0907089e-07
120	0xb3ed1d0c	-1.1041456e-07
121	0xb6b726dd	-5.4583493e-06
122	0xb274df2b	-1.4253412e-08
123	0x34f9aff4	4.6507887e-07
124	0xb3f228ce	-1.12764255e-07
125	0xb50321f7	-4.885073e-07
126	0x3300a268	2.995003e-08
127	0x332fc38a	4.0923204e-08
128	0xb5803c1e	-9.55424e-07
129	0xb36c93c9	-5.508244e-08
130	0x316a27cd	3.4074106e-09
131	0xb5e19c76	-1.6809342e-06
132	0x3138a234	2.6867726e-09
133	0xb60b5701	-2.0763257e-06
134	0x35493a22	7.496293e-07
135	0x3184c2b6	3.8638417e-09
136	0xb208b182	-7.9566025e-09
137	0xb1725279	-3.5262515e-09
138	0xb1a81b1c	-4.8925255e-09
139	0x3187b1d4	3.949234e-09
140	0xb53cea66	-7.037655e-07
141	0xb1e8d1a9	-6.7759243e-09
142	0xb5501779	-7.7520195e-07
143	0xb383bc60	-6.134428e-08
144	0x35bb60c4	1.3960748e-06
145	0xb291a4e2	-1.6955202e-08
146	0x307cd579	9.198043e-10
147	0x3577f034	9.236421e-07
148	0x355dbdd3	8.2605146e-07
149	0x32cc0060	2.3748896e-08
150	0x35f95bd3	1.857867e-06
151	0xb25788f5	-1.25457875e-08
152	0x328925eb	1.5966142e-08
153	0xb18e2ecc	-4.138064e-09
154	0xb576b212	-9.190127e-07
155	0x3601d9d6	1.9349295e-06
156	0xb5e77b81	-1.7246786e-06
157	0x31ec5aa0	6.878807e-09
158	0xb332d6d2	-4.1639233e-08
159	0xb52bc2d2	-6.3985965e-07
160	0xb1c6b016	-5.782577e-09
161	0xb6110cc7	-2.161412e-06
162	0xb5d895ba	-1.613683e-06
163	0x344c54b6	1.9029798e-07
164	0x358d8a40	1.0545555e-06
165	0xb6089a12	-2.035526e-06
166	0xb01ea9f6	-5.7721594e-10
167	0x30f25f4e	1.7634905e-09
168	0xb183c783	-3.8352836e-09
169	0x3523a458	6.0961383e-07
170	0xb20f2bd8	-8.333664e-09
171	0x33222f42	3.7761545e-08
172	0x31cbbc9b	5.9295195e-09
173	0x32878fbc	1.5781431e-08
174	0x35fa976f	1.8670524e-06
175	0x31a5416e	4.8095705e-09
176	0xb2205cd4	-9.334332e-09
177	0xb05855ae	-7.87021e-10
178	0x32a7a914	1.9518247e-08
179	0x335d52fb	5.1531043e-08
180	0xb2d5e706	-2.490152e-08
181	0x2f835ce0	2.3894753e-10
182	0xb1145d50	-2.1589877e-09
183	0x31af8f77	5.1094804e-09
184	0xadf96480	-2.8352654e-11
185	0xb5e7bb69	-1.7265385e-06
186	0xb1c945cf	-5.8578062e-09
187	0x33080280	3.166724e-08
188	0xb16213ac	-3.289851e-09
189	0xb0a671c4	-1.2110424e-09
190	0x328b24e8	1.6198513e-08
191	0x328936c3	1.5973802e-08
192	0x3b870273	0.004120165
193	0xb990c88e	-0.00027615245
194	0x38a500c8	7.8679586e-05
195	0x3bd40ec9	0.006471489
196	0xb8db5384	-0.0001045829
197	0x3c4e3f73	0.01258837
198	0xbb702e1a	-0.0036648572
199	0x37c5e1c6	2.3589364e-05
200	0xb8f3145c	-0.00011590935
201	0xb83f3a9c	-4.5592533e-05
202	0xb80b20bc	-3.317067e-05
203	0x38d6eab8	0.00010248035
204	0x3bdba961	0.006703541
205	0xb7d618f1	-2.5522402e-05
206	0x3b88d0a0	0.0041752607
207	0x3999c5c4	0.0002932978
208	0xbbe4595d	-0.0069686607
209	0xb8a71af6	-7.9682024e-05
210	0x3854f43a	5.0772192e-05
211	0xbb898c5a	-0.0041976394
212	0xbb8c8a36	-0.004288937
213	0x3819fe8b	3.6715104e-05
214	0xbc488a9f	-0.012240081
215	0xb921d6fb	-0.00015434243
216	0x389da916	7.517838e-05
217	0x3924eddf	0.00015728873
218	0x3b914dba	0.0044343146
219	0xbc3d2e8e	-0.011546744
220	0x3c2a05a3	0.01037732
221	0x392d176a	0.00016507288
222	0xb9013542	-0.00012322239
223	0x3b43f7ce	0.0029902342
224	0xb92486f2	-0.0001569053
225	0x3c58808b	0.013214241
226	0x3c260a86	0.010134345
227	0xbb0910c6	-0.0020914539
228	0xbb9dd006	-0.004816058
229	0x3c5029e1	0.012705297
230	0x38fd814a	0.00012088062
231	0x3814abcc	3.5445948e-05
232	0x388453a2	6.309828e-05
233	0xbb855ec5	-0.0040701353
234	0xb86431f0	-5.4405944e-05
235	0x392915a4	0.00016125158
236	0xb8415dea	-4.610225e-05
237	0x38ab837e	8.178408e-05
238	0xbc465ed4	-0.01210757
239	0x389f6900	7.6012686e-05
240	0x38d88735	0.00010324867
241	0x37c5db44	2.3586334e-05
242	0xb74e15cc	-1.2283632e-05
243	0xb8925f59	-6.9795824e-05
244	0xb9424692	-0.00018527571
245	0xb8992ea8	-7.304299e-05
246	0x374828b0	1.1930402e-05
247	0xb7d6a628	-2.558816e-05
248	0xb8ad4cf9	-8.26362e-05
249	0x3c3b70b8	0.011440448
250	0xb8384a3c	-4.3938155e-05
251	0x393c8af4	0.00017980841
252	0xb8c0b313	-9.1886286e-05
253	0xb8d6ce68	-0.00010242761
254	0x3903f0b8	0.00012582808
255	0x3844e7f8	4.694608e-05

bilstm.bias_ih_l0 f4 [256]
0	0x3c9bb0b6	0.01900516
1	0xb7e06e26	-2.6754173e-05
2	0xb60c7667	-2.0930545e-06
3	0x3da63308	0.08115202
4	0xb6125c23	-2.1809326e-06
5	0x3d39fd52	0.0454076
6	0x3c957743	0.018245345
7	0xb31375f6	-3.433339e-08
8	0xb62776b3	-2.4954031e-06
9	0xb4ba6c9a	-3.4724218e-07
10	0xb484ee6f	-2.47604e-07
11	0xb667997b	-3.451102e-06
12	0x3d2014fe	0.03908252
13	0xb4a79f29	-3.1221978e-07
14	0x3cab4e26	0.020911288
15	0x37e4625b	2.7225518e-05
16	0x3d0ad9fa	0.033899285
17	0x33fdf6fc	1.1826157e-07
18	0xb4fa6d84	-4.6645812e-07
19	0x3cb25a3b	0.02177154
20	0x3cca9bde	0.024732526
21	0xb5a35ef1	-1.2172078e-06
22	0x3d422266	0.047396086
23	0xb6d75103	-6.4169303e-06
24	0xb5f39974	-1.8149572e-06
25	0xb69f736d	-4.7520066e-06
26	0x3cce9e97	0.025222106
27	0x3d3600ac	0.044434234
28	0x3d2c6a6d	0.042093683
29	0xb6c20cec	-5.783155e-06
30	0xb6e3a789	-6.784631e-06
31	0x3c5380be	0.0129091125
32	0xb66f783d	-3.5683763e-06
33	0x3d3d397f	0.04619741
34	0x3d2842c5	0.0410793
35	0x3b728a26	0.0037008612
36	0x3ca99e87	0.020705475
37	0x3d3c15e4	0.045919314
38	0xb64f8c97	-3.0927238e-06
39	0xb46a0dd0	-2.1797973e-07
40	0xb51f6baa	-5.938879e-07
41	0x3c9a58df	0.018841205
42	0xb5195a23	-5.712811e-07
43	0xb71949a8	-9.13666e-06
44	0xb5b96a37	-1.3814487e-06
45	0xb60b6aeb	-2.0774849e-06
46	0x3d33fd7d	0.043942917
47	0xb58b854b	-1.03951e-06
48	0xb5b04f4c	-1.31361e-06
49	0xb4381380	-1.714343e-07
50	0x3625f0d8	2.4727105e-06
51	0x378e7185	1.698058e-05
52	0xb58a9e1e	-1.0327819e-06
53	0xb5b186d5	-1.3226769e-06
54	0xb499f277	-2.8674887e-07
55	0xb48affa1	-2.5890498e-07
56	0xb60b9eac	-2.0804973e-06
57	0x3d3494e7	0.044087317
58	0xb4170809	-1.4065894e-07
59	0xb7457690	-1.176972e-05
60	0xb6854401	-3.9716256e-06
61	0x3717a0ee	9.037771e-06
62	0xb5c62db8	-1.4765455e-06
63	0xb5adb672	-1.2942603e-06
64	0x3c6dbad8	0.014509879
65	0xb7b1facb	-2.1216829e-05
66	0xb607de4d	-2.0245964e-06
67	0x3d9ee965	0.0775936
68	0xb5a5a1f5	-1.2340594e-06
69	0x3d50cd94	0.050977305
70	0x3c6fa690	0.014627114
71	0xb3643f96	-5.3143218e-08
72	0xb6210c79	-2.399813e-06
73	0xb44677c8	-1.8483763e-07
74	0xb45f6af2	-2.08074e-07
75	0xb65a956f	-3.2571513e-06
76	0x3d14d7be	0.03633856
77	0xb4dc8776	-4.1076754e-07
78	0x3c8c19bc	0.017102115
79	0x377947b2	1.4858249e-05
80	0x3d00a8b5	0.03141089
81	0xb5543e2d	-7.906663e-07
82	0xb4d86f5c	-4.031416e-07
83	0x3c8fbe9d	0.017546946
84	0x3ca564ae	0.02018961
85	0xb5c04d02	-1.4327527e-06
86	0x3d57c8af	0.05268162
87	0xb6bb23fd	-5.577224e-06
88	0xb5c2e55c	-1.4520879e-06
89	0xb68c450b	-4.180363e-06
90	0x3ca79522	0.020456854
91	0x3d45aaa7	0.04825845
92	0x3d35fe5c	0.04443203
93	0xb6fbb4f5	-7.501449e-06
94	0xb6d4d958	-6.3433945e-06
95	0x3c1ef095	0.009700914
96	0xb64a0afb	-3.0106737e-06
97	0x3d58e814	0.052955702
98	0x3d2ed3d0	0.04268247
99	0x3b2b2823	0.0026116453
100	0x3c8a766d	0.016902173
101	0x3d53ca87	0.051706817
102	0xb6315f85	-2.6430655e-06
103	0xb2fc11b0	-2.9344704e-08
104	0xb522db26	-6.0668606e-07
105	0x3c72ce11	0.014819638
106	0xb4d636f9	-3.9900604e-07
107	0xb703ed1f	-7.8634175e-06
108	0xb57d94d0	-9.4466395e-07
109	0xb60c605b	-2.0917712e-06
110	0x3d48c937	0.04902002
111	0xb59b8db1	-1.1589638e-06
112	0x34b512d4	3.3727576e-07
113	0xb437ae9b	-1.7106724e-07
114	0x36031099	1.9530182e-06
115	0x375aba9f	1.3037264e-05
116	0xb6470942	-2.96587e-06
117	0xb5b37b10	-1.3372355e-06
118	0xb4921432	-2.7209313e-07
119	0xb4a32676	-3.03891e-07
120	0xb5f54172	-1.827297e-06
121	0x3d42c2f8	0.047549218
122	0xb44cb1ea	-1.9063705e-07
123	0xb7403e04	-1.1458531e-05
124	0xb6513853	-3.1176212e-06
125	0x36841c70	3.937217e-06
126	0xb5ef9c64	-1.7852403e-06
127	0xb5a418e6	-1.2226199e-06
128	0x3ac0b05a	0.0014700994
129	0xba087aa7	-0.0005206265
130	0xbaf433c5	-0.0018631151
131	0x3ddd4947	0.10804992
132	0xbae9b71f	-0.0017831064
133	0xbcb52e2c	-0.022116743
134	0x3a9c1835	0.001190907
135	0xb8d1dbc2	-0.0001000683
136	0xba0f4631	-0.00054654764
137	0x3a2befed	0.0006558884
138	0x39d56dce	0.00040708337
139	0x3b240495	0.0025027145
140	0xbc0204c6	-0.007935708
141	0x3ac34089	0.0014896552
142	0x3b72868f	0.0037006473
143	0xbaf953d6	-0.0019022177
144	0x3c284feb	0.01027296
145	0xbb2e8658	-0.0026630368
146	0x39687b17	0.00022171099
147	0xbc1e1846	-0.009649342
148	0x3b6087a6	0.003426054
149	0xb79bb762	-1.8562834e-05
150	0x3cccbb75	0.02499173
151	0xba60f198	-0.0008580922
152	0x3955b6c0	0.00020381343
153	0x3b5cb803	0.0033679015
154	0x3baf4bb9	0.005349603
155	0xbc4cfacc	-0.0125109665
156	0xbcd29af0	-0.025708646
157	0x39e5aa32	0.0004380509
158	0x38f152b1	0.00011507178
159	0xbab2a9af	-0.0013630892
160	0xbb2a7664	-0.0026010508
161	0xbcbe9e38	-0.023268804
162	0xbc599e1e	-0.013282327
163	0xb986988c	-0.00025672128
164	0xbbc613f1	-0.0060448577
165	0x3c2d53c2	0.010579051
166	0x3a922f84	0.0011153077
167	0xb8a955ed	-8.074553e-05
168	0x3ab3510b	0.0013680769
169	0x3b8dabc9	0.004323457
170	0xbabaca93	-0.0014251046
171	0x3a33d2f8	0.0006859745
172	0x3b44e6e3	0.0030044846
173	0xb8aa6210	-8.124497e-05
174	0x3c1b2235	0.009468605
175	0xba3f0193	-0.00072863064
176	0x3a4d553f	0.0007832832
177	0xb961ea7a	-0.00021545021
178	0x3a3055be	0.0006726644
179	0x397e1277	0.00024230206
180	0xbaec9a99	-0.0018051445
181	0x3a3d0bc2	0.000721153
182	0xbacf632f	-0.0015822406
183	0xb9accb4a	-0.0003295786
184	0xba318f1f	-0.0006773341
185	0xbcc921d9	-0.024552273
186	0x398af3f0	0.0002650316
187	0x3a34006d	0.00068665185
188	0xb9749416	-0.0002332482
189	0x391b34c6	0.00014801612
190	0x3b10a89d	0.0022073158
191	0xb927a1a2	-0.00015986574
192	0x3ca0e174	0.019638754
193	0xb7b4381c	-2.14838e-05
194	0xb5e8444a	-1.7305222e-06
195	0x3dd68af0	0.10475719
196	0xb792cb9c	-1.749937e-05
197	0x3d88df43	0.06683209
198	0x3c9fec95	0.01952199
199	0x33d7a5df	1.00418895e-07
200	0xb5ef9572	-1.7850382e-06
201	0x335f709f	5.2023662e-08
202	0xb451e840	-1.9549134e-07
203	0xb659ecc1	-3.2473329e-06
204	0x3d44b25e	0.048021667
205	0xb42f730e	-1.6340002e-07
206	0x3cb5b250	0.022179753
207	0x37fdc1ce	3.0250198e-05
208	0x3d277a6c	0.040888235
209	0xb5b8731e	-1.3742572e-06
210	0xb4f979dc	-4.646853e-07
211	0x3cb9274f	0.022601752
212	0x3cd9370e	0.02651551
213	0xb496dcfe	-2.810047e-07
214	0x3d8de448	0.06928307
215	0xb6b12181	-5.2789114e-06
216	0xb5d19cac	-1.5617311e-06
217	0xb68a221b	-4.116691e-06
218	0x3cdcb955	0.026943842
219	0x3d82a348	0.063788
220	0x3d6b36ed	0.05742543
221	0xb6597e35	-3.2408982e-06
222	0xb659cf50	-3.2456192e-06
223	0x3c4e379b	0.0125865
224	0xb709a236	-8.203604e-06
225	0x3d8ca886	0.06868081
226	0x3d62a619	0.055334184
227	0x3b61c64d	0.0034450472
228	0x3cac3af7	0.02102421
229	0x3d8a7a5f	0.06761622
230	0xb624c105	-2.4550257e-06
231	0x340a9832	1.290762e-07
232	0xb5341abb	-6.7094123e-07
233	0x3c9dad72	0.019247744
234	0xb3c60635	-9.2212225e-08
235	0xb6fc7e14	-7.5248627e-06
236	0xb58ea18e	-1.0626843e-06
237	0xb5ec6e35	-1.7615445e-06
238	0x3d827870	0.06370628
239	0xb412cbb5	-1.3671418e-07
240	0xb7fbf7c5	-3.0036908e-05
241	0xb4041c76	-1.2303812e-07
242	0x359269a1	1.090859e-06
243	0xb85bef91	-5.2436782e-05
244	0xb653abec	-3.1541522e-06
245	0x347d0c1a	2.3566864e-07
246	0xb43271c1	-1.6618925e-07
247	0xb4414756	-1.8000478e-07
248	0xb5e5bffe	-1.7117707e-06
249	0x3d7ca6de	0.061682574
250	0x33a647f0	7.743063e-08
251	0xb72a41f9	-1.014815e-05
252	0xb64d0c8e	-3.0554688e-06
253	0x373f99ce	1.1420298e-05
254	0xb6374ee4	-2.7315045e-06
255	0xb55e50d6	-8.2819076e-07

bilstm.bias_hh_l0 f4 [256]
0	0x3c9bacca	0.01900329
1	0xb7dee258	-2.6569862e-05
2	0xb60c911f	-2.0946097e-06
3	0x3da62fd8	0.08114594
4	0xb6121504	-2.1767928e-06
5	0x3d39fd4d	0.045407582
6	0x3c9582e7	0.018250896
7	0xb3145e4b	-3.4544694e-08
8	0xb62ae15a	-2.5463146e-06
9	0xb4bb2776	-3.4860176e-07
10	0xb4844f6a	-2.4644697e-07
11	0xb6686d1b	-3.4634202e-06
12	0x3d201508	0.039082557
13	0xb4ac0216	-3.2039014e-07
14	0x3cab29fa	0.02089404
15	0x37e4d685	2.7279611e-05
16	0x3d0ad69c	0.033896074
17	0x33d1a108	9.761612e-08
18	0xb4f934ec	-4.641837e-07
19	0x3cb26211	0.021775277
20	0x3cca9402	0.024728779
21	0xb5a31ec5	-1.2153401e-06
22	0x3d4221f6	0.04739567
23	0xb6d6d79e	-6.402798e-06
24	0xb5f75c15	-1.8429733e-06
25	0xb6a0ee71	-4.79613e-06
26	0x3cce96c2	0.025218371
27	0x3d3600a2	0.044434197
28	0x3d2c6ad3	0.042094063
29	0xb6c3a95e	-5.83117e-06
30	0xb6e3cf09	-6.7892292e-06
31	0x3c537caf	0.012908145
32	0xb66f7a3e	-3.568493e-06
33	0x3d3d3797	0.046195593
34	0x3d2839d8	0.04107079
35	0x3b726126	0.0036984175
36	0x3ca9bac1	0.020718934
37	0x3d3c18d1	0.045922104
38	0xb64ec2a4	-3.0809688e-06
39	0xb46a4102	-2.1816598e-07
40	0xb5206d5a	-5.976377e-07
41	0x3c9a5048	0.01883711
42	0xb51663af	-5.6024413e-07
43	0xb7152158	-8.8888555e-06
44	0xb5b4fbcc	-1.3484328e-06
45	0xb6082594	-2.0287453e-06
46	0x3d33fa8b	0.04394011
47	0xb58b2998	-1.0368412e-06
48	0xb5b1b3e8	-1.3239887e-06
49	0xb43eb004	-1.7759163e-07
50	0x36260a8d	2.474207e-06
51	0x378e2273	1.694376e-05
52	0xb58ee1bd	-1.0645523e-06
53	0xb5b1c3ce	-1.3244514e-06
54	0xb499d584	-2.8653824e-07
55	0xb490d437	-2.6976497e-07
56	0xb6089b19	-2.0355858e-06
57	0x3d34975e	0.044089667
58	0xb415e44e	-1.3959763e-07
59	0xb7457ba3	-1.1770901e-05
60	0xb6852e65	-3.96911e-06
61	0x3717e09c	9.052597e-06
62	0xb5c631a3	-1.4766596e-06
63	0xb5adfe48	-1.296351e-06
64	0x3c6dbb77	0.014510027
65	0xb7afd2a8	-2.095972e-05
66	0xb6059357	-1.9904307e-06
67	0x3d9ee947	0.07759338
68	0xb5a5d3f9	-1.235515e-06
69	0x3d50ce23	0.050977837
70	0x3c6fa576	0.014626851
71	0xb363a5de	-5.300341e-08
72	0xb626bda2	-2.4846308e-06
73	0xb444088e	-1.8257035e-07
74	0xb45f76b0	-2.0811672e-07
75	0xb6597b9e	-3.2407474e-06
76	0x3d14dcb0	0.036343277
77	0xb4e1f811	-4.2090008e-07
78	0x3c8c1530	0.017099947
79	0x377ca7e6	1.5059462e-05
80	0x3d00ab4a	0.031413354
81	0xb554a6f4	-7.9219103e-07
82	0xb4d8f9d5	-4.0414912e-07
83	0x3c8fb568	0.017542556
84	0x3ca55ed6	0.020186823
85	0xb5bf54a5	-1.4255244e-06
86	0x3d57c683	0.05267955
87	0xb6bb720e	-5.586312e-06
88	0xb5c52ead	-1.4691228e-06
89	0xb68bf958	-4.1715502e-06
90	0x3ca790cb	0.020454785
91	0x3d45a7ff	0.048255917
92	0x3d360012	0.04443366
93	0xb6fca3ce	-7.5292546e-06
94	0xb6d32662	-6.2927584e-06
95	0x3c1ee480	0.009698033
96	0xb64a218c	-3.0119872e-06
97	0x3d58e79c	0.052955255
98	0x3d2ecd14	0.042676046
99	0x3b2b3d88	0.0026129205
100	0x3c8a62b9	0.016892778
101	0x3d53ca9d	0.0517069
102	0xb6315085	-2.6421924e-06
103	0xb300fe48	-3.003359e-08
104	0xb522f2bc	-6.070293e-07
105	0x3c72ba71	0.014814959
106	0xb4d674f4	-3.99457e-07
107	0xb703bcb0	-7.852141e-06
108	0xb58309d8	-9.763125e-07
109	0xb607f504	-2.0259185e-06
110	0x3d48c6ee	0.04901784
111	0xb599675d	-1.1429471e-06
112	0x34ad298a	3.2253985e-07
113	0xb4385568	-1.7167406e-07
114	0x360317e6	1.9534432e-06
115	0x375a5a10	1.3014782e-05
116	0xb647477e	-2.9694925e-06
117	0xb5b7bece	-1.3690094e-06
118	0xb492f8c0	-2.737561e-07
119	0xb4a056b2	-2.9865402e-07
120	0xb5f4f078	-1.8249402e-06
121	0x3d42bed6	0.047545277
122	0xb44ce39a	-1.9081781e-07
123	0xb73e39ec	-1.13383685e-05
124	0xb6527988	-3.136318e-06
125	0x3682b0aa	3.8948683e-06
126	0xb5efc424	-1.7863972e-06
127	0xb5a2113b	-1.2074955e-06
128	0xba9fe934	-0.0012200237
129	0xba10d72c	-0.0005525227
130	0x3b08cdf7	0.0020874718
131	0x3dcbba1e	0.099476084
132	0xbaa51177	-0.0012593706
133	0x3be1c284	0.006889643
134	0xbba4e10f	-0.005031712
135	0xb772da48	-1.4475147e-05
136	0xb96a05d0	-0.00022318144
137	0xbad958b8	-0.0016582226
138	0xba3e03d2	-0.0007248494
139	0x39a140a8	0.00030756486
140	0x3bd914bc	0.006624786
141	0xba4b7975	-0.0007761934
142	0xbb9acea8	-0.0047243424
143	0xba831c1c	-0.0010002884
144	0x3c29e941	0.0103705535
145	0x3b0ace20	0.002117999
146	0x3a116ae7	0.0005547241
147	0x3accc674	0.0015623108
148	0x3b5d57c0	0.0033774227
149	0xba90a30c	-0.001103492
150	0x3b635056	0.0034685335
151	0xba0d4467	-0.0005388916
152	0x3992dd64	0.0002801224
153	0x3b3d778c	0.0028910367
154	0xb8150920	-3.5532867e-05
155	0xbc8b96ee	-0.017039742
156	0xb91dd878	-0.00015053328
157	0x39ea26ce	0.0004466087
158	0xb9645324	-0.00021774747
159	0x3a955446	0.0011392913
160	0xbafb6e0e	-0.0019182579
161	0x3b5526e8	0.003252441
162	0xbc85f28d	-0.016351009
163	0x3ae05f01	0.0017118157
164	0x3b8eda98	0.0043595545
165	0xbce4885a	-0.027897049
166	0x3b14d3ea	0.0022709318
167	0x3aba3567	0.0014206589
168	0xb9ed0c54	-0.00045213348
169	0x3b70132a	0.0036632516
170	0x3a376660	0.0006996151
171	0x3a4c619a	0.0007796526
172	0xbbb62bc6	-0.0055594174
173	0x39c83194	0.0003818391
174	0x3c224d35	0.009906103
175	0x3a97dbdd	0.001158591
176	0x3b8c7321	0.0042861854
177	0x39192e61	0.00014608495
178	0x3a1e1101	0.00060297555
179	0x3ae45815	0.001742127
180	0xba2daa10	-0.00066247676
181	0xba4401af	-0.00074770575
182	0x3a5bdf2f	0.0008387444
183	0x3a194cc2	0.00058479246
184	0xb7441274	-1.1686807e-05
185	0xbcdb9678	-0.026805148
186	0xba3ead86	-0.0007273782
187	0xba82a009	-0.0009965907
188	0xba078cf8	-0.0005170847
189	0x3a8d09ab	0.0010760328
190	0x39b61b39	0.00034734028
191	0xb95d740a	-0.0002111943
192	0x3ca0da58	0.019635364
193	0xb7b43220	-2.1481013e-05
194	0xb5e834fa	-1.7300765e-06
195	0x3dd68737	0.10475009
196	0xb792c583	-1.749653e-05
197	0x3d88de4c	0.06683025
198	0x3c9fea1e	0.019520815
199	0x33d23ee0	9.790324e-08
200	0xb5da63ac	-1.6271274e-06
201	0x337174da	5.621846e-08
202	0xb452116a	-1.9564109e-07
203	0xb65a403e	-3.2521925e-06
204	0x3d44ad55	0.048016865
205	0xb4310924	-1.6487735e-07
206	0x3cb5b1e5	0.022179553
207	0x37fe271a	3.0297368e-05
208	0x3d277bcc	0.040889546
209	0xb5a9e2f8	-1.2657538e-06
210	0xb4f8997b	-4.6305271e-07
211	0x3cb92445	0.022600302
212	0x3cd94447	0.026521815
213	0xb4975f9b	-2.8195504e-07
214	0x3d8de2ae	0.06928001
215	0xb6b151dd	-5.284541e-06
216	0xb5d2074b	-1.5648342e-06
217	0xb689f578	-4.1114945e-06
218	0x3cdcbb0a	0.026944656
219	0x3d82a2a8	0.063786805
220	0x3d6b3039	0.057419036
221	0xb658adb0	-3.2287608e-06
222	0xb658bdc5	-3.2296969e-06
223	0x3c4e3ea6	0.012588179
224	0xb709eece	-8.221437e-06
225	0x3d8caea8	0.068692505
226	0x3d62a5d4	0.055333927
227	0x3b61c707	0.0034450905
228	0x3cac6d00	0.021048069
229	0x3d8a7ae4	0.06761721
230	0xb6249b1f	-2.4528197e-06
231	0x3412e656	1.3681105e-07
232	0xb533cf05	-6.698395e-07
233	0x3c9dae1e	0.019248065
234	0xb3c3e76e	-9.122492e-08
235	0xb6fc2047	-7.513943e-06
236	0xb58a0bc2	-1.0285223e-06
237	0xb5dfa730	-1.6663453e-06
238	0x3d8277b5	0.063704886
239	0xb4089c00	-1.272274e-07
240	0xb7feb334	-3.0362608e-05
241	0xb4047bcc	-1.2338495e-07
242	0x359229be	1.0889996e-06
243	0xb85b3402	-5.2262105e-05
244	0xb6552586	-3.1761315e-06
245	0x34807c4b	2.3932293e-07
246	0xb4286b73	-1.5685309e-07
247	0xb4419a1a	-1.8030588e-07
248	0xb5e3557f	-1.6937701e-06
249	0x3d7ca6a9	0.061682377
250	0x33a46d45	7.656721e-08
251	0xb72a3721	-1.0145625e-05
252	0xb6511c10	-3.1159761e-06
253	0x374007c4	1.14459e-05
254	0xb638246e	-2.7439341e-06
255	0xb55d1ce9	-8.2370985e-07
