models/cnn_bilstm_5.pth (torch, 999145 bytes, 19 tensors)

conv1d.weight f4 [32, 14, 10]
00000000: 3331 85bd 3c42 dd3b 70e0 30bd 897b 38bd
00000010: 402b fa3b 318b f53c dae2 f63c 84e4 7f3d
00000020: b34b 03bd 2502 a93d 6e3a ac3b bd48 31bd
00000030: 722e d3bc b62d 27bd 7923 fbbb 2e04 6d3d
00000040: 3d00 293d 47fa 653d 1c2e 82bd a4cd 9238
00000050: 0236 00bd 1bb7 723c c63e 7a3d 4a68 8fbd
00000060: a28f 36bc d613 4a3d a6fb 4f3d a214 2abd
00000070: ecf3 23bc 99bb 66bd 697f d3bc 0a79 fdbc
00000080: 9dc9 313d 2365 a23c 3388 e33b 5e38 f43c
00000090: 833a 98bd 3e06 a3bd 8c26 d9bc 2eb4 0b3d
000000a0: 1044 563d 8081 6e3d 8dd6 ac3c 0bb5 943b
000000b0: 5b54 7f3c e0bf 04bd 2452 043d bd7e ffbb
000000c0: 5380 e0bc 9918 dbbc f080 373d ecca 73ba
000000d0: 3392 81bd 9338 57bd 738b 233d b581 ddbb
000000e0: 9755 8d3d f7d5 7dbd d328 a8bd 541a 6abd
000000f0: 044a 00bc f8c4 84bd 93e0 21bd 39a7 9e3d
00000100: 169e 543c 0e98 d13c 0669 8cbc 4def 75bd
00000110: 8875 323c 9d79 d63b b9cb 683d 9c40 37bd
00000120: c3f3 ddbc 7672 8ebb 53a9 a83c ef6e 913d
00000130: 457d f43c 4451 a2bd cd6e 083d 51ea c6bb
00000140: e056 b93c b78d 84bd 1431 3b3d e4f9 45bd
00000150: d813 84bd 552c 4b3d 445d 9a3d 89fb 193d
00000160: dcdc 01bd 09e2 e43c e0f2 a83d 4380 643d
00000170: 0696 83bd cb74 94bd 52b6 b6bc 0e71 653d
00000180: 374b 653c 426b 7b3d 7a4d 30bd 2b09 993c
00000190: 40fc 313c 0e77 fdbc 24b1 70bd d1fb 313d
000001a0: d76c 8b3d be71 5a3d 78d6 babc 958d 113d
000001b0: e6d0 42bd ffdf ef3c 503f 3ebd 82b9 65bd
000001c0: 5a2e 07bd 76cb 18bd e320 8d3d fc29 803d
000001d0: 3ae4 5b3d fe24 ac3d d7d4 093d 90e3 a43d
000001e0: f391 443d 72f9 603d 9ed6 833d c0d4 81bd
000001f0: ed8d 93bd 4c06 8c3d fcdb aabd 1a4c e5bc
00000200: ab40 16bd 3563 8d3c 859a dbbc f002 bd3b
00000210: 0bc8 d63c d3ae 223d 8c1f 4d3d 02bc f9bc
00000220: def9 3f3d 8737 a83d 4012 1a3d de5c 2c3c
00000230: 5413 03bc 0827 873d 7b65 2f3d e24b 553d
00000240: 91f3 863d 37f0 973c 9a3c f23c 6b9e 03bd
00000250: d6ce ac3d 0069 0dba 9b68 47bd 62bc 14bd
00000260: a569 553d d25b 57bd cd4d 713d 3761 1f3d
00000270: 60d1 68bc 72b9 80bd 7221 a73d 7d79 20bd
00000280: 1e1b 94bd db47 a3bd 6cc6 9bbd c58a 213d
00000290: 2366 49bd f2f4 51bd 3bf1 a2bd df02 b7bc
000002a0: d4a1 8d3d f329 8d3c 8e42 a73a d2b4 87bd
000002b0: 096a 41bb ac35 2d3d 0206 24bd 1d5e 873d
000002c0: 3e39 a53d 0b6a fcbb 55c9 973d ec77 a5bd
000002d0: 9a6c 18bd 47f2 22bc e2be 163c f500 0ebb
000002e0: 6dad 863d a409 dabc 925b 6cbd 2b65 96b8
000002f0: 40c4 073c 213d 07bd 3333 793d 1b47 203d
00000300: 56d0 71bb aec5 98bd bf2f 9a3c f9f5 a63d
00000310: 23c6 32bd 7027 2abd fd96 a4bd 5144 88bd
00000320: 9918 96bc f043 9dbd c036 75bd bb4b 66bd
00000330: 4883 9cbc 6ce4 aa3d 0cf2 e6bc de29 1b3c
00000340: 17c5 f3bc da21 713d f80e 20bd 1fba d5bc
00000350: 6ea3 4e3d 04a3 88bd ec27 7ebd 57fb 91bd
00000360: 2b10 9cbd 1fa3 d23b bce5 813d f6d1 923d
00000370: 892e fe3b 419e af3c be86 0fbd 6d56 2f3d
00000380: 5768 4bbd b207 26bc 16ea 913d c3f2 2abc
00000390: f805 99bd dbec 93bd 58e1 34bd 0d1e 99bd
000003a0: 684b 303c 4c89 01bd 9150 88bc 700e 963c
000003b0: a1ef cbbc b724 72bd 516b 7abc 8de6 1bbb
000003c0: c583 8c3d 8dcb 4f3d 3c38 9b3d 20d1 a2bd
000003d0: fe90 a3bd a49f 58ba e38f 603d 4e4b 84bd
000003e0: f7aa 773b 2dba d8bb 5e1e 883d 987c 7cbc
000003f0: 300e 1f3d feff 663d dbc0 48bc 2442 9bbd
-0.06503525 0.0067522805 -0.04318279 -0.045039687 0.0076345503 0.029973598 0.030137468 0.06247379
-0.032054614 0.08252362 0.005255989 -0.04328226 -0.025778983 -0.040815078 -0.007664141 0.057865314
0.041259993 0.056146886 -0.06356451 7.000126e-05 -0.031301506 0.014814164 0.06109502 -0.070023134
-0.011142643 0.049335323 0.0507771 -0.041523583 -0.010006886 -0.05633125 -0.02581759 -0.030941505
0.043405164 0.019823616 0.0069437264 0.029812034 -0.07433035 -0.07960175 -0.026507638 0.03410738
0.052311003 0.05822897 0.0210984 0.0045381836 0.015584077 -0.03240955 0.032304898 -0.007797091
-0.02740494 -0.026745128 0.0448007 -0.0009299952 -0.063267134 -0.052544188 0.03992791 -0.006759847
0.069010906 -0.06197163 -0.082109116 -0.057154015 -0.007830147 -0.06482881 -0.03952081 0.07746739
0.012977144 0.0255852 -0.017139923 -0.060042668 0.010892279 0.006545259 0.05683491 -0.04473935
-0.027093774 -0.004347141 0.020588553 0.07101237 0.02984489 -0.079256564 0.033308793 -0.006070413
0.022624433 -0.064723425 0.0457011 -0.048334017 -0.064490974 0.049602825 0.0753732 0.0375934
-0.03170477 0.027939813 0.0824945 0.055786382 -0.06425099 -0.07248839 -0.022303734 0.05601602
0.013994983 0.061381586 -0.043042637 0.01868113 0.010863364 -0.030940559 -0.058762684 0.04345304
0.06807869 0.05333113 -0.022807345 0.035535414 -0.047562502 0.029281614 -0.0464471 -0.056085117
-0.03300319 -0.03730341 0.06891038 0.06258008 0.05368445 0.08405493 0.033650246 0.080512166
0.04799075 0.05492539 0.06437419 -0.06339407 -0.072048046 0.068371385 -0.0834274 -0.02799039
-0.036682766 0.01725922 -0.02680708 0.0057681724 0.026218435 0.039717507 0.050078914 -0.030485157
0.04686915 0.08213716 0.03761506 0.010520188 -0.008000214 0.065992415 0.04282139 0.05207432
0.06589425 0.01854716 0.029569913 -0.0321335 0.08437888 -0.00053943694 -0.048683744 -0.03631247
0.052102704 -0.0525778 0.058912087 0.03891107 -0.014210075 -0.06285371 0.08160676 -0.03917836
-0.07231735 -0.0797269 -0.07606205 0.03943898 -0.04916967 -0.05125899 -0.07956167 -0.022340236
0.06915632 0.017231917 0.0012760924 -0.066262856 -0.0029512665 0.042287514 -0.040044792 0.066097476
0.08067559 -0.007703071 0.07411448 -0.08079514 -0.037212946 -0.009945459 0.009200783 -0.002166805
0.06576047 -0.026615925 -0.057704516 -7.1714014e-05 0.008286536 -0.03301728 0.060839843 0.03913031
-0.003689786 -0.074595794 0.018821595 0.08152384 -0.04364599 -0.041541517 -0.08036611 -0.06653655
-0.018322276 -0.07678974 -0.059866667 -0.056224566 -0.019105569 0.08344349 -0.028191589 0.009470431
-0.029757066 0.058870174 -0.039076775 -0.026089726 0.050448827 -0.06671718 -0.06204979 -0.071280174
-0.07620271 0.006428137 0.063426465 0.07168953 0.0077570123 0.021437766 -0.03504061 0.04280703
-0.049660053 -0.010133671 0.071247265 -0.0104338555 -0.074718416 -0.07222911 -0.044160217 -0.07476435
0.010760166 -0.031625077 -0.01663998 0.018317431 -0.024894537 -0.059117045 -0.015284375 -0.0023788542
0.068610705 0.05073123 0.07579085 -0.07950044 -0.079866394 -0.00082635344 0.05482472 -0.06459676
0.0037791112 -0.0066139908 0.06646417 -0.015410565 0.03883189 0.056396477 -0.012253012 -0.07580975

conv1d.bias f4 [32]
00000000: f65d 9d3d f1ce e9bc c13e 88bd 237a 903d
00000010: 3ca8 71bd 6cde 973d 1b79 563b d31a 6e3d
00000020: 5563 893d 7290 a2bd e5b8 6d3c 4ef3 02bd
00000030: eda2 8e3d e3ea ceba e3d6 f0bc 4b51 5cbd
00000040: 1fa6 16bc 24e6 033d da40 8a3d d2e7 c73c
00000050: 9c80 6cbd 2a6a b9bc 4662 a7bd 8770 b0bc
00000060: 8f2b 673b 15cd 31bd b206 2b3d a7e1 993d
00000070: cac0 463d f931 adbb 0bce debc 51ec b2bb
0.07683937 -0.02854106 -0.06652594 0.07054546 -0.05899833 0.074154705 0.0032725993 0.05813105
0.06708399 -0.07937707 0.014509414 -0.031970315 0.069646694 -0.0015786554 -0.029399341 -0.053788465
-0.00919488 0.0322019 0.06750651 0.024402533 -0.05773984 -0.02263363 -0.08173041 -0.021538032
0.0035273766 -0.043408472 0.041754432 0.07513743 0.0485237 -0.005285498 -0.027197858 -0.0054603

bilstm1.weight_ih_l0 f4 [400, 32]
00000000: d239 1f3d e969 97bd 5198 98bb 5467 24bd
00000010: b589 d03c 9cd0 123e db82 f1bc af5f f03c
00000020: 712e 193d 7502 543d 0798 283d 0564 443d
00000030: a58a cfbb 44f8 453d 8dc8 89bd f7d0 ed3d
00000040: a2f2 273d f76f a63d ec74 6dbd 9a4c 01be
00000050: 3e4b 06bd dbdf 833d 4a95 46bd 8e36 87bd
00000060: b6f6 d1bc 5c44 263c 10db 27bd c97e b739
00000070: 9a25 993d 7958 b8bb 8fed e5bc 3f9c ecbd
00000080: bbf7 843b 0676 843b b4f1 fe3d 42c7 74bc
00000090: 1290 b3bd 4769 b1bc bf48 d73c f06e d5bb
000000a0: cdef d43c 1995 773d ea71 27bd 1adc efbc
000000b0: 0adc 9c3d 7613 f33d f1ca 02bd 41ef c83d
000000c0: c028 9c3d 99d7 87bc 7215 2bbd 354e cb3b
000000d0: 75d4 3cbc e6a0 a3bc 19cf 66bd 61cb 30bd
000000e0: 1ce9 903d e42e c23d 0734 a3bc ba06 3fb9
000000f0: a62d aebd e558 babc f0e5 183c 9924 9a3c
00000100: 8012 4ebd 1f42 18bc d8f5 6dbd 5222 7e3c
00000110: 7f6d d0bd 88ce e63d 3cc1 393c 3326 143d
00000120: 5a62 443c 1437 683d 9724 5abd 7d58 9b3d
00000130: 004d 3d3c 4d3d 873b 05e0 0c3d a693 b9bc
00000140: b8ec b6bd 78f2 02bc 4989 cabd d029 38bd
00000150: 2c84 9c3d 2189 5dbd fe9d aabc bf42 61bc
00000160: 069e 30bc b623 6b3a 923b a0bd d35b c6bc
00000170: 9925 57bd 800d 313d 2ed4 a73d 4a56 403d
00000180: 03c6 333d e1a6 613d b0f0 b93d 3cbe ac3d
00000190: 3e28 123d df21 a03c 8693 a03d 9b19 a4bd
000001a0: 6c47 94bc 023c 6abd 2a8a 4cbc 668f bd3d
000001b0: dec4 aebd 8998 a3bd 5640 bbbc 4086 903d
000001c0: b828 f7bc 701b 763c 157f 383d 714c 853d
000001d0: df8c 8bbd 70a6 48bd ffe6 b33d 97d9 9cbb
000001e0: 2049 513d 0dc0 e63c 3c16 d93d c704 603c
000001f0: 588c e43d 825a 46bd 1f2f 81bd 7e99 503d
00000200: f12e 2c3c 59e0 713d c8f2 8cba ecd3 b53d
00000210: 7372 d4bd 1e56 e33c 1373 b1bc e63e 423d
00000220: c067 9ebd 81de 29bd 8e7c afbd 98df 383d
00000230: c927 93bd 1012 edbb d071 b53b 1ee2 48bd
00000240: 4f45 d53c b3e8 2dbd d58c dbbd 0856 233d
00000250: 0135 03bc bb7e 263d f016 663d 87e4 ccbc
00000260: f8c1 98bd 9d0e 9bbd 096b 66bd 67a1 e8bb
00000270: b183 00bd 0a59 92bc 9a8e 8e3b 2e42 9bbd
00000280: fdb2 b83d aa50 91bd 0a16 bfbd a81b c03d
00000290: d557 32bd 2971 b2bc 81e9 913c e781 51bd
000002a0: 60d3 a53d a583 acbc 02f0 d2bd 3e45 6b3d
000002b0: e81c 83bb e02b 37bd ad2f 163d f512 d4bc
000002c0: 307a c13c 81f1 07bd c217 c9bd 66e4 e4bd
000002d0: 49ca 3fbd ae42 aebd aa54 443d cd9f 54bd
000002e0: 3c7b a5bd 1e4f 15bd 21cc 8fbd 6933 b9bc
000002f0: dda7 8e3d c0b8 1bbd ca6f f03c c66d 84bc
00000300: 9fc4 c53c 01f3 a73d ac64 193d 0f39 923d
00000310: 0a26 11bd 9753 bdbc cecf ec3d 7813 1f3d
00000320: 19df 33bd def2 6fbd bc43 f03c 66c0 203d
00000330: 7b4f e1bb 12f6 4cbd e841 80bd 6525 1d3d
00000340: 8756 6a3d d36f 35bb e7ba a8bd f329 b4bb
00000350: 65e1 88bc fb08 0e3c 2776 573c 3718 d0bc
00000360: beb6 aa3d e9e8 9cbc c20d c0bc 79ce 993d
00000370: 30f0 653d 7c3c c0bd 6d6f 19bd f3e7 87bd
00000380: bc5b 773c b244 10bd 6bf6 f73c 295a 653d
00000390: 84f1 02bd 66b5 0f3e aefe b53c 25f2 32bc
000003a0: d958 6d3d 0d4c ecbc 6e2d 8abd b129 433d
000003b0: 0498 183e 9436 1b3d 852f 2bbd 9bfd dc3c
000003c0: 2ff1 563c 3b39 a5bc 765a 43bd 60f9 613c
000003d0: d150 123c e19e e9bc 62b5 793d f97d bf3d
000003e0: ece1 64bd 05c9 2cbd 3c4c 4cbd a559 abbb
000003f0: 5905 c8bd c71c 94bd 420c d8bc 9af5 b2bc
0.0388735 -0.07393248 -0.0046568294 -0.040137604 0.025456289 0.1433739 -0.029481342 0.0293425
0.037397806 0.051760156 0.04116061 0.04794695 -0.0063336664 0.048332468 -0.06727705 0.116121225
0.041002877 0.08126824 -0.057972834 -0.12626877 -0.0327866 0.064391814 -0.048482217 -0.06602202
-0.025630336 0.010148134 -0.0409804 0.00034998942 0.07477875 -0.005625781 -0.028067378 -0.11553239
0.004057852 0.00404239 0.12448445 -0.014940085 -0.087677136 -0.021656645 0.026279805 -0.006513469
0.025993252 0.060444925 -0.04088012 -0.029279757 0.076591566 0.11868946 -0.03193182 0.09811259
0.0762496 -0.016582297 -0.0417685 0.0062043914 -0.011525263 -0.019974183 -0.056349847 -0.043162707
0.07075712 0.094816 -0.01992227 -0.00018217685 -0.085048005 -0.022747466 0.009332165 0.01881628
-0.05031061 -0.009293108 -0.058095783 0.015511112 -0.10177135 0.112698615 0.011337575 0.036169242
0.011986339 0.05669315 -0.05325755 0.07585237 0.011554003 0.0041271807 0.03439333 -0.022653412
-0.08931869 -0.007992379 -0.09889466 -0.04496175 0.07642397 -0.054085854 -0.02082729 -0.013748824
-0.010779863 0.000896986 -0.07823862 -0.024213707 -0.05252609 0.043225765 0.08194767 0.04695729
0.04389001 0.05509079 0.090791106 0.08434722 0.03568291 0.019547401 0.07840638 -0.08012696
-0.018100463 -0.057186134 -0.012484113 0.09255867 -0.08533643 -0.07988078 -0.022857826 0.07056856
-0.030170783 0.01502119 0.04504307 0.06508721 -0.068139784 -0.048986852 0.087842934 -0.004786681
0.051095128 0.028167749 0.10599944 0.013673014 0.11159581 -0.04842616 -0.06307816 0.05092763
0.010509239 0.059051845 -0.0010753507 0.088783115 -0.10373392 0.027751025 -0.021661317 0.047423266
-0.077346325 -0.041471962 -0.08568679 0.04513511 -0.07185323 -0.0072348192 0.005537249 -0.049043767
0.026034025 -0.042458247 -0.10720221 0.039876968 -0.008008243 0.040648203 0.05617422 -0.025011314
-0.074588716 -0.07571147 -0.05625442 -0.007099319 -0.03137559 -0.017864723 0.0043504955 -0.07580982
0.09018514 -0.070954636 -0.093303755 0.09380275 -0.043540794 -0.021782475 0.017811539 -0.051149275
0.08096957 -0.021058867 -0.10299684 0.05743908 -0.0040012486 -0.044719577 0.03666656 -0.025887946
0.023617834 -0.0331893 -0.098189846 -0.11176376 -0.046823774 -0.08508812 0.047932304 -0.05191021
-0.08080146 -0.036452405 -0.070213564 -0.022607522 0.06965611 -0.03801799 0.02935018 -0.016165625
0.024141608 0.08200646 0.037449524 0.07139789 -0.035436668 -0.023111148 0.11563073 0.038836926
-0.043913934 -0.058581226 0.029329173 0.039245985 -0.00687593 -0.05003936 -0.062625706 0.03836574
0.057211425 -0.002768506 -0.08238774 -0.005498165 -0.016709039 0.008669133 0.013150728 -0.025402172
0.083356366 -0.019154029 -0.02344406 0.07510085 0.056137264 -0.093865365 -0.03745978 -0.06636038
0.015097555 -0.035221763 0.030268868 0.055994187 -0.03196861 0.14034042 0.022216167 -0.01092199
0.05794606 -0.028844858 -0.06746946 0.047647182 0.1490174 0.037893847 -0.041793365 0.026976397
0.013119026 -0.020168891 -0.047693692 0.013792366 0.008930401 -0.028518142 0.060963996 0.09350199
-0.05587952 -0.042183895 -0.04987739 -0.0052291923 -0.09766645 -0.07232051 -0.026373032 -0.021845628

bilstm1.weight_hh_l0 f4 [400, 100]
00000000: cc49 5b3d 6d5c 7bbd 2f69 8dbd 6b85 b83d
00000010: ca89 703c f6ce 3cbc b998 6d3d 4004 bcbd
00000020: a7dd 523c 0fb2 353d 68c5 c6bc 9799 13bb
00000030: 6b62 a53b cff8 02bd be33 a73d c7de 8e3d
00000040: 0a11 9f3d df80 113e b8fa a7bb ccc7 db3c
00000050: 6149 2d3d 94a8 3fbd 89a1 21bd 06f5 af3d
00000060: e0b9 943c a9cf d03b 9e0d 803d 3d07 fcbb
00000070: 13a5 973d 6a70 5dbd 082a 02bd 966d bcbc
00000080: 1829 8ebc 32cb 10be 674b 1bbd 4548 04be
00000090: 6c29 e5bb 896f 0cbd 6b30 813d 2f60 963d
000000a0: 5587 3b3d 53ce 66bc b94c 2a3d 214c 61bd
000000b0: 4d54 273d 3dd4 e2bc cf96 f8ba 6f64 57bd
000000c0: e779 eb3d ede9 783d aebd 9bbd 0599 a83c
000000d0: e5b9 00be 686f 64bd e89e ee3d bcb1 203e
000000e0: c473 2d3d 1995 043d 9e42 f03d 8114 ea3c
000000f0: 6309 d93c a60e 8abd c687 b0b9 e840 8f3c
00000100: ab46 ea3b f603 513d 53a0 df3c 15a0 3d3c
00000110: 189e ee3c 3976 c2bb f020 38bd d84c f43d
00000120: 4fb7 16be 5e9a 8d3d e4e9 423d f394 783d
00000130: 8abb 253d ff0b 94bd 0e15 2f3d 3076 d7bd
00000140: 79ee 283d ea82 f73d 760f 4d3d 7de4 06be
00000150: 8e86 493c 6af8 2e3c 39f8 c3bd f599 fabd
00000160: 1ff7 47bd 667a 8fbc 11ac 81bd f812 823d
00000170: 8da1 6c3d bcd7 8f3c 1d3f e3bc 16a1 05be
00000180: 9cde a2bd e056 2dbd eef8 293d d587 63bc
00000190: 8a3e 5c3d 54e4 70bd ae7b ebbd 4850 8fbc
000001a0: 74b3 65bd 4322 dabd ac21 3dbb 9751 9e3c
000001b0: ed23 51bd 3634 91bc 1528 f1bd d3dd 913d
000001c0: e86f 563c a9c0 883d 76d9 3a3d 53b9 833d
000001d0: c35a 78bd b2db 9eba 387b 03be 7405 d13d
000001e0: e3ee a33d 6113 e4bd 80d1 ddbd 45ce 0f3e
000001f0: b459 afbb daf8 463b a8db 383d bc7b babd
00000200: a70a dc3c de81 fe3c 6607 52bc 2e33 ce3d
00000210: 9693 92bd 6346 dcbd d662 cd3c a8f0 06bd
00000220: 30ef 653d 5038 f9bd 4438 22bc a3f6 5f3d
00000230: 7764 c03c 536d c53d d023 40bd 4e85 ed3b
00000240: 8b3e 5c3d 9327 d0bb 7d0f 343d e186 44bd
00000250: 862d 433d aa86 fabc 52c2 af3c 613c 023e
00000260: 30d5 febb bb6a 9b3d c395 8dbd a06f 0cbc
00000270: 9f1f f5bd d1ec 3dbd 6f20 e03d 65c3 653d
00000280: 1828 23ba eb49 01be 6721 5fbd 56d4 c03c
00000290: b813 fdbb 854b adbd 3be1 c23c 4555 98bd
000002a0: 023a e4bc ab96 a43c 7f47 e03c 8ff5 4cbd
000002b0: b0f2 f43c b255 82bd 3a2f debd 015b 8d3d
000002c0: b6c7 443c 11af df3d 8a04 84bd b17f 68bc
000002d0: d49a 0bbd 8d2a 0ebd 1426 b83d 181a b8bb
000002e0: 766c b43b 99a1 ecbd 3f22 d4bb 4b32 b1bb
000002f0: 14e8 6e3c f3e2 d03d 55b6 6fbd fb5c 31bd
00000300: f835 443c 4f75 c53d 241e 43bd 8b3a 65bd
00000310: 16fe 11bd db36 ae3d c6b7 3c3d 8586 a13d
00000320: d6ed c23c 4dce a63d 484d a4bd ffa5 c4bc
00000330: ccb6 95bc d2fb 44bd 10d6 773c 0970 d6bd
00000340: 00ad ac3d 143f 113d 6b6d 993d 1dca b0bc
00000350: 4f8c 9c3c 2452 b1bd b0ef 6e3b 47fc c9bd
00000360: 8174 903c 570a 71bd 1eb6 b7bd cfbb e3bd
00000370: 7f87 2cbd 440b 1dbd c108 a3bc f955 9cbd
00000380: 591e b53c 765b a1bd 8b7c 89bd f041 063d
00000390: 2f02 b23d b1d5 b33d 5c2e 163d 9480 043c
000003a0: 92bb 5e3d f709 c8bc 2812 8a3d 18e2 d3bc
000003b0: b5c6 b93c 0b57 3bbd 9cd6 a7bd ded9 783c
000003c0: 7446 a43d 46f2 91bd 26ce fe3c 5e01 9d3d
000003d0: a19c d33d 51fb 97bd 44af 48ba 7c4b a03d
000003e0: 0671 a23d 2c14 87bc 9c35 693c a863 1c39
000003f0: caa3 9d3d 0e95 a83d ba8a 6a3d 58c8 6f3d
0.053537175 -0.06136744 -0.06904828 0.090098225 0.014681289 -0.011523953 0.058006976 -0.09180498
0.012870229 0.044359263 -0.024264053 -0.0022521967 0.0050471327 -0.031975564 0.08164166 0.06976085
0.07766922 0.14209317 -0.0051263236 0.026828669 0.042306308 -0.046791628 -0.039460693 0.085916564
0.018155038 0.0063724113 0.06252597 -0.0076912926 0.07404532 -0.054062285 -0.031778365 -0.023001473
-0.01735358 -0.14140013 -0.037913706 -0.12918194 -0.0069934633 -0.034286056 0.06308063 0.07342564
0.04578336 -0.014087277 0.041577075 -0.055004243 0.04085188 -0.027689094 -0.0018965843 -0.052586015
0.114978604 0.060769964 -0.07604538 0.020580778 -0.12570913 -0.055770308 0.11651403 0.156928
0.04234673 0.032368753 0.11731456 0.02857423 0.026493734 -0.06741075 -0.00033670495 0.017487004
0.0071495376 0.051029168 0.027298128 0.011573811 0.02912812 -0.0059345034 -0.044953287 0.11928719
-0.14718364 0.06914209 0.047586337 0.060688924 0.040462054 -0.072288506 0.04274469 -0.10520589
0.04124305 0.12085517 0.050063573 -0.13173099 0.012300147 0.010679344 -0.09568829 -0.12236396
-0.048819657 -0.017514419 -0.06331647 0.06351274 0.057771254 0.017558925 -0.027740056 -0.1304973
-0.079526156 -0.04231918 0.041497163 -0.013887365 0.05377058 -0.0588115 -0.114981994 -0.017494336
-0.056079343 -0.10651066 -0.0028859181 0.019326014 -0.051059652 -0.017725091 -0.11775223 0.07122388
0.013088204 0.06677372 0.045617543 0.06431832 -0.060633432 -0.0012119918 -0.12839973 0.10206118
0.080045484 -0.11136509 -0.108309746 0.1404353 -0.0053512696 0.003036073 0.045131356 -0.09105632
0.026860548 0.031067785 -0.012819147 0.100683555 -0.07157056 -0.10755613 0.025071543 -0.03294435
0.05613631 -0.12168944 -0.00990111 0.05467857 0.023485405 0.096399926 -0.046909153 0.007248557
0.053770583 -0.006352374 0.043960083 -0.047980193 0.047650836 -0.030581791 0.021454964 0.12718345
-0.007776879 0.075887166 -0.069133304 -0.008571535 -0.11968922 -0.046368424 0.10943686 0.056094546
-0.0006223931 -0.12625854 -0.054475214 0.02353875 -0.007723298 -0.0846167 0.023789039 -0.07438139
-0.027859692 0.020091375 0.027377842 -0.05003887 0.029900879 -0.06364001 -0.108488515 0.06902123
0.012010505 0.10922063 -0.06446178 -0.0141906 -0.034083202 -0.03470855 0.08991638 -0.005618345
0.0055060936 -0.1155426 -0.006473809 -0.0054076067 0.014581699 0.10199537 -0.058523495 -0.043301564
0.011975758 0.096415155 -0.047636166 -0.055964034 -0.035642706 0.085065566 0.046073698 0.07886986
0.02379505 0.081448175 -0.08022553 -0.024004934 -0.01827564 -0.048091717 0.01512672 -0.10470588
0.08431435 0.035460547 0.07491573 -0.02158075 0.019109873 -0.08658245 0.0036458783 -0.09862571
0.017633678 -0.05884775 -0.08970283 -0.11119806 -0.042121407 -0.03834082 -0.019901635 -0.076335855
0.022109197 -0.07878773 -0.06713208 0.032777727 0.08691823 0.08780993 0.036665305 0.008087296
0.0543781 -0.024418814 0.06741744 -0.025864646 0.022677759 -0.045737308 -0.0819523 0.015188662
0.0802125 -0.07126288 0.031104159 0.076662764 0.10332609 -0.07420982 -0.0007655511 0.078268975
0.07931714 -0.01648911 0.014233973 0.00014914444 0.07697256 0.08231555 0.057261206 0.058540672

bilstm1.bias_ih_l0 f4 [400]
00000000: 5300 ad3d 5829 5abc afd2 d3bc b184 24bc
00000010: a043 993d 7b51 793c 3307 93bd c516 e43d
00000020: 29d3 b5bc e473 86bc 0dea e53d 62aa 3d3d
00000030: 9e1b 3cbc 94bb da3d 2904 acbd 727f 86bd
00000040: 7710 7c3d 6b8f 99bd 82f8 86bd c260 683d
00000050: f2ff e1bc 75c4 ca3d cf34 dcbc 11fa 8fbd
00000060: 08da bf3d 573e 343d 3f34 543c 4abb 853d
00000070: bbde d8bc 06b3 623d 596c 923d deac c23d
00000080: 647a ed3c e675 eebc fffe 683d 99bc 073c
00000090: 9982 0cbd e7c3 8a3d 35e6 acbd 6cf6 ca3d
000000a0: c3bc 573d 0113 b93c 8894 d53d 0463 b93d
000000b0: 8237 8e3d 16fb fcbc 75df 91bb 8ae5 de3d
000000c0: 86b5 01bd f408 54bd 3745 343d ba66 fc3d
000000d0: bfef a3bd ca92 9b3d e6c8 57bc 8ba9 4b3d
000000e0: 0a44 2b3d 772f 9bbd c2b6 ccbb 4930 ed3d
000000f0: 562b bd3c 4d1e 503d 5d60 033c 5b09 26bd
00000100: cbd0 7bbd 9601 fdbc 9041 f73c b5e3 b03d
00000110: 80f4 40bc bce8 84bd bc20 ac3b 62a2 323c
00000120: 6088 823b 3099 d83d 2f5e 9c3b 7327 8a3c
00000130: dd0b cd3d eced 80bc ef87 083e 1b85 e93d
00000140: 086d 053e f8bb 44bd 7996 6c3d 02d5 9dbb
00000150: b695 11bd 1255 043e 14b1 b5bd 848f 88bd
00000160: b5a3 2a3d 6f3a 813d 3d63 81bd cbe4 c53d
00000170: 8cd6 8d3d e6e6 acbc 2288 9ebd 4382 fb3d
00000180: 6914 d9bc 9d17 903d 005b 11bd ea04 223d
00000190: 45ac 8f3d cfa1 db3d 7f3b 4abc 1bd7 5d3d
000001a0: 7da4 96bd 39b6 83bd 8722 eb3d aa34 073e
000001b0: 7b4d c03c 22b5 ba3d 97af 853d 97c2 033e
000001c0: eadf bf3d d0c7 173d 6238 42bd a862 08bd
000001d0: 0a37 453d 4298 88bd c9ff 1bbd 7fbe 0cbe
000001e0: 57a0 a33d f3af f5bc be8b 96bd 6a76 d4bb
000001f0: 99dd 88bd 0c26 a5ba fa50 f0bc 41bd 923d
00000200: 1293 923a ac0f 7a3d 34f8 e43d 322d 83bd
00000210: 255b 7f3d a1fd aabc b059 913c 5473 c83d
00000220: 0eb4 913d faf9 503d 2528 a03c 6b89 8dbd
00000230: 9698 0d3d b8df bd3d 5b95 cc3d cace b53d
00000240: 9022 2f3d d697 b8bc 3850 f73d 902a cb3d
00000250: e6a0 b0bc 220e fd3c e32c 283b 5f74 8a3d
00000260: 1d75 aabd 430c 2d3c 253b e23c 787e b73d
00000270: c334 df3d 47a1 b6bd 9486 cd3d 96b5 fe3c
00000280: a2fc 14bd cf00 7cbd 040f a33d 8418 cfbc
00000290: 9b47 b03d 5b4b 86bd 6982 4dbd 3ce5 a53c
000002a0: 01c6 8abd 1d7c 8aba 8169 023e afb0 233d
000002b0: 93ed 203d a8c0 923d 9292 08bd d41b 3d3d
000002c0: 8879 ffbc 9df7 663d 4f31 4abd 52e7 a03d
000002d0: 5413 a83d ab1e 2b3d 28b1 943d bf63 a33d
000002e0: 2c22 0d3d 6f72 d83a b942 49bd 8f8f a13d
000002f0: 4a3c 2a3d dc6e a73d 40bc b03d 5099 af3d
00000300: cb7f 5e3d 5de2 4b3c aa06 0dbc a2f3 f2bb
00000310: 6749 823d 17f4 933d 6d37 76bd b8ec f23d
00000320: 8eb5 603d a7df 9cbd b1fa c7bd 5afb 973d
00000330: 6af7 a23d fd98 8a3d 339d 3d3d 1217 e1bc
00000340: 1db2 bfbd 53cf c0bd ee47 a3bd 942c 2d3a
00000350: 425c e7bd d7ea 3d3d a40d 093d a2ee 8e3c
00000360: dbcc 80bc 0e28 9c3d f282 903d 6b1a 243a
00000370: 2920 763d 5abc fe3c 7329 f9bd dfd3 eabc
00000380: 4a23 50bd 9526 2fbc 4928 babd 1f44 5d3d
00000390: 006b 65bd 7d25 d0bd 2db4 0b3d 5cb5 ae3c
000003a0: f80c a03d bcd5 913c 7d28 84bd 3e8c c13b
000003b0: 4aa1 5ebd 4734 7bbb 7b50 b73c 8ab0 96bd
000003c0: 6fc6 583d 8bfd 35bc 912e 1dbd db1d 493c
000003d0: 4dea a6bd b90f 0d38 412e 7ebd 3ae1 9d3d
000003e0: 2972 643d d549 2a3d 1f44 a8bd 58b2 81bd
000003f0: 9c2a 5b3d 77e3 153c 80ec eb3d c855 ecbc
0.084473275 -0.013315521 -0.025857298 -0.010041402 0.074836016 0.01521718 -0.071791075 0.111371554
-0.022195416 -0.016412683 0.11226282 0.046305068 -0.011481194 0.10680309 -0.08399231 -0.06567277
0.06153914 -0.07498058 -0.06590368 0.0567329 -0.027587865 0.099007525 -0.02688065 -0.07030118
0.09367758 0.044004764 0.01295191 0.06529863 -0.026473394 0.05534651 0.07149572 0.09505628
0.028989024 -0.029108953 0.05688381 0.008284711 -0.034304235 0.06775647 -0.08442346 0.099102825
0.05267025 0.02259207 0.10428721 0.09052089 0.06944181 -0.030881446 -0.004451687 0.10883625
-0.031667255 -0.05176635 0.04401132 0.12324281 -0.08004712 0.07596357 -0.0131704565 0.049722236
0.041812934 -0.075774126 -0.0062473724 0.11581475 0.023091953 0.050810147 0.00801858 -0.040536266
-0.061478417 -0.030884545 0.03018263 0.08637182 -0.011777043 -0.06489703 0.0052529257 0.010902973
0.0039835423 0.10576093 0.0047719697 0.016864514 0.10012028 -0.01573845 0.13333105 0.11402341
0.13029873 -0.048030823 0.05776069 -0.0048166523 -0.035543166 0.12923077 -0.088716656 -0.066679984
0.04166003 0.063099734 -0.06317756 0.096627794 0.06925687 -0.021106195 -0.07740809 0.12280705
-0.02649899 0.07035754 -0.035487175 0.039555468 0.0701528 0.10724222 -0.012343287 0.05416022
-0.073555924 -0.064312406 0.11481195 0.13203683 0.023474446 0.091165796 0.06527632 0.12867199
0.0936888 0.03705579 -0.047417052 -0.03329721 0.048148192 -0.06669666 -0.038085733 -0.13744543
0.07989567 -0.029991126 -0.073508725 -0.0064838426 -0.066828914 -0.001259984 -0.029335488 0.071650036
0.0011182746 0.061050102 0.111801535 -0.06405105 0.06234278 -0.020872893 0.017742962 0.09787622
0.07114421 0.051019646 0.019550392 -0.06910976 0.034569345 0.092711866 0.09989425 0.088773325
0.04275757 -0.022533339 0.120758474 0.099202275 -0.021561097 0.030890528 0.002566152 0.06760477
-0.08323119 0.010562005 0.027616093 0.08959669 0.108987354 -0.0891748 0.10035434 0.031092446
-0.036373742 -0.06152421 0.079618484 -0.025280245 0.08607408 -0.06557342 -0.050173197 0.020250909
-0.067760475 -0.0010565553 0.12735559 0.03996342 0.03928907 0.071656525 -0.033342905 0.046169117
-0.03118588 0.056388486 -0.04936343 0.07856621 0.082068115 0.041777294 0.072603524 0.079780094
0.034456417 0.0016513596 -0.049135897 0.0788871 0.041561402 0.081754416 0.08629656 0.08574164
0.05432109 0.012444106 -0.008607546 -0.007414297 0.06361657 0.07224291 -0.060111452 0.11861557
0.054860644 -0.07659846 -0.097646125 0.074209884 0.07957347 0.067674614 0.046292495 -0.027476821
-0.09360144 -0.09414544 -0.07972704 0.0006606069 -0.11296894 0.04636654 0.033460274 0.017447773
-0.015722683 0.07624827 0.07056226 0.000626004 0.060089264 0.031095672 -0.12166109 -0.028665481
-0.050814904 -0.010690351 -0.09089715 0.054020043 -0.056010246 -0.101634 0.034107376 0.021326713
0.078149736 0.017802112 -0.06453035 0.0059066107 -0.054353036 -0.003833072 0.022377243 -0.07357891
0.052923616 -0.011107813 -0.038374487 0.0122751845 -0.08150158 3.3631663e-05 -0.06205583 0.07708974
0.055772934 0.041574318 -0.08216118 -0.063328445 0.053507432 0.00914847 0.11519718 -0.028849497

bilstm1.bias_hh_l0 f4 [400]
00000000: 69ac 863d 3536 62bd 5800 173d 4c74 4b3d
00000010: 4995 ccbd 867b c23d 3ced 24bc 2f44 6e3c
00000020: 51e1 f0bc baa4 c33b 4a47 d93b 2858 98bc
00000030: 290e f63c b6b3 5a3d 5693 3dbd 610d 4d3d
00000040: 1b1c 063e 1f74 143d a5f2 c13d 7afb a8bd
00000050: 56da 983c 4462 2b3d 8168 d13d 5156 5abd
00000060: b05f 08bd 6a35 89bc 6824 553d 18b8 39bd
00000070: 7f71 d0bc 7053 1d3d 35c0 e73c 042b 27bd
00000080: 3046 b4bd 3cc3 073d b0c2 56bb a0f1 59bd
00000090: 5ec6 1abb 92eb 2d3d e145 95bd 9165 8bbd
000000a0: cb12 bbba 4017 473c 9811 d83d e3a5 82bd
000000b0: d375 dcbc 6ff9 993c b683 73bd 624a 62bc
000000c0: a6d3 f33c c41f 693d 6c07 fb3c 4262 023e
000000d0: 13bd 0c3d aaa0 82bd 79e9 4cbd 351f 893d
000000e0: 9c91 c33d 8574 da3d b496 d23d cb57 86bd
000000f0: e29e 34bc b22d c13d 7cc5 82bd 1365 4dbd
00000100: 581f babd aafb a2bc 9799 d03d 7303 eb3d
00000110: dc8e 963b 69ee 5a3d 081b 44bd f460 c73b
00000120: 207a 493d 34a3 2cbb e903 a23d 6659 00bd
00000130: 1d7d 903b 176a b7bd ae4f 5c3c c5d7 f43d
00000140: 2d75 023d 25fc fb3c ea27 92bd 0204 96bb
00000150: ed1a bc3b 073f 3bbd 338f 5ebc 73c4 18bd
00000160: 4274 c63d 18ea b43d a8d5 593d 8d5d a13d
00000170: 4c6c 59bd c7f9 883c d2cf 943d d81c f53c
00000180: a649 a93d 1a65 41bc 05dc 99bc a132 af3d
00000190: d324 103d d1c2 a73a b534 5ebc 6e70 90bd
000001a0: f311 603c 51ff acbc 820e d1bb 698e abbc
000001b0: 8956 8fbd b280 bc3a 8285 b0bb b88b ca3d
000001c0: f8a7 313d a1e7 753d 14f0 c43d 824f 58bc
000001d0: 905a cc3c a5b1 bebc cd62 973c 38d4 fdbd
000001e0: 284a 353d c2ff c73d 600d 25bc 04ab 3bbd
000001f0: 5765 c73d a2f0 6abd e0a4 a9bd 6145 903d
00000200: e66f 5e3d 6b52 7a3b f387 cb3b 02af 803d
00000210: ede6 2abd 91a9 023b 7718 de3c c668 52bc
00000220: 8f4e c1bd 7de2 82bc 03fa 77bd 5680 933d
00000230: 8670 9ebd 283a 4a3c fb4f 4bbc 9914 803d
00000240: 0beb 22bb 4d73 b03d 3b56 313d 2821 92bd
00000250: 794f 563d a427 3e3d 9ee9 97bd 95e6 073d
00000260: 57c2 963d f898 b2bb 0ddf dd3c 6c27 d83d
00000270: 9397 0f3e 246c ce3d 2479 5fbd 22d1 d73c
00000280: 223c f9bc 9906 833c 9b78 2abd 00db a33d
00000290: ae80 113d 2c1a b53d d392 a2bd 9561 293d
000002a0: e7b8 243c d04b 6e3d f3c5 45bd 4230 403d
000002b0: e641 8d3d 1d79 a33c 8010 543d 32b0 133d
000002c0: b9ca 943d b527 71bd 95b5 35bd 4749 f1bc
000002d0: e916 cc3d 5cff 62bd 34fb 65bd 27a3 3bbd
000002e0: bf34 79bd f7b1 2fbd 6c88 763d 1350 6cbd
000002f0: 6402 04bc 9979 be3d 9abf 643d 1a63 883d
00000300: 5f3f 493d 7052 a73d d889 a63d b53a a03d
00000310: 27bb d6bb 6aee 563d b480 8dbd bf65 92bc
00000320: 657c 3039 16fd 2ebd 0a70 6e3d bc75 a6bd
00000330: e0af 8cbd 62d4 2a3d 3084 743d 6cbf 063d
00000340: 8d6a a0bd 5df6 433b 4e93 223d 762e 9a3c
00000350: cb76 a03c a287 65bc 6369 a63d 99d5 bb3d
00000360: e466 e43c 7ef0 0b3d 7a2b 88bc 52d5 e1bb
00000370: a598 f4bc dc09 11bd 0d09 18bd 0717 ebbb
00000380: 23cc 0d3d 4cde 9a3d 9833 203d ccc8 99bd
00000390: ac75 3ebd 4cc3 033c 44af 793b 9382 643d
000003a0: 8867 633d e18b adbd 0e7e 833d 6e0e 983d
000003b0: c17a 83bd dcc0 15bc bf59 563c 6379 b2bd
000003c0: 406b 1abd 260f 44bd 0484 d03c cb2b bcbc
000003d0: 255f e23c ead0 c13d d376 b73b 1ee5 6c3c
000003e0: cb12 c83d fbaa 0c3b 5b9d a33d a1aa 263b
000003f0: 5fe2 a2bd 29ba 7c3d 4b04 16bc b7c7 7ebc
0.065758534 -0.055227477 0.036865562 0.049671456 -0.099894114 0.094962165 -0.010066327 0.014542623
-0.029404314 0.0059705647 0.006630813 -0.018596724 0.030036049 0.053394042 -0.04628309 0.050061587
0.13096659 0.036243554 0.09470109 -0.0825109 0.018658798 0.04184176 0.10225011 -0.053304974
-0.03329438 -0.016749103 0.052036673 -0.04534158 -0.025444744 0.03840965 0.028289894 -0.040812507
-0.0880245 0.033145174 -0.0032769851 -0.053208947 -0.0023616771 0.042460985 -0.07288719 -0.06806482
-0.0014272569 0.012151539 0.10550231 -0.06379297 -0.026911652 0.018795697 -0.05945178 -0.01381168
0.029764008 0.05691506 0.030643187 0.12732795 0.034360003 -0.063783005 -0.050027344 0.066954054
0.09549257 0.106667556 0.102826506 -0.06559714 -0.011024209 0.09432544 -0.063853234 -0.05014522
-0.090880096 -0.019895393 0.10185545 0.11475267 0.004594667 0.053450022 -0.04787734 0.0060845558
0.049188733 -0.0026342394 0.07910902 -0.031335257 0.004409446 -0.08955782 0.0134467315 0.11955217
0.03185003 0.03075988 -0.07136519 -0.0045781145 0.0057405145 -0.045714404 -0.013583946 -0.037296724
0.09690143 0.08833712 0.053182274 0.078791715 -0.053081796 0.016720666 0.07266201 0.02992098
0.082660004 -0.01180389 -0.018781671 0.085545786 0.03519137 0.0012799149 -0.013562371 -0.07052694
0.013676154 -0.021117838 -0.0063799033 -0.02094193 -0.06998927 0.0014381616 -0.005387009 0.098899305
0.043373078 0.06003535 0.09616104 -0.01320255 0.024945527 -0.023278067 0.01847973 -0.12393993
0.044260174 0.09765579 -0.01007399 -0.04581739 0.09736126 -0.05735839 -0.082834005 0.07044483
0.054305933 0.0038196098 0.006211275 0.0628338 -0.041724134 0.0019937495 0.027111275 -0.012842363
-0.09438812 -0.015977139 -0.060541164 0.072022125 -0.07736306 0.012342967 -0.012409206 0.06253929
-0.0024859335 0.08615742 0.043295126 -0.0713523 0.052321885 0.046424523 -0.07417606 0.033178885
0.07361286 -0.005450364 0.027083898 0.10554394 0.14022665 0.1007922 -0.054558888 0.02634484
-0.030424181 0.015994357 -0.041618925 0.08000755 0.03552311 0.088428825 -0.07938161 0.041352827
0.01005385 0.05817777 -0.048284482 0.046921022 0.06897335 0.019955212 0.051773548 0.036056705
0.07265229 -0.05887576 -0.044362623 -0.029453887 0.09965307 -0.05541931 -0.05614777 -0.04580989
-0.06084132 -0.04289433 0.060188696 -0.057693552 -0.008057211 0.09300537 0.055846788 0.06659527
0.0491327 0.081700206 0.0813176 0.078236975 -0.006553072 0.052473463 -0.06909314 -0.017870782
0.00016831009 -0.04272183 0.058212318 -0.08127925 -0.06869483 0.04170645 0.059696376 0.032897398
-0.07832823 0.0029901483 0.039691262 0.018820982 0.019587895 -0.014009388 0.0812557 0.091716
0.027881093 0.034164898 -0.016622294 -0.006891885 -0.029857943 -0.035409793 -0.037118006 -0.007174376
0.034618508 0.07561931 0.039111704 -0.07509002 -0.04649894 0.008042168 0.0038098851 0.055788588
0.055518657 -0.084739454 0.064205274 0.07424627 -0.06419898 -0.00914022 0.013082921 -0.08714559
-0.037699938 -0.04786601 0.025453575 -0.0229701 0.02763326 0.09463675 0.0055988817 0.014458923
0.097692095 0.0021464217 0.079889975 0.0025431293 -0.07953333 0.061700974 -0.009156297 -0.015550545

bilstm1.weight_ih_l0_reverse f4 [400, 32]
00000000: 57f2 90bd cd96 c6bd 72b9 6dbd 950e 703d
00000010: d0fe 7f3c 1fcb 873d d0be b23d 0d57 8c3d
00000020: dd09 593d d874 0d3d 43df a33d 97cd 88bd
00000030: b61e 923d d38e 633d 626e 33bd 668a 28bd
00000040: e2a7 c63d 8945 ed3c b8b0 05bd 2283 c7bc
00000050: a3e2 afbd 795e 533d 9912 b63d 1fef 89bd
00000060: 503c d93c d599 54bc de31 953b 39bd 9c3d
00000070: 743b 993d 6967 743d 9858 11bc c799 99bd
00000080: 1e97 93bd 419f 64bd 24fc 163c abd6 083c
00000090: 8db0 a8bd a80a d03d a1ac 06bd 84f7 8abd
000000a0: c1d0 3fbb 07ae ebbc 4723 03bd 43f0 053d
000000b0: 5715 c33d 0bdb 18bd 9f98 05bd 044b ef3d
000000c0: 9d50 9b3d b002 493d 1e20 2cbc 231c cabd
000000d0: c644 e6bc 4375 803c f8c3 e73c b4f8 3a3d
000000e0: 2562 963b 401a b0bd dad4 95bd 4cb8 8c3d
000000f0: 472b 523c f53e 93bd 512c 14bc 2197 2bbd
00000100: 5d8a 053d dd2b a6bb edcb 6e3c cb51 403c
00000110: a1a7 ecbc c7bd e43d 16ea 5c3d 57a0 b73d
00000120: 4480 b33d a8be 913c 6c97 af3d 7d6f 933b
00000130: 3a7e 2c3c 6cd6 88bd 50a4 acbd cc4a 9e3d
00000140: 8ccd 393c 3126 c23d 6d70 ffbc edd4 533d
00000150: 857b 1bbd f8aa 893d 90a6 a8bc 14da 7a3d
00000160: 8e1d f2bc 1344 65bc 89bc acbd ed88 e8bc
00000170: 39c9 2b3d c36b 31bd 4336 0d3d 2b4f 24bd
00000180: 0803 eb3d 5d0c cdbd fb27 39bc b3ba acbd
00000190: 48d7 47bd 6af5 773c 2472 0b3d 5866 153d
000001a0: 7c8d 84ba feb2 74bd 7e44 133c 3b25 3ebc
000001b0: ef7b 17bd 1f66 ff3c c1b6 73bc 01ce d23c
000001c0: 1f3e dd3d 8b97 c2bd 2372 6fbd f0a1 073b
000001d0: f61e bdbd 4579 c3bc ad8a d33c 217b 07be
000001e0: 48a7 1dbe 766b acbd 32fc babd fb22 a83c
000001f0: b232 1c3d 48da e63b b2f2 ccbd 1d5e 00be
00000200: d800 4b3d 70c3 5b3d 1390 103d ebc2 763d
00000210: 2456 dfbd 1d30 73bd 2771 1a3d 79c5 79bc
00000220: 56f3 ce3d 7ee0 c43d 0234 973b 1520 a73a
00000230: 057f 40bd a8d9 cf3d 10f0 4dbd 8733 a6bc
00000240: 6e4d 863d 7073 5e3d d418 44bd 8c9e 85bd
00000250: ebe2 bb3d 18d6 723c 4cc6 7dbd 91ad d8bd
00000260: e845 f0bc 0f0b 9e3c 99db f5ba edbd 283d
00000270: c46e e4bd f2fc c2bd 5d5b 1abd 889a 323a
00000280: f19c ad3d 0493 3f3d 40b6 d1bc 2ec5 06be
00000290: 61f3 ba3c dec4 afbd ba6a 8e3c 1412 90bd
000002a0: 1007 d5bd 62d9 cbba d1bb 08bd dd47 aabd
000002b0: 0694 843c 62f5 02bd 8fdf 0d3d 1d25 9fbd
000002c0: f85c d63c 3d7e 56bd 2871 7d3c bdbd 0fbe
000002d0: e6c2 d3bd 856d bd3d 5690 033d 3b1e 0dbe
000002e0: 4ae4 ebbd 6aff 083c 43fe 94bd c9bc a3bd
000002f0: dde0 653c fd19 d3bd ebfd c7bd 0ed5 babd
00000300: a81e 10bd 0708 313c 97d6 cfbd c02e 63bb
00000310: db6c 4dbd 6e56 023d 50e5 28bd a08d b4bd
00000320: 5b4e db3d ca5d d53b 1b7d fcbd 0e41 b03d
00000330: 778e e23c 294e 93bd 62de 04be 7ffe 4fbc
00000340: 33c8 ca3d fabf 98bd e715 953d 620f abbd
00000350: dab7 5dbd 2b4a e03d 332c 143d 43f9 063d
00000360: 0ef7 3abd d37d 2b3d 6336 e4bd c3ce cabd
00000370: 9848 613d bf20 89bd 0303 10bd 7713 dabd
00000380: 81e9 8e3d 24da 15bd 1bac 903a 7fec 463d
00000390: 8eb7 8d3d 13c8 dbbc e474 75bd b7da a33d
000003a0: 5d93 f2bc ad01 533d b152 aa3b 4f64 9cbb
000003b0: 4289 b13c a5a3 1b3c 2c9f f1bc e496 bbbc
000003c0: 59b9 563c cdd0 b5bd 5def 893c 47be b2bd
000003d0: bd2b 0c3b b2a6 ce3c 6268 dabc f2e4 723d
000003e0: a240 ac3d 4cfd e5bd febb 903d cc23 9b3d
000003f0: 57ef babd 20f0 e13c c8ff a1bd 574a 2c3d
-0.07077473 -0.09696732 -0.058038183 0.058607657 0.015624717 0.06630539 0.08727801 0.06852541
0.052987922 0.03453526 0.08001568 -0.06679838 0.07134764 0.05555613 -0.04380644 -0.041147612
0.0969999 0.028963821 -0.032639235 -0.024354521 -0.085881494 0.051603768 0.08890266 -0.06735062
0.026518017 -0.01297613 0.004553064 0.07653279 0.07482043 0.059668932 -0.00887122 -0.07500034
-0.07206558 -0.05581594 0.009215388 0.008351962 -0.082367994 0.101582825 -0.032879476 -0.06785491
-0.0029268714 -0.028769506 -0.032016065 0.032699835 0.095255546 -0.03731827 -0.032616254 0.1168423
0.07583735 0.04907483 -0.010505704 -0.09868648 -0.028108966 0.015680915 0.028291687 0.045647338
0.0045893365 -0.08598757 -0.07315989 0.06871089 0.012827701 -0.071897425 -0.009043769 -0.041892175
0.032602657 -0.005071147 0.014574987 0.011738251 -0.028888525 0.1116901 0.05393418 0.08966129
0.08764699 0.017791107 0.08573803 0.0044993744 0.010528142 -0.06681523 -0.084297776 0.0772911
0.01134051 0.09479941 -0.031181538 0.051716734 -0.037959594 0.06722063 -0.020587236 0.06124313
-0.029555108 -0.013993281 -0.08434398 -0.028385604 0.041939948 -0.04331566 0.034475576 -0.040114563
0.114751875 -0.10012124 -0.011301036 -0.084340475 -0.048789293 0.015134195 0.0340444 0.036474556
-0.0010112966 -0.059741013 0.008988498 -0.011605556 -0.036983427 0.031176625 -0.014875115 0.025732996
0.10802864 -0.09501561 -0.05845846 0.0020695888 -0.09234421 -0.023861537 0.025822962 -0.13230564
-0.15395844 -0.08418934 -0.09130134 0.020524492 0.038134284 0.007045064 -0.10007228 -0.12535901
0.04956135 0.05365318 0.03529365 0.060244482 -0.10905102 -0.059372056 0.037705567 -0.015244835
0.101050064 0.09613131 0.004614354 0.001275065 -0.046996135 0.101489365 -0.05027777 -0.020288242
0.06557737 0.05430931 -0.04787524 -0.06524381 0.091741405 0.014821552 -0.06195669 -0.1057998
-0.029330209 0.019292383 -0.0018757462 0.041196752 -0.11153939 -0.09520902 -0.037684787 0.0006813188
0.084772 0.046771064 -0.025599599 -0.13161156 0.02282113 -0.08582471 0.017384876 -0.07034698
-0.10401738 -0.0015552456 -0.03338224 -0.08314488 0.016183864 -0.031972297 0.03463703 -0.07770751
0.026167378 -0.052366484 0.015468873 -0.14037223 -0.10339908 0.09249405 0.03212007 -0.13781063
-0.11518152 0.008361677 -0.07275059 -0.07994992 0.014030662 -0.10307691 -0.09765228 -0.09122668
-0.035185486 0.0108051365 -0.10148352 -0.0034665316 -0.05015264 0.031820707 -0.041234314 -0.08816075
0.107083045 0.0065114247 -0.123285495 0.08606158 0.027655823 -0.07192642 -0.12975457 -0.012694954
0.09901466 -0.074584916 0.07279568 -0.083525434 -0.054130413 0.109516464 0.036174964 0.03295256
-0.045645766 0.041868042 -0.11143186 -0.09902718 0.05500087 -0.06695699 -0.035159122 -0.10648244
0.06978131 -0.03658499 0.001103762 0.048565384 0.06919776 -0.026828801 -0.05992593 0.08000701
-0.029611284 0.05151527 0.005197846 -0.0047727 0.021671895 0.009499465 -0.029494844 -0.022899099
0.013105714 -0.08877716 0.01683777 -0.08727699 0.0021388375 0.02522597 -0.026661102 0.05930037
0.08410765 -0.11229953 0.07067107 0.07575187 -0.09127682 0.02758032 -0.079101145 0.042063083

bilstm1.weight_hh_l0_reverse f4 [400, 100]
00000000: 12f8 7bbd cbf4 a8bd 0a00 2dbd bfeb 293c
00000010: 2cc2 48bd 805e 55bd d2d2 5bbd c3c5 f03b
00000020: 3c32 80bc bdda e23b 14b6 53bd 49b6 00bd
00000030: d9f0 093e b982 7a3d 4bf0 0f3d 4e53 da3c
00000040: bf29 94bd a9e9 1fbd f7c8 47bd ce76 e23c
00000050: cb65 4cbd 7e3f ec3c 33d0 b0bd bb1c 813c
00000060: 285a 893d 9cf5 b33d 621e 803d 089b 60bd
00000070: c2b6 a4bd 1500 9e3d 4db9 df3d 9377 91ba
00000080: 4260 3abd ca11 783c 5cc7 73bd a1db 8cbd
00000090: fdfc 88bd b47f 663d f1d1 603d 1300 66bd
000000a0: 183e 123d 1f29 953d 04a4 abba 8e38 c73d
000000b0: 52d0 94bd 79d5 dabd 31b3 1c3d f432 4cbd
000000c0: 8e19 71bd 5f94 973d 0460 5e3c a693 5fbd
000000d0: daa1 afbd d2cc 73bd 867c aa38 a220 d03b
000000e0: 1d1d d33d 441a 353d c1a5 fabb d094 18bd
000000f0: addf e13c f7f4 763c add9 05bd 220b dc3c
00000100: 7458 8a3a c833 ce3d 0652 9cbd 7c7d 49bd
00000110: 0d83 473c 12db a23d 4c7d 873d 292f 6dbd
00000120: e729 c5bd 888e 8b3c 8770 463d 54fd ab3c
00000130: 65d1 933b dc35 873d 69f5 9e3d e8eb 8e3d
00000140: f99c 803c a51b 85bd b91e 99bd 1dce da3d
00000150: 38e1 0b3c 8d53 bb3b 5447 053d c1ce 88bd
00000160: ccdd 4dbd 3f52 1dbd d19f 3c3c ae5f dabd
00000170: bfe0 a9bd c898 b83d 749e c73d 69d1 333d
00000180: 206e a5bd 150d 04bd a650 9d3c 2cdd 35bd
00000190: 2292 fcbc c27b a5bd 1fd8 683c 145b 3dbd
000001a0: ed38 943d 414e b8bd 19b2 05be 2f79 a0bd
000001b0: bdf9 d9bd 5a6a 12bc 3ddf d43d 1490 4ebd
000001c0: 8fa1 a5bd 9704 463d 19d3 e93c 5ac1 d0ba
000001d0: 827e be3d f3b4 ae3d f9a5 1d3e 23ff f4bd
000001e0: 3ca5 ab3d e486 3d3d d9b8 aabd 8d53 003e
000001f0: ec27 a13d eece 0fbd 7a89 6fbd e33c bcbd
00000200: 148c a83d 125d 2e3d 06bc 913d 3e8b 08be
00000210: 4ca1 af3d 98b4 6abd 880f 24bd 0115 70bd
00000220: c857 09be 66b4 d83d b8c2 833c 0011 49bd
00000230: 856f 40bc cd28 9fbb 8f3d 1abc 1b4b 593d
00000240: a5d8 ef3d 0a20 573d 0a95 803d 00cb 5ebd
00000250: 4f21 99bd c1ef e03d f70d b83d f6a6 ab3b
00000260: f796 abbb a819 10bd d486 423d 8b60 6cbd
00000270: bf16 16bb 5cc4 c23c ba0d 29bc 2a9c fe3d
00000280: df44 87bd 9552 abbc 2452 b23c 917b 31bd
00000290: 9cd0 b2bb ec37 193d 85ea d03d b1dd 28bc
000002a0: 3541 383d 65b5 c73d a6e4 473d 54d2 0abd
000002b0: 4d3c cbbd 2fb7 adbc d0b3 b83d 1a68 c3bd
000002c0: 306d 0abd c3e3 fe3b 53b1 293d c5cd 75bd
000002d0: cbbd b03d 1282 84bd 538e 09be 6394 c4bb
000002e0: 9757 dc3d e2fc 9dbd 2442 533d 8c90 afbc
000002f0: 0a81 b13d 5156 0e3d a0b8 6cbd dcbc bb3d
00000300: 7dba febd 542d 2abd 84ae 82bd 0086 fb3d
00000310: d404 103d 6064 4ebc 121d b33d 032c 42bd
00000320: dde5 703d 88c6 c93d db3b c5bc e879 563d
00000330: 3f1d 7d3d 8ec0 8fbd 9c54 f53a 5c60 733d
00000340: 30e9 6abd 5e76 693d a8ff e03d 65fa cebd
00000350: eae9 b7bd 8c8d 21bd e855 623c d817 8b3c
00000360: a5a2 d0bc d0a0 f3bc 572b 623c ee27 a1bd
00000370: b9d0 2e3d 5033 4c3d 1850 7fbd 61c8 08bd
00000380: a20e bd3c b965 87bd 71ac 44bd bce6 9d3d
00000390: d7af 7f3c 2ebf a0bd 400e 39bd 8724 27bd
000003a0: e25f 4c3b c537 f7bd 67b7 403d 361c 883d
000003b0: 660f 28bd 5df3 2a3b 7bff a2bd ee5b 1e3c
000003c0: 127e 8f3d 8546 e0bd d833 0bbc d4b1 e8bb
000003d0: c67f 123d c3a1 073d 499f f13d 615b 823c
000003e0: 356b c2bc 3ecb 513d 119b c13c 49a3 893b
000003f0: 0d5b 28bd 25ba 8abb 8437 c63d 92f0 debd
-0.061515875 -0.082498156 -0.042236365 0.010371148 -0.0490133 -0.052092075 -0.05366785 0.007347794
-0.015648954 0.0069230483 -0.051687315 -0.03142384 0.13470782 0.061159823 0.03514127 0.02665105
-0.07234525 -0.039041195 -0.04877564 0.027644541 -0.049901765 0.02883887 -0.08633461 0.01576077
0.06706649 0.08787081 0.06255795 -0.05483535 -0.08042671 0.077148594 0.10924015 -0.0011098258
-0.045501955 0.01514096 -0.059516296 -0.068778284 -0.06688879 0.05627413 0.054887716 -0.056152415
0.03570375 0.07283234 -0.0013095145 0.09727584 -0.072662964 -0.10685248 0.038256828 -0.04985328
-0.05886226 0.074013464 0.013572697 -0.054584168 -0.085757926 -0.059521504 8.129426e-05 0.0063515464
0.10308287 0.044214502 -0.007649154 -0.037251294 0.027572477 0.015073053 -0.032678295 0.026860777
0.0010554926 0.1006847 -0.07632832 -0.049191937 0.012177241 0.079519406 0.06615695 -0.057906304
-0.09627133 0.017035738 0.04844716 0.02099482 0.0045110458 0.0660207 0.07761652 0.06978589
0.01569985 -0.064994134 -0.07476563 0.10683844 0.008537583 0.005716747 0.032538727 -0.0668006
-0.05026035 -0.038408514 0.011512713 -0.10662781 -0.0829482 0.09013516 0.097470194 0.04390088
-0.08077645 -0.03223904 0.019203495 -0.04440038 -0.0308314 -0.080802456 0.0142116835 -0.046229437
0.0723742 -0.08999301 -0.1305622 -0.07835614 -0.10643337 -0.008936489 0.10394142 -0.050430372
-0.080874555 0.04834422 0.028543042 -0.0015926764 0.09301473 0.08530607 0.15395345 -0.11962726
0.08381125 0.04627122 -0.08336038 0.12531872 0.078689426 -0.035109453 -0.058480717 -0.09191301
0.08229843 0.042569228 0.07115941 -0.13334367 0.08575687 -0.057301134 -0.040053874 -0.05861378
-0.13412392 0.10581283 0.01608406 -0.049088478 -0.011745338 -0.0048571588 -0.009414091 0.05305014
0.117112435 0.05252079 0.06278427 -0.054392815 -0.07477056 0.109832294 0.089870386 0.005238409
-0.0052365023 -0.035180718 0.047491863 -0.057709258 -0.0022901741 0.023775272 -0.010318214 0.1243213
-0.06604933 -0.020913402 0.021767683 -0.043330733 -0.005456997 0.037406847 0.10200981 -0.010306762
0.04498406 0.09751395 0.04880204 -0.03389199 -0.09923611 -0.021205513 0.090186715 -0.0954134
-0.033795536 0.007778616 0.041428875 -0.06001069 0.0862995 -0.064701214 -0.13433199 -0.0059991344
0.10758894 -0.07714249 0.05157675 -0.02143123 0.086671904 0.034750286 -0.05779326 0.091668814
-0.124379136 -0.041547135 -0.063809425 0.12281418 0.035160854 -0.012597173 0.08745779 -0.047405254
0.058812965 0.0985232 -0.024076393 0.052362353 0.06179547 -0.07019149 0.0018717232 0.059418067
-0.05735129 0.05699765 0.109862626 -0.10106353 -0.089801624 -0.03944163 0.013814427 0.016979143
-0.02546818 -0.029739767 0.013804278 -0.07868944 0.042679522 0.049853623 -0.062332243 -0.03339422
0.023078267 -0.06611199 -0.048016015 0.07710025 0.015605888 -0.07848965 -0.045179605 -0.04080632
0.003118508 -0.12071184 0.047049906 0.06646006 -0.04103031 0.0026084997 -0.07958885 0.009665472
0.07006468 -0.109509505 -0.008496247 -0.007101277 0.035766385 0.033113252 0.11797959 0.015912713
-0.02373276 0.051219217 0.023633512 0.0042003733 -0.041102458 -0.004233616 0.096785575 -0.10885729
