models/lstm15.pth (torch, 135733 bytes, 9 tensors)

lstm1.weight_ih_l0 f4 [256, 14]
000000 39 2f 33 3e d9 b3 76 3d b2 9a 23 3e 27 ef ee bd
       0.17498483 0.06023011 0.1597698 -0.116667084
000010 36 ec 84 3d 67 21 12 be de 58 76 bb 35 e8 92 3c
       0.06490366 -0.14270554 -0.003758959 0.01793299
000020 de b4 e0 3b 0f 38 17 3d d5 39 01 be d9 99 05 3e
       0.0068574985 0.036918696 -0.12619717 0.1304697
000030 aa b4 81 bc 68 e8 36 3e 10 f4 95 3d 7f ec 8b 3d
       -0.015833218 0.17862093 0.07321942 0.068322174
000040 5e 4c 10 3e 1c 03 d2 bd 89 63 af 3b 6b d3 49 bd
       0.14091632 -0.10254499 0.0053524417 -0.04927389
000050 f6 ad 7d bc 19 ff e7 bd 69 70 be 3d 00 75 03 3d
       -0.01548337 -0.11327953 0.09298784 0.032094
000060 fb 4f a1 3b e8 8e 30 3e f6 44 05 bd 80 f3 88 bc
       0.0049228645 0.17242014 -0.03253647 -0.016717672
000070 ac d4 ca 3c f5 1d 47 3d 94 b3 29 3d ec e4 5d bc
       0.024759613 0.048612554 0.041431025 -0.013543349
000080 58 fb 41 3e e1 9b 84 3d 02 5f 0d bd cd 24 5b 3e
       0.18943536 0.06475044 -0.034514435 0.21400757
000090 9a 04 89 3d 81 33 ae bd 53 28 b3 3c 74 3b 62 3d
       0.06690331 -0.08505917 0.021869814 0.05523248
0000a0 dc 58 af 3d 89 e3 a2 3d 50 77 b1 3c ee 9f f8 ba
       0.085618705 0.07953555 0.021663338 -0.0018968561
0000b0 fe 52 8e 3d ae 4b 2d 3e 31 f2 84 3d 9d 49 43 3e
       0.06949423 0.16923401 0.06491507 0.1907105
0000c0 3a e2 1f be c7 e7 df 3d a5 e3 0a bd 6a a7 32 3e
       -0.15613642 0.1093288 -0.033908505 0.17446676
0000d0 50 2f 04 3e e8 65 46 3e 5f 55 f2 3d a6 eb 54 3e
       0.12908673 0.19374812 0.118326895 0.20793018
0000e0 e8 ce 1a 3e 57 30 f1 bb 5e 42 0f 3e 7c c2 23 be
       0.15117991 -0.007360499 0.13990161 -0.15992159
0000f0 ad 75 30 3e c4 50 c6 bd 37 a8 be 3b 09 fb 53 3d
       0.1723239 -0.096833736 0.0058183926 0.051753078
000100 42 9d 77 bd 26 81 f7 3d fa 85 76 bd 45 f4 8d bd
       -0.060452707 0.1208518 -0.060186364 -0.06931356
000110 31 55 7b 3d 0d 3d 24 3e 38 18 14 3d c2 d0 53 3e
       0.06136054 0.16038914 0.03615591 0.20685104
000120 7f 88 69 3c f9 21 de bb 1c 16 94 3c d4 01 aa 3c
       0.014253735 -0.006778952 0.018076949 0.020752825
000130 d7 17 af bd 04 0f 12 3e 00 4f ed 3d 95 d2 26 3c
       -0.08549469 0.1426354 0.11587334 0.010182043
000140 af 5e 8b 3e 09 c9 45 3e 5f 9b 9c 3e 6e ea 1f 3e
       0.27220675 0.1931497 0.3058729 0.15616772
000150 65 e9 bb bd fb b2 1b be 9c f1 02 3d 1e 32 40 be
       -0.09175376 -0.15204994 0.031968698 -0.18769118
000160 09 55 a3 3d 6a 2c 1e be 6c 50 e7 3d 33 4d 5d be
       0.079752035 -0.1544663 0.11294636 -0.2161148
000170 0f b6 78 bc 79 2f 96 bd 81 e2 19 be 83 9a 49 3c
       -0.015180125 -0.073332734 -0.1502781 0.012304905
000180 6c a4 21 be 20 db 93 bd ab c6 82 bb b3 c8 0e 3e
       -0.15785378 -0.07219529 -0.003990968 0.13943748
000190 34 dd b6 3d 9f 5c 9d bd aa 15 d2 3d cf c8 b0 3d
       0.0892891 -0.07683682 0.10258038 0.08632051
0001a0 65 54 83 be 05 66 21 3e 38 47 a8 3c 51 02 37 3c
       -0.25650325 0.15761574 0.020541772 0.011169986
0001b0 c5 af db 3d 0b 7c f6 3d 9b 59 80 bd f7 bd c3 3d
       0.10726885 0.12035378 -0.06267091 0.09557717
0001c0 e5 b1 1d 3e d0 d1 49 3e 20 1b 3c 3e bb 96 b3 3d
       0.15399893 0.19708943 0.18369722 0.08768984
0001d0 8b 4f 42 3e 09 30 48 3e 46 6d c1 bc 72 c6 3c 3d
       0.18975656 0.19549574 -0.023611676 0.04608769
0001e0 ad f7 20 3e 5e e7 51 3e fd 74 f1 3d 66 cb 04 bd
       0.15719481 0.20498416 0.11789892 -0.03242054
0001f0 93 35 9b 3b c0 32 99 3d ae 28 b7 3d 1d df ea 3d
       0.004736611 0.07480383 0.08943306 0.11468337
000200 4b dd fd 3c fd 2c 6b bc ec 30 0d be 59 4f 95 bc
       0.03098931 -0.014353988 -0.13788193 -0.018226312
000210 dc 5a 0b be 9c 12 6e 3e b9 02 0e ba 7f 42 5a 3d
       -0.13608879 0.23249286 -0.0005417276 0.053286072
000220 a2 3b ae ba 6f 6a b9 3c 34 dc 0e 3e 28 73 bd 3d
       -0.0013292918 0.02263376 0.13951188 0.0925048
000230 72 66 0a 3e 48 55 39 bd cc 08 c5 bb 04 cb 3e 3c
       0.13515642 -0.045247346 -0.0060130116 0.011645082
000240 de a0 c6 bb 36 4a cd 3c bd a6 eb 3d 78 15 5d bd
       -0.0060616573 0.0250598 0.11506412 -0.053975552
000250 f8 7f 64 3c 00 15 99 3d 9d 90 f8 3d e2 56 37 3d
       0.013946526 0.074747086 0.12136958 0.044760592
000260 f7 95 02 bd a0 05 bc 3d 8f 3c d5 bc a2 98 62 bd
       -0.0318813 0.091807604 -0.026029853 -0.055321343
000270 12 89 98 bc dc 2c ce bd b6 cd 57 3d b5 06 97 bd
       -0.018620048 -0.1006715 0.052686416 -0.07374326
000280 ab 57 9e bc e9 e7 7e bd 68 ea 6f bd 78 69 35 be
       -0.019328913 -0.062232886 -0.058573157 -0.17716014
000290 8e d1 b3 bd 9a 9e 3c 3d 86 01 9c 3d 28 f7 60 bd
       -0.08780204 0.04604969 0.07617478 -0.054923207
0002a0 d2 bb 38 3c 46 03 20 3d eb 75 37 3e 4b 1c 05 bd
       0.011275249 0.03906562 0.17916076 -0.032497685
0002b0 70 31 31 be 00 b6 7e 3d 83 ad 95 bd 33 dd 6b 3e
       -0.17304015 0.062185287 -0.07308485 0.230336
0002c0 1b d4 37 3e 16 cf 28 3e e9 b9 2e 3e 7e 7e 42 3e
       0.17952006 0.16485247 0.17063107 0.18993565
0002d0 54 fe 21 3e a5 c5 fc 3d db a2 1f 3e 1d 01 aa 3d
       0.15819675 0.12342385 0.15589468 0.083009936
0002e0 2a 4a 53 3c d8 c4 98 3d 00 de dd 39 66 27 88 3e
       0.0128961 0.0745942 0.00042317808 0.2659256
0002f0 82 45 e6 bc ba 50 9d 3e 3e 1d b7 3d 44 2c 7d 3e
       -0.028109316 0.30725652 0.089411244 0.24723917
000300 85 75 dc 3d e3 40 41 be 37 31 85 be b7 c5 4d 3d
       0.107646026 -0.18872409 -0.2601411 0.050237384
000310 f2 c3 1e bd e1 8d f6 3d 47 6c b9 3d e9 da 76 bc
       -0.038761087 0.1203878 0.090538554 -0.015066841
000320 7e c1 02 be 1d 27 9e bd 3f a3 8d bd 78 1d a4 3d
       -0.12769124 -0.07722304 -0.06915902 0.08013433
000330 f2 fe 05 3e 47 8a d2 3d 8c 11 08 3e eb 27 1d 3e
       0.13085535 0.102802806 0.13287944 0.15347259
000340 b5 2b 84 3d f0 f3 e6 bc 7e 7e 73 bd 57 dd 4d be
       0.06453649 -0.02819249 -0.059446804 -0.20103966
000350 9b 10 dc bd b6 2c 14 3e 0d 31 bc 3c 2c ad 4b 3e
       -0.10745355 0.14470181 0.022972608 0.19890279
000360 57 be bc 3d ed b7 31 be ca d2 eb 3b 8c 99 24 be
       0.09215992 -0.17355318 0.007196759 -0.16074198
000370 ec 8b b8 bd 88 df 8f bd 53 b0 46 3d 63 03 1d be
       -0.09011063 -0.07025057 0.048508 -0.15333323
000380 b4 56 71 3b 5f 78 2b be 30 24 79 3c 24 f0 3f be
       0.003682536 -0.16745137 0.015206382 -0.1874395
000390 66 88 37 3d 38 d1 49 3e f7 bd d4 bd 06 9a 68 3e
       0.044807814 0.19708717 -0.103877954 0.22715005
0003a0 5f 16 12 be a3 d5 47 be 43 d4 ac bd 80 23 58 3e
       -0.14266346 -0.1951509 -0.08438923 0.21107292
0003b0 16 e0 11 3e fc 91 14 bd 7a a0 17 3d d1 4e 23 3e
       0.14245638 -0.036272034 0.037018277 0.15948035
0003c0 9c e3 16 bc fe e1 dc 3d cf 94 11 be fc cf c2 3a
       -0.00920954 0.10785292 -0.14216922 0.001486301
0003d0 50 90 52 3d e8 b7 6c 3e 13 50 2c bc 01 c2 2b 3c
       0.05140716 0.2311703 -0.010517138 0.010483266
0003e0 69 69 f4 3d 10 ab b2 ba 52 39 94 3d 5f 75 1a 3e
       0.11934168 -0.0013631303 0.072374955 0.15083836
0003f0 31 9d 0d 3e d2 91 64 3e fd fc 96 bc c8 73 88 3d
       0.13829495 0.22321251 -0.018431181 0.066627085

lstm1.weight_hh_l0 f4 [256, 64]
000000 b9 10 f2 3d c0 ab 65 bd 2d 95 4e 3e 22 4d a3 3d
       0.11819596 -0.056071997 0.20174094 0.07973696
000010 b1 da b5 bd 6a 9e d0 bc 1a 45 a5 3d f5 4a a8 bd
       -0.08879603 -0.025466163 0.08069821 -0.08217422
000020 94 4a 1c 3e 85 04 32 be dc 55 6b bc 15 8a b5 3d
       0.15262824 -0.17384537 -0.014363732 0.08864228
000030 2b 1f 1c be 16 ff 64 3e e2 d7 2a 3d 22 ab fb bd
       -0.15246265 0.22362933 0.04170979 -0.122885
000040 bc 73 1c bb 16 cf 0f be 53 ca 5f 3c 18 11 4f 3e
       -0.0023872694 -0.14043841 0.013659078 0.20221364
000050 6c 14 7f bd fd a1 29 be 9e 6f bb 3d 60 e4 c4 3d
       -0.062275335 -0.165657 0.09152149 0.096138716
000060 62 4f 9f bd 4f ac 16 be 80 f5 60 3d 3f e3 64 3e
       -0.07778813 -0.14714168 0.054921627 0.22352313
000070 48 50 73 3d 4d 74 3c be 1e 13 47 be 96 dd c5 3d
       0.059402734 -0.1840374 -0.19440886 0.09661405
000080 17 b0 45 3d e9 45 cc 3d 94 ce 43 bd 6e a5 57 bd
       0.048263635 0.09974272 -0.04780443 -0.052648
000090 34 54 2f 3d 26 21 c1 3a 24 18 c2 3c 13 fd cf bd
       0.04280491 0.001473461 0.023693152 -0.10155692
0000a0 24 9b 82 be 02 a0 6e 3e 65 28 54 bd 08 72 1a 3e
       -0.25508988 0.23303226 -0.051796336 0.15082562
0000b0 d7 7d 24 3d 09 7a 83 3e e9 e4 b1 bd 31 40 aa 3d
       0.040159073 0.25679043 -0.08686239 0.08313025
0000c0 b7 47 26 be 12 65 19 3e 02 5f 2e 3e 7d 14 56 bd
       -0.16238295 0.14979962 0.1702843 -0.052265633
0000d0 7b 89 86 bd 47 dd 63 3d 5c 68 c8 3c ff 88 a6 3b
       -0.06569191 0.05563095 0.024463825 0.005082249
0000e0 ae 90 04 bc f4 1c a1 3d fb 2d 57 bd 04 74 c7 bc
       -0.008091135 0.078668505 -0.052534085 -0.024347313
0000f0 1e 7e a4 3e 27 ed 1b 3e fa 68 0d 3e 99 71 ae bd
       0.3212747 0.15227185 0.13809577 -0.08517761
000100 b3 ef 9b 3c 24 3a 42 3e de 3f db 3d b4 3c 39 bc
       0.019035196 0.18967491 0.10705541 -0.011305977
000110 50 00 a2 bd ca 8e 5b 3e 33 f9 5d 3e dd c3 97 bd
       -0.07910216 0.21441188 0.21677093 -0.07410405
000120 38 b9 db 3d a6 15 1f be bb 09 2d be 59 03 bc 3c
       0.10728687 -0.15535602 -0.16898243 0.022950815
000130 1e 48 dd bd 01 8a de 3d 0b 6c 7a bd 72 7d 9d bb
       -0.10804771 0.10866166 -0.061138194 -0.004806214
000140 43 be 56 3d 94 6d 21 be 36 19 1e 3e 63 27 95 3b
       0.05242754 -0.15764457 0.15439305 0.0045518144
000150 13 8a 4b 3e 72 e3 0b be 73 c7 23 3e ef 0f 96 3e
       0.1987689 -0.13660982 0.15994053 0.2930903
000160 ba cd 4c be f4 cc a4 bd ff c2 fa 3c 8c 99 05 3e
       -0.20000353 -0.08046904 0.03061056 0.13046855
000170 f4 d6 ad 3c df c2 6b bd df a4 14 be 97 fa d1 3d
       0.021220662 -0.05755889 -0.14516018 0.10252874
000180 25 96 15 bd 49 57 cd bd 51 c4 0f bc 2b f2 3d 3d
       -0.036520142 -0.10026414 -0.008774833 0.046373527
000190 62 9b d8 bc 17 21 0d be fd bb f6 3d b7 23 85 3d
       -0.02644128 -0.13782154 0.12047575 0.06500953
0001a0 ad 7c 17 be d3 7c 8f 3e df e0 a9 3d d3 da 19 3e
       -0.14793654 0.2802492 0.08294844 0.15024881
0001b0 a9 cd 1e bc e9 f0 a0 3d c7 a7 c7 3d 39 92 79 3d
       -0.009692588 0.0785845 0.09748798 0.060930464
0001c0 95 ed 12 be 14 30 02 3e 87 ba 96 bd 1b e9 09 bd
       -0.14348443 0.12713653 -0.07359796 -0.033669572
0001d0 40 e0 f1 bd ce 22 0e be af 65 4f bd 36 6b 06 be
       -0.118103504 -0.13880464 -0.050634082 -0.13126835
0001e0 bd bf a9 3d 0a ca 4e bd e2 98 7c bd bd a8 f0 bd
       0.08288524 -0.05048565 -0.061669238 -0.11750934
0001f0 ed 0b 58 3e 06 25 bd 3e 3f 81 01 3e e0 ec 10 3e
       0.210983 0.3694231 0.1264696 0.1415286
000200 6c bf b4 bd d1 22 4f bc bf 7f aa be 76 7b 63 be
       -0.08825573 -0.012642578 -0.33300588 -0.22215065
000210 c9 78 5e 3e 51 49 2f be 66 af 95 be ff 13 9b 3d
       0.21725763 -0.17117812 -0.2923538 0.07572173
000220 c8 93 e4 bd 67 4b 43 3e 64 0a b4 3c 9f 1f 32 bd
       -0.111609995 0.19071732 0.02197761 -0.043487187
000230 1b 2d 13 3e fe be 47 3d 79 1a 51 be 05 75 53 be
       0.14372675 0.04876613 -0.20420255 -0.20650108
000240 76 aa 24 3e 89 3f 8e bd 47 bc 1b be b8 98 e7 bd
       0.1608065 -0.06945712 -0.15208541 -0.11308426
000250 83 0a c3 bd a7 cc 31 be de 65 e9 bd 99 f3 c0 be
       -0.09523489 -0.17363225 -0.11396383 -0.3768585
000260 77 eb 82 3e 03 73 78 3e 16 c6 14 3c 1e 16 05 be
       0.2557027 0.24262623 0.0090804305 -0.12996718
000270 90 07 ac 3c 10 e8 76 be 59 29 e9 3d 75 eb a9 bd
       0.0209997 -0.24111962 0.113848396 -0.08296863
000280 28 fd 71 3a 8d 27 40 3d 2d 2f 96 3c ec 0d 3d 3e
       0.00092311436 0.04691272 0.018333042 0.18462342
000290 37 c6 f1 3c 8c db 89 bd 99 c0 20 3e 47 03 17 3e
       0.029513462 -0.06731328 0.1569847 0.14747344
0002a0 67 e2 a3 3d 22 d9 a2 bd dc 8c 23 3e e6 95 72 bd
       0.08002167 -0.07951571 0.15971702 -0.059224986
0002b0 31 27 69 3e f3 b6 5c be e9 c0 e8 bd 56 5d 3c be
       0.22768857 -0.21554165 -0.1136492 -0.1839498
0002c0 f0 10 e0 3d 05 20 4c bc a6 c8 b1 bc 08 b3 0a 3e
       0.109407306 -0.012458806 -0.021702122 0.13544858
0002d0 2a 76 e8 3d 52 53 e2 3d 3e 9f 2e be a9 b9 a1 3d
       0.11350663 0.11051048 -0.17052934 0.0789674
0002e0 3f bb e7 bd 00 55 25 3d 1c cf cb bc a4 5b f9 3c
       -0.11315011 0.040364265 -0.02487903 0.030439205
0002f0 14 89 08 be 1e 0a 4b be e5 ce 2f be 42 46 14 bd
       -0.13333541 -0.19828078 -0.17168768 -0.036199816
000300 42 93 37 bd ec 31 b6 bb af 9a d4 3d bf db e8 bd
       -0.04481817 -0.0055601504 0.10381066 -0.11370038
000310 fa 52 8e 3e d7 d7 e0 bd 52 98 fe bd f1 db b3 bc
       0.2779768 -0.10978668 -0.124313965 -0.021955462
000320 5f c4 94 3c 06 39 84 bc 50 47 89 3e 7e 1f de 3c
       0.018160043 -0.016140472 0.2681222 0.027114626
000330 0b 90 ec bc 5f 9e 93 3e 5d 5a f1 bd 39 be 5f bd
       -0.028877279 0.28831765 -0.117848136 -0.05462477
000340 35 bf 92 3c da bb eb 3d 52 58 24 3d fa a6 55 bd
       0.01791344 0.11510439 0.04012329 -0.052161194
000350 82 d6 14 bc 24 0e 29 be 8d e5 84 be 82 f0 56 3c
       -0.009084346 -0.165093 -0.25956383 0.013118865
000360 e3 01 06 3c d9 98 da bc 88 63 29 be 33 5f 83 bd
       0.008179161 -0.026684212 -0.16541874 -0.06414642
000370 f9 c2 74 3e be 61 e5 bd b9 14 15 be ed 89 22 be
       0.23902501 -0.112002835 -0.14558686 -0.15872927
000380 cd eb 4b ba d2 39 cf 3d b1 69 86 bb fd 88 ec 3d
       -0.00077789725 0.1011845 -0.004101955 0.11549566
000390 c8 cd 2e 3d 30 74 98 bd 59 5b 91 3e 9f 4e 5c 3c
       0.042676717 -0.07444036 0.28390005 0.013446479
0003a0 6b a0 b2 bb f0 82 b6 3d 59 31 8b 3e d5 ad e2 3b
       -0.005451252 0.08911693 0.27186087 0.006917695
0003b0 5f 16 2c 3d 03 41 b3 bc 0d 4b 70 be 52 ae 8d be
       0.042013522 -0.021881586 -0.2346613 -0.27672058
0003c0 96 c7 ac 3c 38 3a 8c 3d 90 9a 62 3e 56 b1 46 3e
       0.021091264 0.06847042 0.22129273 0.19403586
0003d0 2f 68 8e 3d 24 87 cb 3d 53 b6 4a be ae b4 0b 3e
       0.06953465 0.099378854 -0.19796114 0.13643143
0003e0 84 fa b2 3d 2e 3d 97 3d a0 86 7b bd 23 44 81 3e
       0.08739188 0.07384716 -0.061407685 0.25247297
0003f0 ef 6e 81 3c cb 4a d5 3d 5d 3e cb bd 00 f8 48 bd
       0.015799968 0.10414656 -0.09924004 -0.049064636

lstm1.bias_ih_l0 f4 [256]
000000 8e 10 16 3d 73 8f ee bd 58 50 99 bd 75 97 27 be
       0.03663688 -0.116484545 -0.074860275 -0.1636637
000010 83 8b ec bc e5 56 a8 3d c3 72 a9 be e6 12 64 3c
       -0.028875118 0.08219699 -0.3309537 0.013920521
000020 d8 9f 85 bd c1 dd ed bc 68 55 46 bc 4c c4 0d be
       -0.065246284 -0.029036405 -0.012105323 -0.13844413
000030 3d 14 31 3c 6a ee 30 be 32 f4 ea 3c a3 45 57 be
       0.010808048 -0.17278448 0.028680895 -0.21022658
000040 3f aa 7e bd 9c f6 91 be 4a 57 e5 bd 9d 12 46 be
       -0.062174078 -0.2850846 -0.1119829 -0.19343038
000050 da 09 cc bc 42 93 f0 bc e4 83 11 be 30 c3 40 be
       -0.024907041 -0.029367093 -0.14210469 -0.18824458
000060 28 cb d8 3b 9e 31 8f bd 2e 72 3b be ae 24 e8 3c
       0.006616015 -0.069918856 -0.18305275 0.028337803
000070 42 09 3a bd 2f 72 43 be 01 36 b1 bd ab 5b 4e be
       -0.045418985 -0.19086526 -0.086528786 -0.20152156
000080 cc 87 49 be 93 68 88 be c1 31 09 be 76 1e 15 3c
       -0.19680709 -0.26642284 -0.13397886 0.009101501
000090 6b a6 11 be 87 da d2 3b 67 af e0 bd f6 c9 67 be
       -0.1422364 0.006434742 -0.10970955 -0.22635636
0000a0 4a 48 04 be 13 f1 4e 3d 2f f6 15 bc e5 05 fe bd
       -0.12918201 0.050522875 -0.009152933 -0.12403468
0000b0 04 50 22 be 54 9a 2e be 07 3c 95 be 74 e4 85 bd
       -0.15850836 -0.17051059 -0.2914736 -0.065377146
0000c0 d1 7f 72 be c5 3d 73 be 8f 62 8a be f2 e6 ef bc
       -0.2368157 -0.23754032 -0.2702832 -0.029284928
0000d0 3a 89 a9 bc 78 e1 88 be fc fd 18 be 8f b7 49 be
       -0.020695318 -0.2673452 -0.14940637 -0.19698928
0000e0 e2 3a 7a be c4 11 3e 3c ee 98 5f be d6 34 8c be
       -0.24436525 0.011600915 -0.21835682 -0.2738406
0000f0 8e 49 50 be 31 e7 0d bd 26 ff 05 be 6c 70 09 be
       -0.20340559 -0.03464431 -0.13085613 -0.13421792
000100 30 a3 ed 3c 2a a2 20 be c9 2e 85 bb b7 16 5e be
       0.029008478 -0.1568686 -0.004064415 -0.21688353
000110 9e c4 51 be 3b 60 be bd 9a ee 1b be b5 f8 1d bc
       -0.2048516 -0.09295698 -0.15227738 -0.009641816
000120 d5 a0 37 bc 6c 35 0a be 9e 55 95 3c 61 f3 2e be
       -0.011207779 -0.13496941 0.018229302 -0.17085029
000130 49 8c 37 bd 8b 40 30 be 92 ed 8a bc 99 81 84 be
       -0.04481152 -0.17212121 -0.016958985 -0.25880125
000140 01 ed 36 bc fc 7e a4 bd f3 02 d4 bd ea 3c b6 bd
       -0.011164905 -0.08032033 -0.10352125 -0.08898337
000150 70 5e 52 bd 6a 5c 17 be 3a 44 20 be 54 1c ac be
       -0.051359594 -0.14781347 -0.15651026 -0.33615363
000160 26 32 e3 3d 3f 2d 41 be 36 bb ab bd 15 b8 71 be
       0.110935494 -0.18864916 -0.08385317 -0.23605378
000170 c8 46 d6 bd 97 1c d8 bd b2 f4 d8 3c b2 17 45 be
       -0.10462719 -0.10552328 0.026483867 -0.1924732
000180 b0 85 0f be b4 36 3f be eb e2 13 be e5 b6 fc bd
       -0.14015841 -0.18673211 -0.14442031 -0.12339572
000190 4f e5 83 be a6 a9 2d bd 82 59 8d be 54 c0 12 be
       -0.25760886 -0.042398117 -0.27607352 -0.1433118
0001a0 f8 18 f6 bd cd 47 6b bd 24 63 4a be 82 82 1a be
       -0.12016481 -0.05744152 -0.19764382 -0.15088847
0001b0 91 34 6d be e7 6b 69 be 07 b4 93 be 74 e6 c8 bd
       -0.23164584 -0.22795068 -0.28848287 -0.098095804
0001c0 7d 86 f6 bd 8b 51 98 3b c0 64 bf bc 31 b6 5c be
       -0.1203737 0.0046483926 -0.023363471 -0.21553876
0001d0 5b f5 7c be 9e 01 68 be 28 b0 5c 3d 1e d7 6e bd
       -0.2470297 -0.22656867 0.053878933 -0.05831062
0001e0 97 1e bd bd 39 b1 14 be 5d bb 98 be fc c8 38 be
       -0.0923435 -0.1452073 -0.29830447 -0.1804542
0001f0 48 cd 30 bd 98 6d a2 ba 43 06 00 be 9d a1 06 bd
       -0.04316452 -0.0012392281 -0.12502389 -0.03286897
000200 ae 4d 94 bd 27 ed 5b bd 22 f0 80 bd c5 65 54 3c
       -0.07241379 -0.053692963 -0.06295802 0.012963717
000210 7b 9e 19 be a9 a1 e4 bd 27 d4 d2 bd 28 31 c1 bc
       -0.15001862 -0.11163647 -0.10294371 -0.02358301
000220 bc 16 3b be 4f ef a9 bb 5f ce 18 be 92 3e fa bd
       -0.18270391 -0.0051859985 -0.14922474 -0.122189656
000230 e1 ed 8f 3d d5 e7 bf bd f0 57 50 38 f1 ad 56 bd
       0.07027794 -0.0937039 4.9672963e-05 -0.052411977
000240 53 06 99 bd 56 42 e5 3d 87 0b 04 3d d0 7d 1f bc
       -0.074719094 0.11194293 0.032237556 -0.009734586
000250 48 7c 74 3d 80 fe 1b 3e 99 d6 58 3d 05 ad bb bc
       0.059688836 0.15233803 0.05293903 -0.02290965
000260 ba 41 3c 3e e5 1c 20 be c3 fb 48 bd 53 c8 c1 bc
       0.18384448 -0.15636022 -0.049068224 -0.023655092
000270 20 30 eb bd 0c 58 fe 3d 42 00 4a 3e 2a f2 65 3d
       -0.114837885 0.12419137 0.19726661 0.05613915
000280 69 56 c7 3d ff 27 aa bd 46 e7 8a bd 92 06 19 be
       0.09733278 -0.0830841 -0.06782393 -0.14943913
000290 6c 76 ff bd 94 d8 07 3d 2a eb ce bd fb b0 8f 3d
       -0.12473759 0.03316553 -0.10103448 0.07016178
0002a0 fd 9e be 3c 30 21 03 be 0a d9 24 be 89 42 1b bd
       0.02326917 -0.12805629 -0.16098419 -0.03790525
0002b0 13 9a 62 bc e5 ab fc bc f8 a4 af bd 39 f7 96 3c
       -0.0138306795 -0.030843684 -0.08576387 0.018428432
0002c0 c9 4d 02 3e fd 03 21 be 81 d3 1d be 7e f4 d4 bd
       0.12724985 -0.15724178 -0.15412714 -0.10398196
0002d0 c0 af 24 be 76 a7 f2 3c 18 6a 93 3e 96 92 d4 3c
       -0.16082668 0.029620867 0.2879188 0.025948804
0002e0 93 9a 04 3c 9c 86 01 be ce 26 d6 3d 1c e6 93 be
       0.008093494 -0.12649006 0.1045662 -0.28886497
0002f0 e9 20 f0 bd 1b d3 31 be 5a 83 cd 3d 73 c9 9b 3d
       -0.11725027 -0.17365687 0.10034819 0.07606783
000300 4b 3a 50 3d 94 b9 af bd 2e d7 20 3c e9 28 62 be
       0.050836843 -0.08580318 0.009816928 -0.22085918
000310 f7 e8 38 3d 79 4a 17 be 7e 36 bd be bb c2 19 be
       0.045144048 -0.14774503 -0.36955637 -0.1501569
000320 2c 1d 4c 3e 60 7f c9 3d e1 ab 12 be c3 31 a5 be
       0.19933003 0.09838748 -0.14323379 -0.32264528
000330 4d 1b c0 bc b9 3c 01 be aa 47 64 bd 71 e3 04 be
       -0.023450518 -0.1262082 -0.055732407 -0.12977387
000340 b4 6e 89 39 5e 6c a3 be 9f 6e a2 bc b4 85 99 bd
       0.00026213157 -0.31918615 -0.019828139 -0.07496205
000350 cb 71 d0 bd 43 c6 26 bd 9d 91 1a be ab b1 a2 be
       -0.10177954 -0.04071642 -0.1509461 -0.31776175
000360 b9 85 29 3d 92 68 9d bd 1e 50 40 be b4 05 92 3d
       0.041387293 -0.07685961 -0.18780562 0.07129994
000370 7f c8 ec bc fd 33 7b be d4 a1 08 3d 59 8c 06 be
       -0.028904198 -0.2453155 0.033357456 -0.13139476
000380 b4 48 e4 bd 98 04 25 be fd 5f 23 be 4c 21 45 be
       -0.111466795 -0.16115034 -0.15954585 -0.19250983
000390 f8 92 47 3d a2 39 54 3e 61 8b 01 bc 79 c8 2e be
       0.048724145 0.2072511 -0.007906766 -0.17068662
0003a0 5a 35 8e 3d d8 59 5a 3c 84 14 43 be a9 04 cb be
       0.0694377 0.0133270845 -0.19050795 -0.39651993
0003b0 44 cb 6c be cd 3f 8c be 31 9c 1c be b0 63 ce 3d
       -0.23124415 -0.27392426 -0.15293957 0.10077608
0003c0 02 8f 0f 3d 16 0c 24 be 2a 0a 98 bd 3e ac 04 be
       0.035048492 -0.16020235 -0.07423814 -0.1295633
0003d0 9e eb 34 be 8e 6c 76 be 32 b3 06 3c b2 65 47 be
       -0.17668006 -0.24064848 0.008221434 -0.19472387
0003e0 32 a4 67 be 34 41 d3 3c 60 a7 18 3a 78 97 34 be
       -0.2262123 0.025787927 0.00058232807 -0.17635906
0003f0 3b 44 d1 bd 9b 36 b1 3d 00 6e 42 b7 3e f9 0f bd
       -0.10218092 0.08652993 -1.15889125e-05 -0.035149805

lstm1.bias_hh_l0 f4 [256]
000000 ad e7 f8 bb 53 6e 8f bc c3 65 0e be f9 b6 20 bd
       -0.0075959773 -0.017508661 -0.13906007 -0.039236996
000010 7d fd a7 3d 46 2d b2 3a 26 00 13 be d9 b5 e0 bc
       0.08202646 0.0013593815 -0.14355525 -0.027430462
000020 5b 83 9d bc 31 3a cf bc 44 64 e1 bd 5b 87 06 be
       -0.019227674 -0.025296303 -0.11005452 -0.13137572
000030 71 77 0c 3e 5f 56 31 bd e6 b3 a2 3c 70 e0 80 be
       0.13717438 -0.04329526 0.019861173 -0.25171232
000040 8c 27 10 be e7 e0 28 be 35 ee 6a be 5f 86 1b be
       -0.14077586 -0.16492043 -0.22942431 -0.15187977
000050 4e 97 e3 bd 8b 3a c0 bd d6 ba 48 3c 0b 0f f9 bd
       -0.111128435 -0.09386166 0.012251576 -0.12161072
000060 fa cc 28 3e 8d e7 58 3c 52 71 8d be ee 95 6c bd
       0.16484442 0.0132388 -0.2762552 -0.05776017
000070 3f a0 e1 bd 10 c2 30 be 52 05 ef bd 4b 9d f9 bb
       -0.11016893 -0.17261529 -0.11670937 -0.0076176277
000080 1d 4e 78 be cc cb 75 be 01 13 0c be f6 6b 13 be
       -0.24248548 -0.24003524 -0.13679124 -0.14396653
000090 6f 81 e4 bd ff 0f 7e 3d dc fb d2 3c 50 ea a9 bd
       -0.111575 0.062026974 0.025754862 -0.08296645
0000a0 23 5f 18 be 20 3a 80 bd 70 3a 7f bd 5e 82 3f be
       -0.14880042 -0.062610865 -0.06231159 -0.18702075
0000b0 50 a9 76 be 78 31 e8 bd cf 1f 6d be 6f bd 1c 3d
       -0.24088025 -0.113375604 -0.23156665 0.038266595
0000c0 7b ef 6d be 29 8a 20 be 3b 85 99 be e0 f2 cc bc
       -0.23235886 -0.15677704 -0.2998446 -0.025018156
0000d0 92 47 24 be 27 f2 3d be 29 c0 74 bc 14 53 80 be
       -0.16042927 -0.18549405 -0.014938393 -0.25063384
0000e0 8d b3 db bd 30 52 df 3c 73 9e c5 be db 85 09 be
       -0.10727606 0.02726087 -0.3859745 -0.13429968
0000f0 de 75 a9 bd a1 32 ac 3d 43 11 95 3c ad fb 2b be
       -0.082744345 0.08408094 0.018196708 -0.16795225
000100 d7 53 2e 3d 18 7a 19 be 36 a7 26 be 6e 6f 6e bd
       0.042560425 -0.14987981 -0.16274723 -0.058211736
000110 c0 31 8b be 5a 4a 95 bd e8 60 28 be 1e 07 8d bc
       -0.27186394 -0.07289572 -0.16443217 -0.017215308
000120 62 32 a5 3d ca ba 6b bc ba 87 04 be 39 4a 4f be
       0.080662504 -0.014387796 -0.129424 -0.20243157
000130 f6 29 ec bd 7e 6b 2b be cb e3 ae 3d 86 84 8e be
       -0.11531441 -0.16740224 0.08539542 -0.27835482
000140 39 37 60 bd b1 4a 8b be 23 6c 4f be e8 17 82 bc
       -0.054740164 -0.27205423 -0.20256095 -0.01588054
000150 ef ab f8 3c b8 9a 1d be 5d ce 3c 3d 67 10 a7 be
       0.030355422 -0.15391052 0.04609524 -0.32629701
000160 4a 4b 5a 3e 5b dd d0 bd 88 b6 96 be 25 43 4e be
       0.21317783 -0.1019847 -0.29436135 -0.20142801
000170 c3 e3 ae 3b 0e 8f 0b be f1 ff 7f 3d 2c 08 77 be
       0.00533721 -0.1362879 0.062499944 -0.24124211
000180 6f 73 db bc 6d 3b 1a bd a0 bf 42 be a2 6a b1 bd
       -0.026788441 -0.03765433 -0.19018412 -0.08662917
000190 6d f0 b2 bd 88 02 a6 bd 08 3d a6 bd 9b b7 18 be
       -0.08737264 -0.081059515 -0.081171095 -0.1491379
0001a0 20 fa 08 be 94 5a 9e bd 39 c1 9a be 6f 19 83 be
       -0.13376665 -0.0773212 -0.30225542 -0.25605342
0001b0 7e 94 77 be c0 5d 50 be 82 83 47 be de 3c e6 3c
       -0.24177739 -0.20348263 -0.1948376 0.028105196
0001c0 49 40 5f be 03 60 11 be 26 e5 01 be 1e 14 a4 bc
       -0.21801867 -0.14196782 -0.1268507 -0.020029124
0001d0 a6 5b a1 bd 2b 88 23 be b9 5b 95 bd 14 5e 49 be
       -0.07878809 -0.15969913 -0.07292885 -0.19664794
0001e0 b5 cd a3 bd f1 b1 40 3d 7a 98 92 be 8c ab 3d be
       -0.0799822 0.0470447 -0.28631955 -0.18522471
0001f0 63 95 f5 bb af 59 36 3d c1 b2 1e bd c4 aa 66 be
       -0.007494615 0.044519123 -0.03874469 -0.2252608
000200 0e 0f 8c 3d d5 da fb bc 6c 6a a1 bd c9 7f 88 3d
       0.06838809 -0.030743996 -0.078816265 0.06664998
000210 c7 54 ba bd 57 46 d3 bc 03 b2 80 bc ca 7e a0 3c
       -0.09098201 -0.025790377 -0.015709883 0.019591708
000220 c1 5c 9f bc de 40 4a 3c b0 19 c0 bd 63 a2 89 bd
       -0.019453408 0.012344567 -0.093798995 -0.06720426
000230 5e 1f 8e 3c 19 cf 89 be e6 08 69 3d 05 ae 76 bd
       0.017348941 -0.26915815 0.05689325 -0.06022455
000240 8e 39 d4 3b 48 ff 5b ba 70 92 24 3d 3c 66 cb 3d
       0.0064765876 -0.0008392227 0.040178716 0.09931609
000250 7f 8f 12 bc 2f fa 6e 3e f2 f2 fa 3d 17 e1 3f bd
       -0.008945345 0.23337625 0.122533694 -0.04684552
000260 e4 07 de 3d 04 a7 31 be c7 f9 d1 3c b8 5c f4 bd
       0.10841349 -0.17348868 0.025631798 -0.11931747
000270 20 a5 bb bd b3 53 5b 3e b4 c0 0d bd 1e 93 12 3c
       -0.091623545 0.21418647 -0.034607604 0.008946208
000280 ca 23 4c 3b 1b 50 fb bd 57 ed 3a bc 4b b5 a8 bd
       0.0031149262 -0.12271138 -0.011409125 -0.08237704
000290 cf e4 b9 bd fb a0 e8 3d 48 79 6c be 25 d0 17 3e
       -0.09076845 0.113588296 -0.2309314 0.14825495
0002a0 ab a4 1e 3e d9 30 52 be 32 ac 15 be b7 81 b3 bc
       0.15492503 -0.20526446 -0.14616469 -0.021912439
0002b0 1c 62 8f bc 2b 1f 1b bd d1 10 e1 3d ec ac f7 3d
       -0.017502837 -0.03787152 0.109895356 0.12093529
0002c0 b8 1f aa bd b3 da cf bd 1a e8 d5 3a 7f 24 b8 bd
       -0.08306831 -0.101491354 0.0016319782 -0.08991336
0002d0 e7 23 f2 bd 46 33 6d 3d 47 2c 80 3e ce 71 e8 bd
       -0.11823254 0.057910226 0.2503378 -0.113498315
0002e0 d1 02 23 bb 87 f1 02 bd 99 68 30 3e 83 60 eb bd
       -0.0024873505 -0.03196862 0.17227401 -0.114930175
0002f0 5b dc be bd eb b2 2e be 5b 04 78 3d cf 98 77 3d
       -0.09319373 -0.1706044 0.06055103 0.060448464
000300 be 64 90 3d c0 9e 01 be 66 dc 88 3d 5b 6f 57 be
       0.07050465 -0.12658215 0.06682663 -0.21038572
000310 1c 5c 0e be b1 c1 ff bd e8 6e a9 be 88 2e 9d 3d
       -0.13902324 -0.124881156 -0.33092427 0.07674891
000320 ac 05 47 3e 93 df 65 bc 35 3b 13 3d 7c 6b 35 be
       0.19435757 -0.014030355 0.035945136 -0.17716783
000330 f4 aa ed bd e4 ef 0d be c6 93 19 bd 8a da 70 be
       -0.11604872 -0.13861042 -0.037494443 -0.23520866
000340 11 8c 90 bd e5 c2 40 be a4 d1 12 be 87 bd 48 bd
       -0.070579655 -0.18824346 -0.14337784 -0.049008872
000350 95 30 ba 3d 67 22 4e be d4 3a 5f bd ed 0f 4f be
       0.090912975 -0.20130311 -0.054499462 -0.20220919
000360 3d 09 2c 3e ca 27 1c be 31 e4 e6 bd 07 a3 0f bd
       0.16800399 -0.15249553 -0.11273993 -0.035067584
000370 61 50 36 3d ee 3d 64 bd 3c df 0a be 7e a6 27 be
       0.04451025 -0.055723123 -0.1356172 -0.16372105
000380 a3 f5 53 be 4f 5d 1a be 71 db 10 be 94 62 65 be
       -0.20699172 -0.15074657 -0.1414621 -0.22400886
000390 ed 40 9f bd c8 e1 30 3e 1d d4 0b be 60 dd c3 bc
       -0.077760555 0.17273629 -0.13655134 -0.02390927
0003a0 ee 1a 40 3e dc 5f 47 3e 78 da 14 be 63 9d c1 be
       0.18760273 0.19470161 -0.14536464 -0.3781539
0003b0 4c 92 7c be 80 46 b5 be 29 d3 24 be 5e 11 9c 3d
       -0.24665183 -0.3540535 -0.16096176 0.076205
0003c0 eb 2c 84 bd fe a2 4d 3d 80 3a 69 be 7f a3 b2 be
       -0.0645388 0.05020427 -0.22776222 -0.34890363
0003d0 bf 2a fb bd 6d dc ba bd 0d 41 71 3d aa dc b7 be
       -0.122640125 -0.09124074 0.058899928 -0.3591054
0003e0 cc ad 41 be e4 2c b8 3d 74 9d 15 bd ca 18 61 be
       -0.18913954 0.08992937 -0.036527112 -0.21982113
0003f0 ca 26 39 3c 8b e6 17 bd cb fb e2 bc 33 10 33 be
       0.011300752 -0.037085097 -0.027707955 -0.17486648

lstm2.weight_ih_l0 f4 [128, 64]
000000 ea 6d 0b be a4 ce 6a 3e a3 8c 10 be ea 57 c3 bd
       -0.13616148 0.2293039 -0.14116149 -0.09538253
000010 ac aa 5d 3d bc f2 36 3e 43 54 6b be c0 44 b0 3d
       0.054117844 0.17866033 -0.22981362 0.08606863
000020 44 e9 4f be fe 11 bb bc 06 e5 59 3e 01 e7 e3 bd
       -0.20303828 -0.022835728 0.21278772 -0.11128045
000030 98 69 b4 bd 0b e6 89 be 67 5c b3 3d f2 10 e3 bd
       -0.08809203 -0.2693332 0.08757859 -0.110872164
000040 0b 25 8c bc fd be 0e bc f5 da 61 bd 88 cb 7b bd
       -0.017107507 -0.008712527 -0.055140454 -0.0614734
000050 76 95 d7 3d 48 b7 aa 3e 7c f8 36 be 47 81 cb bd
       0.10526554 0.33342957 -0.17868227 -0.09936767
000060 2b 14 a0 3c 0b 4f 13 bd c1 6b 87 bd ab 4f 04 3c
       0.019540867 -0.035964053 -0.06612349 0.008075635
000070 0a b1 b8 bd 67 62 b5 bd 91 c0 e6 3d 95 f1 3c 3d
       -0.090181425 -0.088566594 0.11267198 0.046128828
000080 24 b7 b4 bb 7d 1f 04 3e 5e 41 e8 3c 1a 23 95 3e
       -0.005514996 0.12902637 0.028351482 0.29128343
000090 87 92 75 be ef f6 9e 3d f6 bb d3 bd 46 01 a0 3e
       -0.23981677 0.077619426 -0.10338585 0.31250972
0000a0 bd 8a 9b 3e 23 12 84 3d ea 29 1f 3e c0 ef be ba
       0.30379286 0.06448772 0.15543333 -0.0014567301
0000b0 31 80 c7 3d 2a a0 e4 3d 74 45 f0 3d 7c c1 50 be
       0.097412474 0.11163361 0.11731997 -0.20386308
0000c0 b3 c8 ff bd 13 7b c3 be 2e 6d 16 be de 0f c8 bd
       -0.12489452 -0.38179836 -0.14690086 -0.097686514
0000d0 fa c5 27 be e4 85 0c 3e cc e8 38 3e e7 20 cb bd
       -0.16384116 0.1372295 0.18057555 -0.09918385
0000e0 cd d0 8e be e2 3c c0 bb 34 d7 07 3e 85 60 31 be
       -0.27893677 -0.005866633 0.13265687 -0.17321976
0000f0 66 39 5a be 08 3e 18 bd f5 e7 91 be 30 ca 0c be
       -0.21310958 -0.037168533 -0.28497282 -0.13749003
000100 c7 d6 e6 bc c5 b2 2f be 16 9d 1d be a5 96 86 be
       -0.028178586 -0.17158039 -0.15391955 -0.26286808
000110 f4 3e 4d 3e e4 d4 1a 3d 5f 14 95 be 4e d7 cf 3d
       0.20043546 0.037800685 -0.29117104 0.10148488
000120 3f d1 22 3d f1 18 7c bc 7d 21 4c 3e 64 a4 d6 3d
       0.039750334 -0.015386806 0.1993465 0.10480574
000130 71 a6 03 3e da bb 55 3d 37 63 2a be 71 65 1c 3e
       0.12856461 0.052181102 -0.1663941 0.15273072
000140 48 4a 10 bd 88 66 7f be 57 a5 5e be ff 16 14 be
       -0.03522709 -0.24941456 -0.2174276 -0.14461897
000150 55 e3 4f bd c7 01 e3 bd f7 d8 a7 be 0c 38 20 bd
       -0.05075391 -0.110843234 -0.3278272 -0.03911595
000160 54 d6 00 be bb 3f 89 3e c2 56 3b 3e 54 82 52 bd
       -0.1258176 0.26806435 0.18294814 -0.05139382
000170 89 78 7c 3e 92 84 1e be bc 8c 21 bc 35 31 49 3d
       0.24655356 -0.15480259 -0.009860214 0.049119193
000180 61 20 67 bd bb 2b 12 3e 44 bc 32 3e bc 8f 0e 3e
       -0.056427363 0.14274494 0.1745463 0.13922018
000190 85 4d 3b 3e 62 54 cf 3d a6 1e f4 3d 55 dc 9e 3d
       0.1829129 0.101235166 0.11919908 0.07756869
0001a0 99 4a 1b bd 7a 8e 06 3d e6 00 4b 3e 92 e1 19 3e
       -0.03791294 0.03285072 0.19824561 0.15027454
0001b0 02 42 0b 3f 04 2d a2 3e 3a c2 b9 bd 14 bf 63 be
       0.54397595 0.3167497 -0.09070249 -0.2224086
0001c0 aa 3d 93 3d 15 8e a8 3d f9 ae e3 bc e1 25 29 3d
       0.07189496 0.08230225 -0.027793394 0.04129589
0001d0 3a a5 bc 3b c3 d2 67 3d da 55 81 be 2b 98 4b 3e
       0.005757001 0.056597482 -0.25260812 0.19882266
0001e0 e7 03 0b bf bc 9a 49 3e 3a e5 a9 3c 38 78 14 bd
       -0.5430283 0.19687933 0.020739187 -0.036247462
0001f0 aa 41 d2 bd 0a 6d b7 bd 15 51 b9 bd 36 16 8f be
       -0.10266431 -0.089563444 -0.09048668 -0.27946633
000200 d5 a5 09 be a6 98 31 be 6b 44 0e bd 1c e8 17 be
       -0.13442166 -0.17343387 -0.034733217 -0.14834636
000210 62 bc 18 3e a6 6d 77 be 10 6b 23 3e f8 70 6f 3e
       0.14915612 -0.24162921 0.1595881 0.23382938
000220 b9 5c 13 3d 17 25 3f 3e fc fd ba 3c 04 27 dd 3d
       0.0359771 0.18666492 0.022826187 0.10798457
000230 7e 55 9d 3e f8 20 fb 3d f3 f8 67 bd 34 42 26 bd
       0.30729288 0.12262148 -0.0566339 -0.04059048
000240 46 05 06 be 9d 53 48 bd 3b 8d 02 be 5d b9 c5 bd
       -0.13087949 -0.048907865 -0.12749188 -0.09654496
000250 47 e3 86 be 83 72 e4 be 8f a2 e6 3d 9b 82 3f bc
       -0.26345274 -0.44618616 0.11261474 -0.011688854
000260 71 9d 69 be 42 ba fa 3b f1 21 3a be 76 d4 a9 bd
       -0.22813965 0.007651598 -0.1817701 -0.08292477
000270 eb 88 8a 3e 3d b9 5a be b5 e3 e4 bd 6b fd 4f bd
       0.27057585 -0.21359725 -0.11176244 -0.050778788
000280 68 13 07 be d9 1d f0 3d c0 8c ff 3d bd 38 cb 3d
       -0.13190997 0.11724443 0.12478018 0.09922931
000290 98 e3 99 3e 2f 8d fb bd 62 55 c8 3c 25 83 99 3d
       0.30056453 -0.12282788 0.024454776 0.07495717
0002a0 32 97 2b bd 45 83 1c 3e aa 73 82 3e 64 9b cf bc
       -0.041892238 0.1528445 0.2547887 -0.02534265
0002b0 ed df 78 3c 02 f8 92 3d 8c 2e cc bd 6d 53 04 be
       0.015190107 0.0717621 -0.099698156 -0.1292245
0002c0 fb d0 b5 bd dc e5 10 3e 6e 95 12 bd 2c 8e 0c 3e
       -0.088777505 0.14150184 -0.03578704 0.1372611
0002d0 46 15 11 3e 9a b3 23 3d 24 ff 95 be b3 18 36 bd
       0.14168271 0.039966203 -0.2929622 -0.04445715
0002e0 4b f2 1f 3d ea 71 ae bc 7a 54 41 be ba e9 c1 3c
       0.039049428 -0.021294553 -0.18879882 0.02367102
0002f0 36 33 9d 3d 5c 20 fa 3c b1 27 36 be a0 4e 2b bd
       0.07675783 0.030533008 -0.17788579 -0.04182303
000300 40 3f 28 3e 98 dc 63 bd 7f bf 9e 3e 48 2c 57 3e
       0.16430378 -0.055630296 0.31005475 0.21012986
000310 74 3e 11 be 08 74 13 3e 08 06 84 3e 51 0d b3 bd
       -0.1418398 0.14399731 0.2578585 -0.08742774
000320 a2 81 30 3d de c7 3c be d8 7d 32 3d ec c5 13 3d
       0.043092377 -0.18435618 0.043577045 0.036077425
000330 bf 38 87 be 23 5b 81 bc 8d 03 9b bd 06 2c ba 3d
       -0.2641048 -0.015790528 -0.07569037 0.09090428
000340 a1 6a 9f 3d 03 b4 82 bd 88 c8 4f be fd 96 36 3e
       0.0778401 -0.06381991 -0.2029134 0.17831035
000350 f2 51 50 bd 33 a4 d5 bd 7d 40 70 bc 58 90 36 3e
       -0.0508594 -0.10431709 -0.014663813 0.178285
000360 f1 01 ab be 7a 00 5f bd 9c f9 13 3e aa 36 7f bb
       -0.3339992 -0.054443814 0.14450687 -0.0038942494
000370 c2 14 45 be f3 ce ad bc 53 26 75 be 74 73 55 bd
       -0.192462 -0.021216845 -0.23940401 -0.052112058
000380 21 78 2a 3e 6b 7c 6c 3b 91 fb a3 3d 48 d9 d2 3d
       0.16647388 0.00360849 0.08006967 0.10295349
000390 fb 12 2d 3e e4 b6 ab be 61 e3 62 bb e9 4c ef bb
       0.16901772 -0.33537972 -0.0034620392 -0.0073028696
0003a0 e0 10 b3 be 36 96 67 3e 6d fc 8c 3e a5 58 51 3c
       -0.34973812 0.22615895 0.27536336 0.012777482
0003b0 1b 69 65 be b6 2d f9 bd dd 62 c7 bc f2 04 1a 3e
       -0.22403376 -0.12166922 -0.024339134 0.15040949
0003c0 d2 36 19 be 05 db 68 bd b7 e7 e2 bb 36 7c 81 3d
       -0.14962319 -0.0568495 -0.006924595 0.063225195
0003d0 58 e5 35 bd 62 69 58 be 0f fd db 3d 30 6a 62 be
       -0.044408172 -0.2113395 0.107416265 -0.2211082
0003e0 63 8b 57 3e 53 66 5d be 13 a9 ab 3d ed d9 99 bd
       0.21049266 -0.21621065 0.08381858 -0.07512269
0003f0 eb d0 1b 3e 43 a8 b4 3e 6e 45 4a 3d 62 3c fd 3d
       0.15216415 0.35284624 0.04938262 0.12365033

lstm2.weight_hh_l0 f4 [128, 32]
000000 cc 2f 54 bd ec ca 85 bd 63 d4 07 bd d9 ae a3 bd
       -0.051803395 -0.06532845 -0.033161532 -0.07992334
000010 9e e7 dd bd ec fb 82 be a4 9b 79 3d 0c cd f6 bd
       -0.10835193 -0.25582826 0.060939446 -0.12050828
000020 71 ee b5 be 1e bb 0a 3e 45 47 74 be 15 b2 d4 3e
       -0.3553348 0.13547942 -0.23855312 0.41542116
000030 85 c3 87 be 8e 54 47 be b5 3a 08 be b8 60 63 be
       -0.26516357 -0.19465849 -0.13303645 -0.22204864
000040 22 a5 a2 3e fe 65 a6 3e d9 57 a5 3e 96 53 e1 bd
       0.3176661 0.3249969 0.32293585 -0.11002271
000050 5c 51 15 bc 38 01 36 3d 30 6a 81 3e 88 e5 ac 3d
       -0.009113636 0.044434756 0.25276327 0.08442217
000060 d2 d0 e7 bd 8e fb a0 3e f0 d0 5f be b6 c7 7f bb
       -0.11319126 0.3144192 -0.21857047 -0.003902895
000070 46 00 7e bc b9 9b ca be 58 dd a3 be 57 75 b6 be
       -0.015502995 -0.39571932 -0.3200481 -0.35636398
000080 c4 07 83 3e 5a 68 fa 3c d2 30 ae bc ad cb 54 be
       0.25591862 0.030567337 -0.021263514 -0.20780821
000090 3f 57 ea bd 3f 29 fb bd f7 ae 8f be 16 f7 05 3d
       -0.11442422 -0.122637264 -0.28063175 0.032706343
0000a0 cd b1 8c 3d a2 97 c4 3d af 76 93 bd ea d2 60 bd
       0.0686985 0.09599234 -0.072003715 -0.054888643
0000b0 01 e2 a2 3c 41 9a 2c 3e b5 c0 f6 3d 2b 7b 2f 3e
       0.019883158 0.16855718 0.12048475 0.17136829
0000c0 c8 74 f6 bd 53 72 44 be 6f 05 50 be 22 28 9e 3d
       -0.12033993 -0.19184236 -0.20314573 0.077224985
0000d0 ea 61 44 be c9 47 fe bd 63 29 79 bd c8 c4 ae bd
       -0.19177976 -0.12416036 -0.060830485 -0.08533627
0000e0 2f 86 ba bc 8f ca b8 bc 63 ee 2c bc 8a 1c 5a 3e
       -0.022769062 -0.022557525 -0.010554883 0.2129995
0000f0 0e 1b 86 be 6d b3 c1 3d bf cd 67 3e a7 d0 e3 bc
       -0.26192516 0.09458051 0.2263708 -0.027809454
000100 68 7e 55 ba 95 7e aa bd 47 af 1d 3e 47 42 14 3d
       -0.0008144141 -0.08324925 0.15398894 0.03619602
000110 5f fc b5 bd cb ef a1 3e b0 84 00 be bd d4 22 3e
       -0.088860266 0.3162826 -0.12550616 0.15901466
000120 b2 bd 35 bd a3 a4 19 bd c2 ad 18 3e b3 39 a6 3d
       -0.04437036 -0.037510525 0.14910033 0.08116474
000130 db cc a8 3d 51 70 95 3d 0e da 22 3e b8 54 fc bb
       0.08242198 0.07296813 0.15903494 -0.007700529
000140 2e 36 b4 bd 42 21 b4 bd 7d ec 18 be 5c 6d 65 bc
       -0.087993965 -0.08795406 -0.14933963 -0.014003124
000150 a0 c5 22 3d 58 1c 4b 3c 71 a1 4e bd 5a ba e8 bd
       0.03973925 0.012396894 -0.05044693 -0.11363669
000160 45 13 46 3e fd ca c5 bd 59 d6 8f 3e 33 20 92 3e
       0.19343288 -0.096578576 0.28093222 0.2854019
000170 94 01 63 be 04 36 c6 3d cb ea 4c 3e 92 21 37 be
       -0.22168571 0.096782714 0.20011441 -0.178839
000180 f1 f7 cb 3d e6 c8 d1 bd 20 6f b9 3d 9e 09 aa bd
       0.099594004 -0.102433965 0.090543985 -0.083026156
000190 f6 80 ac 3d 97 d2 53 3e fd 76 83 3e 1a 09 1e 3d
       0.08423035 0.20685802 0.25676718 0.0385829
0001a0 55 5a 23 be 45 ae 64 3e 9a 3a 75 be b8 a0 0e 3e
       -0.15952428 0.22332104 -0.23948136 0.13928497
0001b0 7c 5d 6e bd 7a 88 7b bd d9 79 56 be 89 18 96 bd
       -0.058194622 -0.06140945 -0.20944919 -0.073288985
0001c0 24 22 22 3e 0b 36 10 3e 68 32 5c bb 23 06 82 bd
       0.15833336 0.14083116 -0.003359938 -0.06348827
0001d0 d3 36 77 3d a4 36 43 3d 4c 94 28 3d 23 a1 20 bc
       0.06035502 0.04765953 0.041157052 -0.009804043
0001e0 e0 7b 3d be bf bb bd 3d a7 8c 30 bc d8 a5 83 3b
       -0.18504286 0.09264325 -0.010775722 0.004017573
0001f0 ea b0 ac bc aa 83 a2 bd 12 90 fe bb 03 09 35 be
       -0.021080453 -0.07935269 -0.0077686394 -0.17679219
000200 c6 f6 08 bd e5 ee 1d be 07 f7 62 3d 31 cf ec 3d
       -0.033438466 -0.15423162 0.055411365 0.11562956
000210 f7 64 e7 3d 12 02 5e be d2 d7 90 3e f2 3d 1f 3d
       0.112985544 -0.21680477 0.28289658 0.038877435
000220 3f 34 f3 3c dc e5 44 bc 70 30 a9 bd fc e8 7a bd
       0.029687999 -0.012017693 -0.08261192 -0.061257347
000230 b6 f3 58 be ab c1 26 3d 8f 72 f2 bb 40 b4 51 bd
       -0.21186718 0.04071204 -0.0073989104 -0.05119729
000240 f4 a3 08 3d 55 f7 25 3e ee 57 ea bd 45 66 3c bd
       0.033359483 0.16207631 -0.114425525 -0.04599597
000250 38 b6 cb 3d cd e8 00 bd 9b 5e 5b 3e 73 24 59 3d
       0.09946865 -0.031472016 0.21422808 0.053013276
000260 7e 44 50 be 7a 11 09 3e 92 a2 61 be 21 f2 99 bd
       -0.20338628 0.13385573 -0.22034672 -0.075168855
000270 d7 68 66 3e 7a 8b 23 be bc cb 44 bd c9 f0 98 3d
       0.2250093 -0.15971175 -0.04804586 0.07467801
000280 87 19 97 3d 0a 66 79 be 97 e5 8a bc 4e 8c 38 3d
       0.07377916 -0.24355331 -0.01695518 0.04505568
000290 1e 72 a5 bd b2 3a 57 3e d0 00 ca bd 27 0c 05 3e
       -0.08078407 0.21018484 -0.09863436 0.12992917
0002a0 51 4c e8 3c 25 66 95 bd fa f0 09 be 72 8a d2 bc
       0.028356703 -0.07294873 -0.13470832 -0.025700781
0002b0 6b b4 da 3c 60 64 11 3d 2e 32 cd bd e9 44 fa bb
       0.026697358 0.035496116 -0.10019337 -0.0076376093
0002c0 5d 5d 64 bd 3a 12 82 bd 0c 56 ce 3d 15 82 b0 bd
       -0.0557531 -0.06351133 0.10075006 -0.08618561
0002d0 49 29 0f 3e 10 06 a2 bd 0f 47 5f 3d d1 25 41 bd
       0.13980593 -0.079113126 0.054511126 -0.047155205
0002e0 cb eb 1c 3e 5b 84 e2 3d 0e 70 82 bb d0 22 3b 3e
       0.15324323 0.11060401 -0.003980643 0.18274999
0002f0 f6 5b 89 3d 88 a4 42 3d d7 0d 14 3e 89 75 80 bc
       0.06706993 0.04752019 0.14458404 -0.015681045
000300 c2 99 50 3e 89 c0 f6 bd 7d 49 ab 3d 59 e8 2e be
       0.20371154 -0.12048442 0.08363626 -0.17080821
000310 59 15 8e be f5 40 74 3e 2d c3 a5 3c 8a 81 0c 3e
       -0.27750662 0.23852904 0.020234669 0.1372129
000320 bf 03 56 3c 79 b1 5c 3d 49 0b 89 3e a4 fc 31 bd
       0.013062417 0.05388019 0.26766422 -0.043453828
000330 e6 3f 4f bd 9c 13 eb 3c 54 93 15 3d fc 2a 7b 3e
       -0.050598048 0.028695874 0.036517456 0.24528116
000340 c4 b8 8c be b2 bb 01 bd 5e 8f 0f bb 47 f1 cc 3c
       -0.27484715 -0.03167314 -0.0021905522 0.025017394
000350 c4 ed c4 3d 5f 8b 02 3e d5 02 91 bd 02 46 56 be
       0.09615663 0.12748478 -0.07080618 -0.20925143
000360 41 2f 3b 3e 67 bf b9 bd 0f 1e 22 3e 58 89 46 3d
       0.18279745 -0.0906971 0.15831779 0.048470825
000370 2f c9 df 3d 6d e9 2a 3e 0b 07 03 bc 82 f5 b0 3d
       0.109270446 0.16690607 -0.007997285 0.08640577
000380 28 b7 cb bd e4 e5 e5 3d c1 3d 6c be 80 a4 fa bd
       -0.09947044 0.11225489 -0.23070432 -0.12238407
000390 8f 12 2c 3d f6 aa c4 3c 08 1d e4 3c 8a f4 ff 3d
       0.042009886 0.024007302 0.027845874 0.12497814
0003a0 4d fa 90 bd a6 d6 fd 3d 82 ba 4c be 9e 82 9d 3d
       -0.07078991 0.123944566 -0.19993022 0.07690929
0003b0 31 20 a3 3d f4 d7 15 3e de 9e 29 be 5c 55 0c 3d
       0.079651244 0.14633161 -0.1656451 0.034261093
0003c0 b8 1c 01 be a4 39 00 bd b7 65 84 bd 72 a2 ef 3c
       -0.12608612 -0.03130497 -0.06464713 0.029252265
0003d0 d3 bf 95 bc 71 47 98 3c 11 65 c4 bc 7f 4a b3 bb
       -0.018279945 0.018588753 -0.023973973 -0.005471527
0003e0 22 65 ba bd f7 dc 2e 3e 24 98 c0 bd a6 d5 5d be
       -0.09101321 0.17076479 -0.094040185 -0.21663532
0003f0 5c 6f 5e 3e 22 fc 23 be d6 f7 63 3d de 3a d5 bd
       0.21722168 -0.1601415 0.055656277 -0.10411619

lstm2.bias_ih_l0 f4 [128]
000000 da 0f b0 be 11 bd b3 bd c0 e4 13 3d d6 73 0e be
       -0.34387094 -0.08776296 0.036106825 -0.13911375
000010 41 9c 88 bd 36 0b 92 be 1a 29 50 be f2 69 b8 3d
       -0.06670428 -0.28524178 -0.20328179 0.090045825
000020 e9 e7 78 be 3f 0d 8b be 81 b0 32 bd 19 37 5f be
       -0.24307217 -0.27158543 -0.04362536 -0.21798362
000030 1d 57 4a bd 44 b3 74 3e 82 28 b5 bc cd d3 bf bd
       -0.049399484 0.2389651 -0.022114042 -0.0936657
000040 4b 2d 9e bd 0b d2 5b 3e 80 fb b0 3d 42 4b 7a be
       -0.07723483 0.21466844 0.0864172 -0.24442771
000050 4f 94 71 bc 0c a6 31 ba dd c3 4a 3e 2d fd 8f bd
       -0.014744832 -0.0006776757 0.19801278 -0.07030711
000060 c5 40 a2 be fa 95 66 be 51 42 10 3d ea 9f d3 3d
       -0.3169004 -0.22518149 0.035219494 0.103332356
000070 7d 4a 07 3e ca e2 ba be 4e 9b 0a be 83 75 5c be
       0.13212009 -0.3650115 -0.13535807 -0.21529202
000080 84 67 89 be 86 80 43 bd 89 a0 40 be 01 df 98 3c
       -0.2683679 -0.04772999 -0.1881124 0.018661024
000090 3e 7d d6 bb 69 32 6d be 6a 84 5e be 93 c5 ad 3b
       -0.0065456918 -0.23163761 -0.217302 0.0053030937
0000a0 d3 66 80 be 20 f5 f5 bd 3a ad 04 be 13 6c 26 be
       -0.2507845 -0.120096445 -0.12956706 -0.16252165
0000b0 b7 4e 0b be 6e a7 66 3e 0a 38 52 be 86 58 48 3d
       -0.13604246 0.22524807 -0.2052919 0.048912548
0000c0 8d 53 22 be 7b e9 e6 38 db 13 84 bd 46 68 39 bd
       -0.15852185 0.00011010744 -0.064491 -0.04526546
0000d0 89 5a 1b bb 55 70 ac bd 41 5b 02 be 54 16 87 be
       -0.0023705086 -0.08419863 -0.12730123 -0.26384223
0000e0 c4 cc ad be 61 27 b1 be 7d a6 e3 bd 53 fb 29 be
       -0.33945286 -0.34600356 -0.111157395 -0.16599779
0000f0 61 d7 e5 3d 84 28 49 be d3 b6 04 be 3a c2 4a be
       0.11222721 -0.19644362 -0.12960367 -0.19800654
000100 1d b5 cc 3d 9d fd a7 3d 31 97 03 3e 16 9a df bd
       0.09995482 0.0820267 0.12850644 -0.109180614
000110 b1 e6 2f 3d 63 29 16 bd 23 59 cb bd 7e c8 32 3b
       0.042944614 -0.036660563 -0.09929111 0.0027280147
000120 dc fb d2 bc 89 79 1d be 1a 56 0b bd 2e 4b 9c bd
       -0.025754862 -0.15378393 -0.03401766 -0.07631527
000130 d5 fb db bd af 02 28 3e c7 70 97 3d 5a 20 40 3c
       -0.107413925 0.16407274 0.073945574 0.011726463
000140 ec c4 26 3d aa ec 1a be 6d 75 c0 bd 49 dc 25 3e
       0.040715143 -0.15129343 -0.09397397 0.16197313
000150 d6 0c a9 3c 88 3f 1f 3e 1d 53 41 be a4 7e 4d bd
       0.020636003 0.15551579 -0.18879361 -0.050169602
000160 20 94 07 3e 07 81 7f 3d c7 f8 43 bd 67 a8 34 bd
       0.13240099 0.06237891 -0.047844674 -0.044105913
000170 e1 87 c1 bd dc 6b 11 bd 07 84 d0 bd 19 58 6e 3d
       -0.09449745 -0.035503253 -0.10181432 0.058189485
000180 78 3e 86 bd 4c ab fa bd 93 04 37 be d3 31 84 bd
       -0.06554884 -0.122397035 -0.17872839 -0.06454816
000190 7f b0 14 be dd 9f a7 be 6f ea 7c bd 68 f9 0d be
       -0.14520453 -0.32739154 -0.06174701 -0.13864672
0001a0 34 8e 64 be 80 52 95 3d 0f 38 df 3c 26 8b 18 3d
       -0.22319871 0.07291126 0.02724841 0.037242077
0001b0 bd c3 a6 3d bb 33 b6 bd 76 8e c8 3d c5 ca 07 bd
       0.08142803 -0.088965856 0.09792797 -0.03315236
0001c0 e2 94 a5 3c fc 95 01 be ed a1 1c be 3c b0 be be
       0.020212594 -0.12654871 -0.15296145 -0.3724383
0001d0 fb e2 48 3d 53 01 90 3d 17 7f f1 3d 87 2e e0 bd
       0.04904459 0.070315026 0.117918186 -0.109463744
0001e0 7d 88 46 be f2 fc a1 bd c8 bf 09 be 0c ea 4a bd
       -0.19388004 -0.079095736 -0.13452065 -0.04953961
0001f0 9e a6 e9 3d f4 14 9b bd 8a 96 b6 3d a0 85 a3 bd
       0.11408733 -0.07572356 0.08915432 -0.07984471

lstm2.bias_hh_l0 f4 [128]
000000 7b b2 19 be 9a 41 f6 bb 9c ea 78 bd 48 a9 e2 bd
       -0.15009491 -0.0075151445 -0.060770616 -0.11067444
000010 1a d0 09 be f8 4b 89 be 90 2a ac bd 1a 5e 9a 3d
       -0.1345829 -0.26815772 -0.08406556 0.0753748
000020 89 0c 38 bd 09 10 b8 bd 4a c8 9f bd ba b3 95 be
       -0.04493383 -0.089874335 -0.07801874 -0.29238683
000030 7a 71 00 3e 96 74 07 3c 3f 69 69 be 11 4d 6e 3d
       0.12543288 0.008267542 -0.22794054 0.058178965
000040 62 1b b7 bd c6 08 57 3b a9 de 12 3e 9d 7d 9b be
       -0.0894077 0.0032811626 0.1434275 -0.30369273
000050 7c be 9c bd 8c df 13 be c4 62 64 bd 37 ed 75 bd
       -0.076535195 -0.14440745 -0.055758253 -0.06004068
000060 54 87 b0 be 46 61 28 be 48 7e bd bd 76 e6 c8 3d
       -0.34478247 -0.16443357 -0.09252602 0.09809582
000070 0d 66 b0 3d 80 48 90 be 78 b3 3c be ec 72 60 3d
       0.08613215 -0.28180313 -0.18427837 0.054797098
000080 f3 a5 56 be 95 58 a3 be 3a b4 24 be 94 72 cb 3c
       -0.20961742 -0.3190352 -0.16084376 0.024834909
000090 96 d8 a9 3c 54 d3 40 be 90 b9 19 be 92 fe 78 bd
       0.020733159 -0.18830615 -0.15012193 -0.060789652
0000a0 7e 61 33 be d3 4d d9 bd 48 12 14 be 73 c8 8f be
       -0.17517659 -0.10610547 -0.14460099 -0.28082618
0000b0 2d 57 0b 3e d5 38 0d 3e 8e 57 6d be cc aa 0b 3e
       0.13607474 0.13791211 -0.2317793 0.13639373
0000c0 09 4d 3d be d6 8d c2 bd f9 c8 31 bd 28 2e b8 bd
       -0.18486418 -0.09499709 -0.043404553 -0.089931786
0000d0 f4 a3 9a be 83 d3 11 bd c3 d1 26 bd 0a e2 68 be
       -0.3020321 -0.035602104 -0.040727388 -0.22742477
0000e0 bb 38 48 be 8b e8 99 be da 6f cf bd 22 ae 05 be
       -0.19552891 -0.3006023 -0.10128756 -0.13054708
0000f0 3c e9 26 be 72 72 75 bc 96 92 85 3d fe ae 1f be
       -0.1629991 -0.014980899 0.065221 -0.15594098
000100 dc 76 35 3d 23 86 b5 3d 09 e2 0d 3e cb 1e a1 3c
       0.044302806 0.08863475 0.13855757 0.019668004
000110 ae ac cf 3d 48 01 dc bd 7b 75 b5 bc 7c 93 f5 3d
       0.10140358 -0.10742432 -0.022150746 0.11991021
000120 15 b7 6a be b8 46 08 3d 16 8d 40 3e ca bf ed bd
       -0.22921403 0.033270568 0.1880382 -0.116088465
000130 47 9d 9b 3d a0 b5 f1 bd 03 ef b9 3d af 39 eb bb
       0.07598358 -0.1180222 0.09078791 -0.0071785073
000140 79 8b 05 3e c1 cb d1 3c 19 6b b8 bd 54 1e a5 3d
       0.13041486 0.025609853 -0.09004802 0.08062425
000150 7d 63 c7 bd 6c fd e0 bd 0f 9f e3 3d 87 1d f1 3d
       -0.09735773 -0.109858364 0.111143224 0.1177321
000160 bf c4 91 bd 86 cc dd bd 07 a8 c6 3c ef c2 86 3d
       -0.071176045 -0.108300254 0.024250044 0.065801494
000170 c3 ba 90 3d 75 1e 48 3e 0d 67 1c 3e ce bf 94 3d
       0.07066872 0.19542868 0.15273686 0.07263146
000180 0e fd 69 be 5d 8b 0d be 21 b8 f9 bc 6b b4 49 bc
       -0.22850439 -0.13822694 -0.030483307 -0.012311081
000190 6a a6 6a be 07 b1 1e be a6 ef fa 3d 10 17 23 be
       -0.22915044 -0.15497218 0.122527406 -0.15926766
0001a0 90 81 86 be 07 f3 da 3c 3b 93 3c be 98 02 48 3d
       -0.26270723 0.026727213 -0.18415539 0.0488306
0001b0 25 d1 fa 3d df 88 0a be 19 16 2d bd 9f f9 14 be
       0.122469224 -0.13528775 -0.042257402 -0.14548348
0001c0 8c 7f f7 bd c6 f7 44 bd 9d 0a 81 bd 1a ce a0 be
       -0.120848745 -0.048087858 -0.063008524 -0.31407243
0001d0 99 33 aa 3d b6 08 f3 3c 6d 48 02 be 4f 84 a7 bd
       0.08310623 0.02966724 -0.1272294 -0.08179533
0001e0 91 20 82 bd 47 5f 09 3d 62 14 2a 3e 96 fa 12 3e
       -0.06353868 0.03353813 0.16609338 0.14353403
0001f0 59 46 e3 bc 49 be e9 bc ba 5a 44 be f5 a3 89 be
       -0.027743505 -0.028533118 -0.19175234 -0.26882902

fc.weight f4 [1, 32]
000000 4d 32 99 3d 20 38 86 3e 24 aa 31 3e 37 13 68 be
       0.07480297 0.26214695 0.1735006 -0.2266358
000010 ed b7 e7 3c 26 59 85 bc 62 d4 ae be bb b3 84 3e
       0.028285945 -0.01627786 -0.3414641 0.25918373
000020 77 00 05 3e 75 fa aa bd f5 3e 06 bd 89 97 56 be
       0.12988459 -0.08348552 -0.032774884 -0.20956244
000030 61 df a3 3e eb 0f bd 3e f4 a3 1e 3e 97 9d 8c 3e
       0.32006362 0.36926207 0.1549223 0.27463982
000040 62 be a6 be f9 6b 88 be ec 15 a1 be e5 fb a2 3d
       -0.32567126 -0.26644877 -0.31462038 0.07958201
000050 57 8c ba 3d cf 3b 1d be 45 1c c1 be f2 37 68 be
       0.09108799 -0.15354846 -0.3771688 -0.22677591
000060 47 df 31 3e 90 6b c6 bd 58 4a b1 3e f9 2a 9a 3e
       0.1737033 -0.09688485 0.34627032 0.3011091
000070 68 5f a1 be 28 0c 3d 3e f7 a5 4d 3e 01 bb ce 3d
       -0.31518102 0.18461668 0.20082842 0.10094262
