models/lstm5.pth (torch, 135717 bytes, 9 tensors)

lstm1.weight_ih_l0 f4 [256, 14]
0	0x3dd23526	0.102640435
1	0xbd0a313a	-0.033738352
2	0xbb4613cf	-0.003022421
3	0xbd0ff6e9	-0.03514758
4	0xbdca950c	-0.0989171
5	0xbccb1a57	-0.024792833
6	0x3d15686a	0.03647653
7	0x3dfbb384	0.12290099
8	0x3d23fcab	0.040035885
9	0x3c1ba42c	0.009499591
10	0x3d970e62	0.0737579
11	0x3dfd254e	0.12360631
12	0xbb92bc79	-0.004478034
13	0xbd41205c	-0.04715
14	0x3dafe65e	0.08588861
15	0x3d6c9860	0.057762504
16	0xbde4f7e6	-0.111800954
17	0x3d5485dc	0.05188547
18	0xbd867652	-0.065655366
19	0x3dd74b12	0.105123654
20	0x3d9a4a4e	0.07533704
21	0x3cf6f291	0.030144962
22	0xbe130d05	-0.14360435
23	0xbb91a373	-0.0044445335
24	0xbdcd1198	-0.10013121
25	0xbd414526	-0.047185086
26	0xbe0a256f	-0.13490842
27	0xbdcf3038	-0.10116619
28	0x3e14ca23	0.14530234
29	0xbc4f795b	-0.012663211
30	0x3d1bf1da	0.038072444
31	0xbd97aa51	-0.07405532
32	0x3c867cc4	0.016416915
33	0x3b29ddec	0.002591963
34	0x3d20a49d	0.039219487
35	0xbdd0986e	-0.10185324
36	0xbc3b22fa	-0.011421913
37	0x3dc1c957	0.09462231
38	0x3c865223	0.016396588
39	0xbccd8cfa	-0.025091637
40	0x3d7cc25b	0.06170879
41	0xbda16357	-0.07880276
42	0x3d8fc4da	0.07019968
43	0xbd1e0654	-0.038580254
44	0x3e0a7e11	0.13524653
45	0xbe0ba6dd	-0.13637872
46	0x3d43e996	0.047830187
47	0x3dbcd6bb	0.09220644
48	0x3d863e13	0.065548085
49	0x3dccf657	0.10007923
50	0x3d4f35df	0.050588485
51	0x3dd929ff	0.10603713
52	0xbcfc5a53	-0.030804789
53	0xbd59762c	-0.053091213
54	0x3da55349	0.08072526
55	0x3c43cdb9	0.011950904
56	0x3cd75c81	0.026289226
57	0xbddd5f32	-0.10809173
58	0xbd84b458	-0.0647971
59	0xbd3b17a8	-0.045676857
60	0x3d76d5c3	0.060262453
61	0x3da561c7	0.0807529
62	0x3d1c5f19	0.03817663
63	0xbdfed822	-0.12443568
64	0xbd974720	-0.07386613
65	0xbdf065f6	-0.117381975
66	0xbd42795e	-0.047479026
67	0x3d70cf16	0.058791243
68	0xbddb91aa	-0.107211426
69	0x3c2e4f84	0.010639075
70	0xbdd2a635	-0.10285608
71	0xbdd81b01	-0.105520256
72	0xbc088a3f	-0.008333742
73	0xbe2704c7	-0.16310416
74	0xbcebe1cb	-0.02879419
75	0x3d3f99f9	0.0467777
76	0xbe0b051b	-0.13576166
77	0xbd97a1e1	-0.07403923
78	0x3d9c1e4c	0.07622966
79	0x3c2f2cb3	0.0106918095
80	0x3d3cbfec	0.04608147
81	0x3d029406	0.031879447
82	0x3e00254c	0.12514228
83	0x3da1a839	0.07893414
84	0x3cdd3718	0.02700381
85	0x3de69589	0.1125899
86	0x3dd22b5f	0.10262179
87	0xbdd3dc04	-0.10344699
88	0x3dfc8eed	0.123319484
89	0xbddbfddd	-0.1074178
90	0x3e19ee99	0.15032424
91	0xbdd6870a	-0.104749754
92	0xbd6e17e5	-0.058128256
93	0x3ddd862e	0.10816608
94	0xbca48a91	-0.020085605
95	0x3e0d3a60	0.137918
96	0x3be23ddd	0.0069043473
97	0x3d3c478d	0.045966674
98	0xbdaa1f4d	-0.083067514
99	0xbd2a3a01	-0.041559223
100	0xbcfbeb6e	-0.03075191
101	0x3c05ba4e	0.008162094
102	0x3cea0568	0.028567031
103	0xbdb7765f	-0.08958124
104	0x3d993144	0.074801
105	0x3d920c8a	0.07131298
106	0x3e14a6d4	0.14516765
107	0x3dcbcef8	0.099515855
108	0x3e16afd9	0.14715518
109	0xbd259df9	-0.040433858
110	0xbd14bb02	-0.036311157
111	0x3de6c0e6	0.11267261
112	0xbd393872	-0.045219846
113	0xbd7f2378	-0.062289685
114	0x3e0fa7fe	0.14028928
115	0xbe103a8f	-0.14084838
116	0x3cd33113	0.025780236
117	0xbdcf8485	-0.10132698
118	0x3dae93a1	0.08524252
119	0xbd9a1648	-0.07523781
120	0x3d750bad	0.059825588
121	0xbc9a989b	-0.018871596
122	0xbd782d90	-0.060590327
123	0x3ce1f76e	0.027583804
124	0x3e1a3245	0.15058239
125	0x3d5f096b	0.05445234
126	0x3cd00e14	0.025397338
127	0xbd80a90b	-0.062822424
128	0xbd09ffc0	-0.033691168
129	0xbda9a66a	-0.08283694
130	0xbdc3cf88	-0.09561068
131	0xbd215616	-0.03938874
132	0x3df925c7	0.121654086
133	0x3db1a6c6	0.08674388
134	0x3de402fb	0.11133381
135	0x3e02416f	0.12720273
136	0x3db4ab10	0.0882169
137	0x3e06497d	0.13113971
138	0xbcfe0756	-0.031009357
139	0xbcaf9d61	-0.021437349
140	0x3da667f9	0.081253
141	0xbc872440	-0.016496778
142	0xbda6c15e	-0.081423506
143	0x3cecfe44	0.028929837
144	0x3e0a1845	0.1348582
145	0xbdcb38de	-0.09922956
146	0x3db13e02	0.08654405
147	0x3dc028df	0.093827955
148	0x3d9454b2	0.07242717
149	0x3dd0dd76	0.1019849
150	0x3db00d38	0.08596271
151	0x3dfb41d8	0.12268418
152	0x3cb27e88	0.02178885
153	0x3c528c4c	0.012850832
154	0x3e13327d	0.14374729
155	0xbdccbefb	-0.09997364
156	0x3c824cda	0.015905786
157	0xbe16a21c	-0.14710277
158	0x3e2ee76a	0.17080465
159	0x3d521e61	0.051298503
160	0xbe078f84	-0.1323834
161	0x3df0c902	0.11757089
162	0x3d9f28f1	0.07771481
163	0x3dc714e0	0.097207785
164	0xbdcbd741	-0.09953166
165	0xbd94e8cd	-0.07270966
166	0xbc2d34e8	-0.010571696
167	0x3cc32f8d	0.023826385
168	0x3c952dd3	0.018210327
169	0x3dcaec6e	0.09908377
170	0xbd73bc61	-0.059505824
171	0x3d221ef3	0.039580297
172	0xbdbbd7d3	-0.091720246
173	0xbd7dd3dd	-0.061969627
174	0x3cb436a0	0.021998703
175	0x3d677e69	0.05651704
176	0x3e1a8715	0.15090592
177	0x3d34d7e9	0.04415122
178	0x3d6c35f3	0.057668637
179	0x3d912d8e	0.07088767
180	0x3d8f41da	0.06994982
181	0x3d612ee8	0.054976374
182	0x3d85a7ef	0.065261714
183	0x3d88436a	0.06653483
184	0x3afc19ab	0.0019233724
185	0xbdd74fd8	-0.10513276
186	0xbd3ecc29	-0.04658142
187	0x3d8e2f8b	0.06942662
188	0xbd163f68	-0.036681563
189	0x3b296d22	0.0025852402
190	0xbd90519d	-0.070468165
191	0xbdedb592	-0.116068974
192	0x3d248ca3	0.040173184
193	0x3da4e685	0.080517806
194	0x3dae50db	0.08511516
195	0xbd64a25f	-0.05581891
196	0xbdb6f1af	-0.08932816
197	0xbd7a8a8b	-0.06116728
198	0x3da2da24	0.07951763
199	0xbe05459e	-0.13014838
200	0x3d5b7ae4	0.053583995
201	0xbd8cca95	-0.06874577
202	0x3dc8789b	0.09788629
203	0xbba3f0d1	-0.005003073
204	0xbd901081	-0.07034398
205	0x3de1ce7e	0.110257134
206	0xbb842376	-0.0040325476
207	0xbdbf2ded	-0.093349315
208	0xbd2bb6aa	-0.04192225
209	0x3dddbf1a	0.10827465
210	0xbdb7522f	-0.08951222
211	0xbd4da085	-0.05020191
212	0x3d16d8a4	0.0368277
213	0xbd114061	-0.035461787
214	0x3daa25c5	0.08307985
215	0x3d07ab96	0.03312262
216	0x3d35faec	0.04442875
217	0xbddeecbb	-0.108849965
218	0xbc11e80f	-0.008905425
219	0xbe0a2e54	-0.13494235
220	0xbb229cb8	-0.002481265
221	0xbd8378b5	-0.064195074
222	0xbd8a8996	-0.06764524
223	0xbdc64786	-0.09681611
224	0x39d5ce6d	0.00040780325
225	0x3d94b006	0.07260136
226	0xbd345b86	-0.044032596
227	0xbe1cd829	-0.15316834
228	0x3dd6f445	0.104958095
229	0xbd638f73	-0.055556726
230	0xbde8ea2c	-0.1137279
231	0xbd599c1b	-0.05312739
232	0xbd383b31	-0.044978324
233	0xbd151d33	-0.0364048
234	0xbc1a4e03	-0.0094180135
235	0xbd27651d	-0.040867914
236	0x3da24732	0.07923736
237	0x3c926019	0.017868089
238	0x3dc5a021	0.09649683
239	0x3dc0d482	0.09415533
240	0x3e07ec3f	0.13273714
241	0xbd354b97	-0.04426154
242	0x3de4a112	0.11163534
243	0xbdc7d432	-0.0975727
244	0xbdb0238a	-0.086005285
245	0xbe110a38	-0.14164054
246	0xbd954932	-0.072893515
247	0xbd4c4e16	-0.049879156
248	0x3ce5fdd8	0.028075144
249	0x3de15434	0.110023886
250	0x3db7d3d3	0.08975949
251	0xbdeac529	-0.114633866
252	0x3c65ca65	0.014025305
253	0x3d490c15	0.049083788
254	0xbbae5a74	-0.0053208414
255	0xbd975963	-0.07390096

lstm1.weight_hh_l0 f4 [256, 64]
0	0x3ce1d0b5	0.02756534
1	0xbd7a417a	-0.0610976
2	0x3d82a66e	0.063794
3	0xbb0768dd	-0.0020661869
4	0xbd881e59	-0.06646413
5	0xbca3e193	-0.020005023
6	0xbcf88f16	-0.030341666
7	0xbc97c2a9	-0.018525438
8	0xbdd520ae	-0.10406624
9	0x3cee2cae	0.02907404
10	0x3e31eee8	0.17376292
11	0x3b906e6a	0.0044076936
12	0xbd5f54a1	-0.054524068
13	0xbd77043b	-0.06030677
14	0xbdce3fd3	-0.10070767
15	0xbd2c8982	-0.042123325
16	0x3cfd5a56	0.030926865
17	0x3c2358e8	0.009969927
18	0xbe31a7a8	-0.17349112
19	0xbd542ea5	-0.051802296
20	0x3d0c1f37	0.034209456
21	0xbd83552c	-0.064127296
22	0x3b9bbec4	0.0047529656
23	0xbe28f0f2	-0.16498163
24	0x3cd5c50d	0.026094938
25	0xbd038bc6	-0.03211572
26	0xbd77152d	-0.06032293
27	0x3ba441b0	0.0050127134
28	0x3cb84a8c	0.022496484
29	0x3e18e821	0.149323
30	0x3b710515	0.003677671
31	0x3a42f7e6	0.00074374524
32	0x3dfe2c16	0.124107525
33	0x3dcf2c5f	0.10115885
34	0xbc3daaf4	-0.011576403
35	0xbdfcd059	-0.12344427
36	0x3dc0fa79	0.09422774
37	0x3dc2e9ee	0.09517275
38	0x3df087ae	0.11744629
39	0xbd41904a	-0.047256745
40	0xbdb8b2c3	-0.09018471
41	0xbc985de3	-0.018599456
42	0x3e227147	0.15863524
43	0xbd341762	-0.043967612
44	0x3e2f3a87	0.1711217
45	0x3ce41db4	0.027846195
46	0x3d6f6b3d	0.05845188
47	0x3e12527f	0.14289282
48	0xbba20c31	-0.004945301
49	0x3c7119b1	0.014715598
50	0x3d24bf82	0.0402217
51	0x3d82d1aa	0.063876465
52	0xbdbb272a	-0.09138329
53	0x3e046be0	0.12931776
54	0xbca8d5f9	-0.020609843
55	0xbe11a160	-0.14221716
56	0xbc271815	-0.010198613
57	0xbe1abd47	-0.15111266
58	0x3d8c8bc6	0.06862597
59	0x3d83d161	0.0643642
60	0xbc899178	-0.016792998
61	0xbc953701	-0.018214704
62	0xbded74e4	-0.11594561
63	0xbca17994	-0.019711293
64	0x3d0b3efd	0.033995617
65	0x3d5253c6	0.051349424
66	0xbca227d8	-0.01979439
67	0xbd4776e5	-0.04869737
68	0x3da4235e	0.08014558
69	0x3ce50fba	0.0279616
70	0xbd347203	-0.044054043
71	0xbdc6eedf	-0.0971353
72	0x3d1b794d	0.03795748
73	0x3e047f5d	0.1293921
74	0x3d278317	0.0408965
75	0x3e019e90	0.12658143
76	0xbdf7b34d	-0.12094746
77	0xbdb19dea	-0.08672698
78	0x3c50f5ea	0.012753943
79	0x3de898c0	0.1135726
80	0xbdc508ff	-0.096208565
81	0xbb5482fa	-0.00324267
82	0xbcb0b4a2	-0.021570507
83	0xbd2720e0	-0.040802836
84	0xbd9ebf71	-0.07751358
85	0xbd581d1e	-0.052762143
86	0x3ce80b7a	0.028325785
87	0x3df71a71	0.1206559
88	0x3d29ce98	0.04145679
89	0xbd863946	-0.06553893
90	0xbd634c4e	-0.05549269
91	0xbc624756	-0.013810953
92	0x3dbef496	0.09323995
93	0xb933de0e	-0.00017153492
94	0x3ccef5ef	0.025263755
95	0x3d71abd3	0.059001755
96	0x3d4e4aa3	0.050364148
97	0xbd5ef8a1	-0.05443633
98	0x3ca15ec0	0.0196985
99	0x3daf77ff	0.08567809
100	0xbddd7729	-0.108137436
101	0x39b2e82c	0.00034123787
102	0xbe1d3120	-0.15350771
103	0xbdb696f7	-0.08915513
104	0x3dfb70f5	0.12277404
105	0x3cb1798b	0.021664402
106	0x3d4fda86	0.05074551
107	0x3db98763	0.09059026
108	0x3d58338a	0.052783526
109	0x3db72277	0.089421205
110	0x3e035da2	0.12828687
111	0xbd3170e0	-0.043320537
112	0xbdd0e18d	-0.101992704
113	0x3e17efbc	0.14837545
114	0x3c87e5b1	0.016589018
115	0xbe0b5bde	-0.13609263
116	0x39dfb152	0.00042665988
117	0x3cc096aa	0.023509342
118	0xbd774b70	-0.060374677
119	0xbd86294c	-0.065508455
120	0x3b8922e3	0.004185067
121	0x3c3d90a4	0.01157013
122	0x3e256eb6	0.16155514
123	0xbd8da3a3	-0.06915977
124	0x3d67bdb5	0.056577403
125	0x3daf18ef	0.085496776
126	0xbdccd282	-0.10001089
127	0xbe219103	-0.15777974
128	0xbdcc93b4	-0.0998911
129	0x3b30abf1	0.0026957954
130	0xbd9cce66	-0.07656555
131	0xbcbaf9c6	-0.02282418
132	0xbc70467a	-0.01466524
133	0xbd80c6c3	-0.06287911
134	0x3d69d281	0.057085518
135	0x3c01c1e5	0.007919763
136	0xbd1cc2bd	-0.038271654
137	0xbddd79cd	-0.10814247
138	0x3cfcbc75	0.030851582
139	0x3da4e70a	0.0805188
140	0x3c7f03f2	0.0155649055
141	0xbd99569c	-0.074872226
142	0xbdda019d	-0.10644839
143	0xbc50f543	-0.012753787
144	0x3da248cd	0.07924042
145	0x3d218cf2	0.039441057
146	0xbe06c395	-0.13160546
147	0x3d20d68b	0.039267104
148	0xbcffbe35	-0.031218627
149	0x3e077bea	0.13230863
150	0xbd5b391b	-0.053521257
151	0xbc8ee648	-0.017443791
152	0x3cde937c	0.027169935
153	0x3dccadc4	0.09994081
154	0xbdea43f7	-0.114387445
155	0x3ddf8444	0.109138995
156	0xbdb458e5	-0.08806018
157	0xbaaca222	-0.0013170878
158	0x3d93e016	0.072204754
159	0xbdb121c3	-0.08649018
160	0x3dd2a1c1	0.10284758
161	0x3d4dd58a	0.050252475
162	0x3d11b32c	0.035571262
163	0xbd98a81a	-0.07453938
164	0xbcaf870c	-0.0214267
165	0x3cf70f5b	0.03015869
166	0xbd47638c	-0.04867892
167	0x3dbe2591	0.09284509
168	0xbdb23334	-0.087011725
169	0x3dcae4e1	0.099069364
170	0xbcfe083f	-0.031009791
171	0x3e00ca2d	0.12577124
172	0xbd397e34	-0.045286372
173	0x3d46cf64	0.048537627
174	0xbd8e2b6d	-0.069418766
175	0x3dd3be33	0.10339012
176	0xbd1dbf49	-0.038512502
177	0xbde56e27	-0.112026505
178	0x3d1ffe41	0.039060835
179	0x3df25f39	0.118345685
180	0x3d60cf68	0.054885298
181	0x3e2d6b2b	0.16935413
182	0x3c6ecdb5	0.014575412
183	0x3c7736e7	0.015088773
184	0xbde67b95	-0.1125404
185	0xbdd3916b	-0.10330471
186	0x3d6cc3fb	0.05780409
187	0xbdeac595	-0.11463467
188	0xbd6bbb72	-0.05755181
189	0xbcc9f9d1	-0.024655255
190	0xbd01153a	-0.031514384
191	0x3d9dfd61	0.07714344
192	0xbd5a60e7	-0.05331507
193	0x3dceb269	0.10092623
194	0xbc8689a7	-0.01642306
195	0xbd02ddf1	-0.03194994
196	0x3cd2494a	0.025669713
197	0xbc6fa247	-0.014626092
198	0xbd257ffc	-0.04040526
199	0xbddc7f35	-0.1076645
200	0xbdf98ab0	-0.12184656
201	0xbe00529c	-0.12531513
202	0xbd371b97	-0.044704046
203	0x3d987b65	0.07445411
204	0x3d6c28da	0.057656147
205	0xbcd3bec5	-0.025847802
206	0xbce20078	-0.027588114
207	0x3e39c196	0.18140253
208	0x3d4c7173	0.04991288
209	0xba7b83cd	-0.000959453
210	0x3cec25a4	0.028826542
211	0x3e4daa1f	0.20084427
212	0xbd48d22f	-0.04902857
213	0xbcb86807	-0.022510542
214	0x3b289f34	0.0025729658
215	0x3c39005a	0.011291588
216	0xbe0f6368	-0.14002764
217	0x3d77d3a5	0.060504574
218	0x3cc6910b	0.024239084
219	0xbdc75770	-0.09733474
220	0x3d606fa8	0.054793984
221	0xbe1f699d	-0.15567632
222	0xbb4fff81	-0.0031737986
223	0xbd362873	-0.04447217
224	0x3dd28e88	0.10281092
225	0x3e68b1c2	0.22724059
226	0xbb5e459b	-0.0033916
227	0x3db2a9ed	0.08723817
228	0x3c6d28d8	0.01447507
229	0x3c730bca	0.014834354
230	0x3d2417c0	0.040061712
231	0xbcdf3bf1	-0.027250262
232	0x3ddd6167	0.10809594
233	0x3dac56d4	0.08414999
234	0x3c79ced6	0.015247067
235	0xbcfcd52d	-0.030863369
236	0xbd8cf46e	-0.06882559
237	0xbdfd0c0a	-0.12355812
238	0x3cd2c1e3	0.025727218
239	0xbd89e427	-0.0673297
240	0x3db92b9f	0.09041523
241	0x3cdf3471	0.027246686
242	0xbdbf3400	-0.0933609
243	0x3dda839a	0.10669632
244	0xbd2e3277	-0.042528596
245	0xbd27e4c0	-0.040989637
246	0x3c9498fb	0.018139353
247	0x3d840ca7	0.06447726
248	0x3e047342	0.12934592
249	0xbc9f4adc	-0.019444875
250	0x3d8f265e	0.0698974
251	0xbd01d029	-0.031692658
252	0xbccf272c	-0.025287233
253	0x3e0ac5d2	0.13552025
254	0x3e402249	0.18763079
255	0x3cf3abc3	0.029744988

lstm1.bias_ih_l0 f4 [256]
0	0xbc6727fe	-0.014108656
1	0x3ddfc466	0.10926132
2	0x3d530d4a	0.051526345
3	0xbdf94fd4	-0.12173429
4	0x3d80fc63	0.06298139
5	0x3d862945	0.0655084
6	0xbddc51cb	-0.10757788
7	0xbc8bfc6b	-0.017088136
8	0x3dae263d	0.08503387
9	0xbbd9ad1b	-0.0066429502
10	0xbcc684e1	-0.024233283
11	0x3dced74f	0.100996606
12	0xbdb457c6	-0.08805804
13	0x3dac706a	0.08419879
14	0x3d387213	0.045030665
15	0x3dad57f1	0.08464039
16	0xbd5a8a15	-0.05335434
17	0xbdcd11ab	-0.100131355
18	0x3da94fa6	0.08267145
19	0x3b01058f	0.001968715
20	0x3d6b9996	0.057519518
21	0xbcf911fb	-0.030404082
22	0x3de43b5e	0.11144136
23	0xbe271acd	-0.16318817
24	0x3c32e28f	0.010918274
25	0xbd9e0a76	-0.07716839
26	0xbd587492	-0.052845545
27	0x3caef03c	0.021354787
28	0x3d780b14	0.06055744
29	0x3d2f40c5	0.04278638
30	0x3e0480b4	0.12939721
31	0x3d03166d	0.03200381
32	0xbdd8da3f	-0.10588502
33	0xbdc06419	-0.09394092
34	0x3d0237af	0.031791385
35	0x3d73c40b	0.059513133
36	0x3e000719	0.12502708
37	0xbdb18a4a	-0.08668955
38	0x3e09d46a	0.13459936
39	0x3cb224bb	0.02174603
40	0xbcc9c9fe	-0.02463245
41	0x3ce4dd48	0.027937546
42	0x3da8fa54	0.08250871
43	0xbc935fce	-0.01799002
44	0x3d51e476	0.051243268
45	0xbdb62921	-0.088945635
46	0x3b221e7f	0.0024737415
47	0xbdea967f	-0.11454486
48	0xbc80b622	-0.015711848
49	0x3d91bd22	0.07116152
50	0x3de2fe4e	0.11083661
51	0x3d60fea0	0.05493033
52	0x3d5d4df8	0.054029435
53	0x3e0b9f01	0.13634874
54	0xbc981471	-0.018564435
55	0xbc007c7d	-0.00784218
56	0x3e018c0e	0.12651083
57	0x3da13d6a	0.07873042
58	0x3d956868	0.072953045
59	0xbd701bb5	-0.058620173
60	0x3b47e184	0.0030499408
61	0xbd5a62f2	-0.053317018
62	0xbdfaa873	-0.122391604
63	0xbd21f919	-0.0395442
64	0xbdf48be9	-0.11940748
65	0xbd94e918	-0.072710216
66	0xbda41142	-0.08011104
67	0x3d638b73	0.05555291
68	0x3d406607	0.0469723
69	0x3a701ff2	0.00091600337
70	0xbc7411af	-0.014896794
71	0xbda2ea02	-0.0795479
72	0x3d1a20af	0.037628826
73	0x3dbc0f83	0.09182646
74	0x3a80d5d9	0.0009829357
75	0x3e151075	0.14557059
76	0xbdae093a	-0.084978536
77	0x3da3cd6d	0.07998166
78	0x3e0d05cb	0.13771741
79	0x3d2a883f	0.04163384
80	0xbd8a6946	-0.067583606
81	0xbd8202e0	-0.063482046
82	0xbc29d170	-0.010364875
83	0x3de21b30	0.11040342
84	0xbc612469	-0.013741591
85	0x3c8ba673	0.017047143
86	0x3ca9b7e4	0.020717569
87	0xbe0ae226	-0.13562831
88	0x3dce6652	0.1007811
89	0x3d29777d	0.04137372
90	0xbe14d190	-0.14533067
91	0xbdd6e885	-0.10493568
92	0x3dd71ac3	0.10503151
93	0x3de26b5b	0.11055633
94	0xbd34426b	-0.044008654
95	0xbb43b8b1	-0.0029864723
96	0xbd4c4b08	-0.049876243
97	0x3e0e279e	0.138823
98	0xbd952e99	-0.072842784
99	0xbc76be11	-0.015059964
100	0x3e077f54	0.13232166
101	0x3d3dc0f8	0.046326607
102	0xba579b13	-0.0008224707
103	0xbe021f38	-0.12707222
104	0xbda72dec	-0.08163056
105	0x3d65bc2d	0.05608766
106	0xbd050b85	-0.03248169
107	0x3d9ade07	0.075618796
108	0x3d9149a6	0.070941254
109	0xbd99b5dd	-0.07505391
110	0xbd2fe1d9	-0.042939994
111	0x3bc20e6e	0.0059221303
112	0x3db090cb	0.08621367
113	0x3ddce1af	0.10785233
114	0xbd7005ce	-0.058599286
115	0x3d20f8e7	0.03929987
116	0xbdca960e	-0.09891902
117	0xbd85cde8	-0.06533414
118	0xbd677adc	-0.056513652
119	0xbe00809c	-0.1254906
120	0xbd0a0677	-0.03369757
121	0xbd6f0a6a	-0.05835954
122	0xbd6ce02d	-0.05783098
123	0xbd6d6c33	-0.057964515
124	0x3d8df5ba	0.06931634
125	0xbd0a1493	-0.033711027
126	0x3daa7527	0.08323126
127	0x3de47ef2	0.111570254
128	0xbd308fa1	-0.043105725
129	0xbd8f0351	-0.069830544
130	0xbdf94f6c	-0.12173352
131	0xbd2e257f	-0.042516228
132	0x3b3b4cbf	0.002857968
133	0xbd32ef00	-0.04368496
134	0x3b4ed8b0	0.0031562261
135	0xbd9e7a69	-0.07738192
136	0x3dbe33fc	0.09287259
137	0x3d746ebf	0.05967593
138	0x3d687cec	0.05675976
139	0xbd324e4f	-0.043531712
140	0xbdbd728f	-0.09250366
141	0xbcf3d816	-0.029766124
142	0x3df219fd	0.11821363
143	0x3c373c4b	0.011183809
144	0xbdc5cf78	-0.09658712
145	0xbc852e48	-0.01625742
146	0xbdded20e	-0.108799085
147	0xbb8d1abf	-0.004306167
148	0x3dbbd268	0.09170991
149	0x3dd9c201	0.106327064
150	0xbd8636ec	-0.06553444
151	0x3d2e15e2	0.042501338
152	0x3dd848ea	0.10560782
153	0xbdbeeb83	-0.09322264
154	0x3d9125cf	0.070872895
155	0x3d4ba9d5	0.04972251
156	0x3c9d6f1c	0.01921802
157	0x3d112a73	0.035440873
158	0x3c8b2e12	0.016989741
159	0x3e051899	0.12997665
160	0x3dad9f57	0.08477657
161	0x3ca7bb39	0.020475017
162	0x3d63a099	0.05557308
163	0x3d48e680	0.049047947
164	0x3d099804	0.03359224
165	0x3b131db5	0.0022448127
166	0xbc8fee68	-0.017569736
167	0xbdbebadd	-0.09312985
168	0x3cc4ab54	0.024007477
169	0x3ca2a5e7	0.019854499
170	0xbcbdb154	-0.023155846
171	0x3dde44b8	0.10852951
172	0xbd4768c6	-0.048683904
173	0x3d024293	0.03180177
174	0x3d705913	0.058678698
175	0xbd1d2d00	-0.038372993
176	0x3dcd0df7	0.10012429
177	0x3d64178a	0.05568651
178	0x3d79c425	0.060978074
179	0xbd568af4	-0.05237861
180	0x3cf85951	0.030316027
181	0xbce747b1	-0.028232427
182	0xbdd5d0a9	-0.104401894
183	0x3daf8c39	0.08571667
184	0x3dc13886	0.09434609
185	0xbd25300a	-0.040329017
186	0xbda5f22f	-0.081028335
187	0xbcf18669	-0.029483037
188	0xbd177654	-0.03697808
189	0xbda92960	-0.08259845
190	0x3d416360	0.047213912
191	0xbdd004d0	-0.10157168
192	0x3dc2f328	0.095190346
193	0x3d784e83	0.06062175
194	0xbc361881	-0.011114241
195	0xbdbba3d3	-0.09162106
196	0x3dc255d5	0.094890274
197	0xbc9278b7	-0.017879827
198	0x3c84df96	0.016219895
199	0x3c6afad5	0.01434203
200	0x3c99b449	0.018762724
201	0x3d3d88d7	0.04627308
202	0x3c169d1b	0.00919273
203	0xbd938d32	-0.07204665
204	0xbd10eca2	-0.03538192
205	0xbd1b601b	-0.03793345
206	0x3dfe6c9c	0.12423059
207	0xbd260079	-0.040527795
208	0xbd65d9ee	-0.056116037
209	0x3e044254	0.12915927
210	0x3df4d1f0	0.11954105
211	0x3d8f8bf1	0.070091136
212	0xbcb0e204	-0.021592148
213	0xbd596910	-0.05307871
214	0xbdd4f90b	-0.10399064
215	0xbb61240f	-0.0034353768
216	0xbd84cdd4	-0.06484571
217	0x3bf2e289	0.007412259
218	0xba9a65bc	-0.0011779587
219	0x3d5c1561	0.053731326
220	0x3c40e48e	0.011773242
221	0xbd8c5ab6	-0.06853239
222	0x3e03c322	0.12867406
223	0x3d9ceab6	0.07661955
224	0x3d463cfc	0.048398003
225	0x3e0f8541	0.14015676
226	0x3e0d5eef	0.13805746
227	0xbd3436ba	-0.043997504
228	0x3d8491c1	0.06473113
229	0xbe1674b2	-0.14692953
230	0x3dfa029e	0.122075304
231	0xbd5ff8c5	-0.054680604
232	0x3e131087	0.14361773
233	0xbaf7e676	-0.0018913287
234	0x3c54dd46	0.012992209
235	0x3db5c52e	0.088755
236	0xbc128014	-0.008941669
237	0xbc8bc0b9	-0.01705967
238	0x3d5bcd86	0.0536628
239	0xbdc645ca	-0.0968128
240	0xbd3fb91f	-0.046807405
241	0x3d932802	0.07185365
242	0xbd7ec81d	-0.06220256
243	0x3da989b0	0.08278215
244	0x3d1459b6	0.036218368
245	0x3e153ee4	0.14574772
246	0x3cf06ddb	0.029349258
247	0x3dd8f00c	0.1059266
248	0x3e031f62	0.1280494
249	0x3c3f998f	0.011694326
250	0x3dab3b78	0.08360952
251	0x3cea93e1	0.028634967
252	0xbcff953a	-0.031199086
253	0xbbdcdee8	-0.0067404397
254	0x3dece15f	0.115664236
255	0x3e016b71	0.12638642

lstm1.bias_hh_l0 f4 [256]
0	0xbd938d99	-0.07204742
1	0xbc14771b	-0.0090616
2	0x3d7ef23b	0.062242728
3	0x3c660a71	0.014040575
4	0xbe04b3c9	-0.12959208
5	0x3de974f3	0.113992594
6	0x3cc3b641	0.023890616
7	0x3dd31567	0.103068165
8	0xbc78b5a5	-0.015180026
9	0xbd7b5691	-0.061361853
10	0x3d4f6856	0.050636612
11	0xbd9c31ab	-0.07626661
12	0x3ccf9978	0.025341734
13	0xbdda69b2	-0.10664691
14	0xbcb0a24f	-0.02156177
15	0xbd92b417	-0.07163256
16	0x3db3917f	0.087679856
17	0x3d12806c	0.035767004
18	0xbd16e9cd	-0.036844064
19	0x3d8b0623	0.0678828
20	0xbd25514a	-0.040360726
21	0x3cc765e2	0.024340574
22	0x3dcb440f	0.099250905
23	0x3d86adb4	0.065761
24	0x3e070377	0.13184915
25	0x3df8c667	0.12147217
26	0x3d67e109	0.056611095
27	0xbd8a914b	-0.06765994
28	0xbded6272	-0.115910426
29	0x3d71b6d3	0.059012245
30	0x3dccd09d	0.10000727
31	0x3dc5117d	0.09622476
32	0x3d67fb16	0.05663594
33	0x3dc4bd53	0.09606423
34	0x3e114a7f	0.14188574
35	0xbdba6591	-0.091014035
36	0xbcc2fb4f	-0.023801474
37	0xbdf8e48a	-0.12152965
38	0x3c7d082c	0.015443843
39	0x3dc4a74c	0.09602222
40	0x3a80bfc2	0.0009822773
41	0x3dc3eb22	0.095663324
42	0xbd878eab	-0.06619009
43	0x3d10e4c6	0.035374425
44	0xbd970361	-0.07373691
45	0x3d91c61d	0.07117865
46	0xbb7e1fb4	-0.003877622
47	0x3dd98c4f	0.10622465
48	0x3c9a0939	0.018803226
49	0xbdb980eb	-0.09057792
50	0xbd8c3682	-0.06846334
51	0xbcfb9d77	-0.030714734
52	0x3dda4139	0.106569715
53	0xbc7c32e8	-0.015392996
54	0x3b8bab48	0.0042623617
55	0x3ccfa0a8	0.025345162
56	0xbd4624bf	-0.048374888
57	0x3e0239d7	0.12717377
58	0x3e00a7cd	0.12564011
59	0xbda67d55	-0.08129374
60	0xbcc9b1db	-0.02462094
61	0xbd3b286a	-0.04569284
62	0xbdb6cdef	-0.089259975
63	0xbca2ade6	-0.019858312
64	0xbe145635	-0.1448601
65	0x3dabca91	0.08388246
66	0xbd1e0bbf	-0.03858542
67	0x3ca346b3	0.019931173
68	0xbd1c8d87	-0.03822091
69	0x3d2ff779	0.042960618
70	0x3c8e9673	0.017405724
71	0xbd6d51d3	-0.05793936
72	0xbe108e7a	-0.1411685
73	0xbd60542a	-0.054767765
74	0xbdb115a5	-0.086467065
75	0xbc866d22	-0.01640946
76	0xbe129f02	-0.14318469
77	0xbcc98cbb	-0.024603238
78	0x3dee7f62	0.1164539
79	0x3d1fcb6f	0.03901237
80	0xbd0ab825	-0.03386702
81	0xbd8b8bb9	-0.06813759
82	0xbdd5d56a	-0.10441096
83	0xbc26d078	-0.010181539
84	0xbdd8ed8e	-0.10592185
85	0xbd3658d4	-0.044518307
86	0x3dc38200	0.0954628
87	0xbdf54804	-0.119766265
88	0x3dd654c6	0.10465388
89	0xbcfd76ff	-0.03094053
90	0xbdb5cd24	-0.08877018
91	0xbd2921da	-0.04129205
92	0x3d1afa79	0.037836526
93	0x3e10a6c6	0.14126119
94	0xbda15358	-0.07877225
95	0x39912acf	0.0002768845
96	0xbd722a98	-0.05912265
97	0xbcc26e23	-0.023734158
98	0xbd2f1d3f	-0.0427525
99	0xbce1bef7	-0.02755688
100	0x3d8d5b2f	0.069021575
101	0x3d819dcb	0.06328925
102	0xbd856875	-0.06514064
103	0xbe0cc405	-0.1374665
104	0xbde90bda	-0.11379214
105	0xbbb9de7e	-0.005672275
106	0xbcb83633	-0.022486782
107	0x3db4c3f1	0.08826435
108	0xbdd9c966	-0.10634117
109	0x3d5a99ab	0.053369205
110	0x3cde1319	0.027108716
111	0xbc4171d2	-0.011806922
112	0xbe06778f	-0.13131545
113	0xbd8a12e2	-0.06741883
114	0xbd4c5eb6	-0.04989501
115	0xb910d087	-0.00013810593
116	0x3d891532	0.06693496
117	0x3e07bd6c	0.13255852
118	0xbca73034	-0.020408727
119	0x3ddd83cb	0.10816153
120	0x3dba2e11	0.09090818
121	0xbdca2ca8	-0.09871799
122	0xbc27a1bc	-0.010231432
123	0x3d6793c4	0.056537405
124	0xbdc8b0ca	-0.09799345
125	0xbdcf04c6	-0.10108332
126	0x3da49487	0.08036142
127	0x3d301764	0.042991057
128	0x3d81069f	0.06300091
129	0xbd816c7b	-0.06319519
130	0xbe054091	-0.13012911
131	0x3de4e8d9	0.11177225
132	0x3ae2c964	0.0017302451
133	0x3db95730	0.09049833
134	0x3da9fbab	0.08299955
135	0x3db5f22f	0.088840835
136	0xbd22be76	-0.03973242
137	0xbd7af9e0	-0.061273456
138	0xbd021948	-0.03176239
139	0xbd89ba2e	-0.06724964
140	0x3d71c880	0.059029102
141	0x3d281fda	0.041046
142	0xbd842e5a	-0.06454153
143	0x3d8e7ea6	0.0695775
144	0xbdb89360	-0.090124846
145	0x3a82227c	0.000992849
146	0x3dbc7896	0.092026874
147	0x3cb26d1e	0.021780547
148	0x3c9a726d	0.01885339
149	0x3deb7703	0.11497309
150	0xbc8add51	-0.016951235
151	0xbd87f0aa	-0.066377
152	0x3dcacde8	0.09902555
153	0x3b989537	0.0046564597
154	0x3c640b14	0.013918657
155	0xbbdc348c	-0.0067201313
156	0x3de5ddc0	0.11223936
157	0x3d82a55e	0.063791975
158	0xbd877abc	-0.066152066
159	0x3e0f4b26	0.1399351
160	0x3d2425fd	0.04007529
161	0xbd174239	-0.03692839
162	0x3d8f23e9	0.06989271
163	0xbc8b7296	-0.017022412
164	0xbe0d6d95	-0.13811333
165	0x3a72c1c3	0.000926044
166	0xbda5bbd0	-0.08092463
167	0xbdabdf65	-0.083922185
168	0xbcc36bf8	-0.023855194
169	0x3e0eab8f	0.13932632
170	0xbdb4c34f	-0.08826315
171	0x3ca8a77e	0.020587679
172	0x3c44f188	0.012020476
173	0x3e0a4a3c	0.1350488
174	0x3e0e4a74	0.13895589
175	0x3d7d0e6e	0.06178134
176	0xbcfd148a	-0.030893583
177	0x3b70c987	0.0036741213
178	0xbce29251	-0.02765766
179	0xbd501d2f	-0.05080908
180	0xbd3d1843	-0.046165716
181	0xbe124678	-0.14284694
182	0xbd695940	-0.05696988
183	0x3d361ba1	0.044459943
184	0xbd328d9c	-0.04359208
185	0xbd8ed713	-0.06974616
186	0x3e0f426c	0.13990182
187	0x3c0124e9	0.007882335
188	0x3c99c4da	0.018770624
189	0x3c382c15	0.011240979
190	0x3d374321	0.044741753
191	0x3c9b6732	0.018970106
192	0x3b815770	0.003947191
193	0x3dcc0056	0.099610016
194	0xbc7f6e3d	-0.015590248
195	0xbd32489d	-0.04352628
196	0x3c161fff	0.009162902
197	0x3dd971bb	0.106173955
198	0x3c5dc219	0.013535046
199	0x3c45923f	0.012058794
200	0xbbbe43a3	-0.005806403
201	0x3e14515e	0.14484164
202	0x3e221d15	0.15831406
203	0x3b9a1b14	0.004702935
204	0xbc32e10f	-0.010917916
205	0x3d768354	0.060183838
206	0x3ca048b3	0.019565916
207	0x3dfb50de	0.122712836
208	0x3c8c5436	0.017129999
209	0x3d86cccc	0.06582031
210	0x3d2f5ee4	0.042815104
211	0xbc7fad20	-0.015605241
212	0x3d6c17ef	0.057640012
213	0x3df24bc7	0.1183086
214	0xbda6cc53	-0.081444405
215	0xbc91a245	-0.017777571
216	0x3da456eb	0.08024391
217	0x3c95da2a	0.018292505
218	0x3d5ba0e9	0.053620253
219	0xbd393d76	-0.04522463
220	0x3e03ff28	0.12890303
221	0xbd932474	-0.07184687
222	0x3d9e96be	0.077435955
223	0x3d156b48	0.036479264
224	0x3b070fb4	0.0020608725
225	0x3dfde957	0.12398022
226	0x3dfef1b0	0.12448442
227	0x3d59c1be	0.053163283
228	0x3ded3697	0.11582678
229	0xbcecb5f1	-0.02889535
230	0xbcbbbad7	-0.02291624
231	0x3c6feefd	0.014644382
232	0x3df267f7	0.11836236
233	0xbc13c972	-0.009020196
234	0x3de4e7e7	0.11177044
235	0xbda7fee6	-0.08202915
236	0x3bd23ff9	0.0064163175
237	0x3da87b01	0.08226586
238	0x3e09dece	0.134639
239	0xbd2b7aa2	-0.041865
240	0xbd42e387	-0.04758027
241	0xbdec169c	-0.1152775
242	0x3cb297a7	0.02180083
243	0xbd764f01	-0.060133938
244	0x3da256e3	0.079267286
245	0x3c31037d	0.010804054
246	0xbd64e938	-0.055886477
247	0x3e0a45bd	0.13503166
248	0x3de875bf	0.11350583
249	0x3dfa0dca	0.12209661
250	0x3dbd364a	0.092388704
251	0x3d8dfcae	0.069329605
252	0xbd67a6d2	-0.056555577
253	0xbd44ff86	-0.04809525
254	0x3cea941f	0.028635083
255	0x3e18d6f7	0.14925753

lstm2.weight_ih_l0 f4 [128, 64]
0	0xbe3afc72	-0.18260363
1	0x3b8bdb7c	0.004268108
2	0xbd20f823	-0.03929914
3	0x3e1f34b8	0.15547454
4	0xbcb58e0f	-0.022162465
5	0x3e189dad	0.14903899
6	0xbe2e19f3	-0.17002086
7	0xbd85ab49	-0.06526811
8	0xbde53862	-0.11192395
9	0x3e104fab	0.14092891
10	0x3dda8ba0	0.106711626
11	0xbe0e52e8	-0.13898814
12	0x3e0e3634	0.13887864
13	0xbe177e01	-0.1479416
14	0x3e022bce	0.12712023
15	0x3dbb845e	0.091561064
16	0xbd84f63f	-0.0649228
17	0xbd24d7d4	-0.040244892
18	0x3db9d38c	0.090735525
19	0x3cbc09cf	0.022953896
20	0x3d77ddc1	0.060514215
21	0x3dd049f0	0.101703525
22	0x3cfb2ee6	0.030662011
23	0xbc8980cd	-0.01678505
24	0xbdf8f9e1	-0.121570356
25	0xbdaf1ffc	-0.085510224
26	0x3d28da84	0.041224018
27	0x3c97c6e6	0.01852746
28	0x3c312a93	0.010813373
29	0x3e028eea	0.1274983
30	0x3d6ca875	0.05777784
31	0xbe01402a	-0.12622133
32	0x3e385f14	0.1800502
33	0x3c84eb4b	0.016225478
34	0xbe0d3a2a	-0.13791719
35	0xbe18f952	-0.14938858
36	0x3dfa36b8	0.12217468
37	0x3de146ee	0.10999857
38	0x3c959ee7	0.018264247
39	0x3d44af9d	0.04801904
40	0xba371736	-0.00069843547
41	0x3da4d46e	0.0804833
42	0x3ce37d41	0.027769687
43	0xbe180272	-0.14844683
44	0x3df3b37a	0.11899467
45	0xbdc14356	-0.094366714
46	0xbe0158a6	-0.12631473
47	0xbe0071b7	-0.12543379
48	0x3d879f5c	0.06622192
49	0xbe619399	-0.2202896
50	0xbe31df2f	-0.17370294
51	0xbe0464e0	-0.12929106
52	0x3df04917	0.11732691
53	0x3e221744	0.15829188
54	0x3dec63b5	0.11542455
55	0xbd4cd536	-0.05000802
56	0x3e33e0d3	0.17566232
57	0xbd3a1ce7	-0.04543772
58	0xbe2e3c50	-0.17015195
59	0x3d930270	0.07178199
60	0xbe0c0985	-0.13675506
61	0x3d42e78d	0.047584105
62	0x3d89a97e	0.06721781
63	0x3d2d691e	0.042336576
64	0x3da9ad53	0.08285012
65	0x3a042bb3	0.0005041912
66	0x3de4e080	0.111756325
67	0x3e43e6f5	0.19131072
68	0xbe037044	-0.12835795
69	0x3e1b6a79	0.15177335
70	0xbe1ecdf4	-0.15508252
71	0x3d63129f	0.05543768
72	0xbe42c071	-0.19018723
73	0xbe615191	-0.22003771
74	0x3d99002d	0.07470737
75	0x3cdbce44	0.026831754
76	0x3e02a6c3	0.12758927
77	0xbda27509	-0.07932479
78	0xbdae3e6e	-0.08508001
79	0x3df2e0b5	0.11859266
80	0x3e328b01	0.17435838
81	0x3ddcd819	0.10783405
82	0xbc320f59	-0.010867917
83	0x3e17ce01	0.14824678
84	0x3b6552f2	0.0034992066
85	0x3ddb1b5c	0.10698578
86	0x3d31e6a5	0.04343285
87	0xbd5be020	-0.05368054
88	0x3d264632	0.040594287
89	0x3d427a77	0.047480073
90	0xbde3c08d	-0.111207105
91	0xbd75a3f0	-0.059970796
92	0xbdfc2414	-0.12311569
93	0xbcb9b36c	-0.022668563
94	0xbe4bd2ee	-0.19904682
95	0x3ddb5fe8	0.10711652
96	0xbe1001bc	-0.14063162
97	0x3e44b9da	0.19211522
98	0xbd44797e	-0.047967426
99	0xbcf1f2cf	-0.029534725
100	0xbdc3b567	-0.09556084
101	0x3d6a5b85	0.057216186
102	0x3c425933	0.011862087
103	0xbdd802b2	-0.10547389
104	0xbca9e768	-0.020740226
105	0xbc59079e	-0.013246445
106	0xbbf268be	-0.00739774
107	0xbd85b4be	-0.065286145
108	0x3cbe47a4	0.02322752
109	0xbe0ed3f6	-0.13948044
110	0x3e27a782	0.16372493
111	0x3dc58129	0.09643776
112	0xbe2faf61	-0.17156745
113	0xbde6c102	-0.11267282
114	0xbd4924de	-0.049107425
115	0x3dfa188a	0.12211712
116	0x3e20ef60	0.15716314
117	0xbe10efc1	-0.14153959
118	0x3c434880	0.011919141
119	0xbda3c08e	-0.07995711
120	0xbe18190b	-0.14853303
121	0xbcbe1250	-0.023202091
122	0xbe1a8f8d	-0.15093823
123	0xbda42237	-0.080143385
124	0x3df5d8c4	0.120042354
125	0xbd987c87	-0.07445627
126	0xbddfb81e	-0.109237894
127	0xbcdf8bd7	-0.02728836
128	0xbd95f347	-0.07321792
129	0x3d8c2093	0.068421505
130	0x3e0915e6	0.1338726
131	0x3e144bd5	0.14482053
132	0x3db7ef57	0.08981197
133	0x3b17c209	0.0023156425
134	0x3e4a643f	0.19764803
135	0x3e0459f2	0.12924936
136	0xbd9ac03a	-0.075561956
137	0xbe41a15a	-0.18909207
138	0x3dc38711	0.09547246
139	0x3d63539b	0.055499654
140	0xbde344a8	-0.110970795
141	0xbe0656d6	-0.13119063
142	0x3d02d9d0	0.031946003
143	0xbe190e02	-0.1494675
144	0x3c7554c9	0.014973828
145	0xbe16fbea	-0.14744535
146	0x3d8a1bf7	0.06743615
147	0x3d9c833b	0.07642218
148	0x3da22752	0.07917656
149	0x3d913478	0.07090086
150	0xbd815c09	-0.063163824
151	0xbdecb062	-0.1155708
152	0x3e000f4b	0.12505834
153	0x3de00c16	0.10939805
154	0x3ce7d844	0.028301366
155	0x3e1f25a1	0.15541698
156	0xbd29085b	-0.041267734
157	0xbe090245	-0.13379772
158	0xbde1d772	-0.11027421
159	0x3d0b609a	0.034027673
160	0xbd883159	-0.06650037
161	0x3d5227a9	0.051307354
162	0xbe05db59	-0.13071956
163	0x3ca5afdc	0.020225458
164	0xbdcb01bd	-0.09912441
165	0x3dd72d4e	0.10506688
166	0xbd3117e0	-0.04323566
167	0x3c387ca2	0.0112601835
168	0xbdb03f34	-0.08605805
169	0x3cce84b9	0.025209771
170	0x3d7e8080	0.062134266
171	0x3af79950	0.0018890295
172	0x3e550c43	0.20805459
173	0x3bcb322c	0.0062010493
174	0x3e0b1016	0.13580355
175	0x3d664b92	0.056224413
176	0x3d19b60e	0.037527137
177	0xbe27243d	-0.16322418
178	0xbc8505bb	-0.016238084
179	0xbdfd390f	-0.12364399
180	0xbd8942d6	-0.06702201
181	0xbdd96b97	-0.10616224
182	0xbd9e1a00	-0.07719803
183	0x3d5655a1	0.052327756
184	0xbe475781	-0.19466974
185	0x39d17ca7	0.0003995646
186	0x3c98198a	0.018566865
187	0xbd820ba2	-0.06349875
188	0xbe50aea9	-0.20379128
189	0x3c12c23e	0.008957444
190	0x3d18be30	0.037290752
191	0x3ce43aa7	0.027859999
192	0xbc8e7071	-0.0173876
193	0x3de7f6aa	0.11326344
194	0x3d38506d	0.044998575
195	0xbd9bd32f	-0.076086394
196	0xbd52017c	-0.051270947
197	0x3dcc69e7	0.09981137
198	0x3e27d65f	0.1639037
199	0xbd2a3c00	-0.041561127
200	0xbe4e15de	-0.20125529
201	0xbdebe097	-0.115174465
202	0x3b05c564	0.0020411843
203	0x3d16ddd1	0.036832634
204	0x3babb775	0.0052403756
205	0x3cf99795	0.030467788
206	0xbe27f8f5	-0.16403563
207	0x3d772782	0.060340412
208	0x3df5f15a	0.12008925
209	0xbcfe4bf8	-0.031042084
210	0xbd169ec2	-0.036772497
211	0x3e5fd9de	0.21860453
212	0xbdd93b3f	-0.106070034
213	0xb9055cca	-0.00012718435
214	0xbe01ef9e	-0.12689063
215	0xbbb5cd6b	-0.0055481694
216	0xbdb91273	-0.09036722
217	0x3d8764a0	0.066109896
218	0xbe2c0a3a	-0.16800776
219	0xbc6d66d8	-0.014489852
220	0x3d873a6a	0.066029385
221	0xbd18e3f0	-0.037326753
222	0xbe6a71eb	-0.22895019
223	0xbe26cee3	-0.16289859
224	0xbd16ed5a	-0.03684745
225	0x3c63ef2c	0.0139120035
226	0xbde39c51	-0.11113799
227	0xbdb5eaf1	-0.08882702
228	0xbceab233	-0.028649425
229	0x3db5f994	0.08885494
230	0x3e0cf0a8	0.13763678
231	0xbd4a8ffb	-0.049453717
232	0x3dda4ee2	0.10659577
233	0xbdaa10e1	-0.08304001
234	0xbdbcb5e4	-0.092143804
235	0x3da3b99f	0.07994389
236	0xbda0b073	-0.07846155
237	0xbcd39a2b	-0.025830349
238	0xbd64c601	-0.055852894
239	0xbe3cdb6d	-0.1844308
240	0xbe252c8a	-0.16130272
241	0x3c89db6d	0.016828263
242	0x3d0fe82f	0.035133537
243	0xbc8706e8	-0.016482785
244	0xbcc7bec0	-0.024382949
245	0xbda5ea6c	-0.08101353
246	0x3d130d76	0.03590151
247	0xbd648116	-0.05578717
248	0xbc836170	-0.016037673
249	0x3d58da7d	0.05294274
250	0x3d93479e	0.07191394
251	0xbce59d5b	-0.028029134
252	0x3db12cb8	0.086511075
253	0x3e153451	0.14570738
254	0x3de91a1e	0.113819346
255	0xbd9592ae	-0.073033676

lstm2.weight_hh_l0 f4 [128, 32]
0	0x3c04f468	0.008114912
1	0xbbe9f346	-0.007139596
2	0x3e11863d	0.14211364
3	0xbdf61f35	-0.12017671
4	0x3e0d41d5	0.13794644
5	0x3d0f9c56	0.035061203
6	0xbdf87e53	-0.121334694
7	0x3d8af990	0.067858815
8	0xbe006e0e	-0.12541983
9	0xbd12a59a	-0.03580246
10	0xbd9d3232	-0.076755896
11	0xbdbfcbbd	-0.09365032
12	0x3e3c5c18	0.18394506
13	0x3e05208e	0.130007
14	0xbddf6804	-0.10908511
15	0x3de5887a	0.112076715
16	0x3d4837b8	0.048881263
17	0x3c70f13f	0.014705955
18	0x3e05f25d	0.13080736
19	0x3d85a9ea	0.06526549
20	0xbca2fb2f	-0.019895164
21	0xbe050554	-0.12990314
22	0x3e142a09	0.1446916
23	0xbe3c355a	-0.18379727
24	0xbe40266b	-0.18764655
25	0xbda1e2d7	-0.079045944
26	0xbdc204c4	-0.09473565
27	0x3bd910ea	0.0066243308
28	0xbe11cc59	-0.14238109
29	0xbded942b	-0.116005264
30	0xbe1c8aac	-0.15287274
31	0x3c66eea8	0.014094986
32	0xbde60753	-0.11231866
33	0xbe36126e	-0.17780468
34	0xbe430cd7	-0.19047867
35	0xbc3c4952	-0.01149209
36	0xbde5ab1d	-0.11214278
37	0xbd1801da	-0.03711114
38	0xbda0ffe5	-0.07861308
39	0x3ca3d0e8	0.019997075
40	0x3dc472ff	0.09592246
41	0x3d4db0ed	0.050217558
42	0xbd1cce7d	-0.03828286
43	0x3e26cb51	0.16288497
44	0xbd707cd2	-0.058712788
45	0xbd9765a0	-0.0739243
46	0xbe273070	-0.16327071
47	0xbe494fe8	-0.19659388
48	0x3d40dd6e	0.04708617
49	0x3ba50d77	0.0050370055
50	0x3c8addd5	0.01695148
51	0x3e145ebe	0.14489266
52	0x3e16d510	0.14729714
53	0xbd88f94a	-0.06688173
54	0x3ddeb7e2	0.108749166
55	0xbe2a74d7	-0.16646133
56	0x3c92be27	0.017912937
57	0xbc920e55	-0.0178291
58	0xbca8635d	-0.020555193
59	0x3d1830f0	0.037156045
60	0xbdeef1c8	-0.1166721
61	0x3dcd1333	0.100134276
62	0xbd8ee9e3	-0.06978204
63	0x3e23a183	0.1597958
64	0x3e24d60a	0.16097274
65	0x3d9ab0b2	0.07553233
66	0x3cff7870	0.031185359
67	0x3ab56f3d	0.0013842356
68	0x3cf16996	0.029469293
69	0x3e148d15	0.14506944
70	0xbdd3bd30	-0.10338819
71	0xbd8810bf	-0.06643819
72	0xbd16f521	-0.036854867
73	0x3e32f256	0.17475256
74	0xbe0727d1	-0.13198783
75	0x3e3578df	0.1772189
76	0x3d8bf9c8	0.06834751
77	0xbe0f9fbb	-0.14025776
78	0x3dc0b138	0.09408802
79	0xbe06fba2	-0.13181928
80	0x3e161f96	0.14660487
81	0x3d1bb98e	0.038018756
82	0x3d6c66cb	0.05771522
83	0xbe2a35fd	-0.16622157
84	0xbe16125c	-0.14655441
85	0xbe0e6157	-0.1390432
86	0x3dfaba6d	0.12242589
87	0x3b537dde	0.0032271068
88	0x3e1e7bd6	0.15476927
89	0xbd7e9b64	-0.06215991
90	0x3cd378fd	0.025814528
91	0x3dbc721d	0.09201453
92	0x3dc19e55	0.094540276
93	0x3d3eed02	0.046612747
94	0x3d1a1002	0.037612922
95	0xbdc7741f	-0.09738945
96	0x3dac72e0	0.08420348
97	0x3cf1843c	0.029482
98	0xbdb31ae5	-0.08745364
99	0x3e42c265	0.19019468
100	0x3d5ac9b6	0.053415023
101	0x3e0d8682	0.13820842
102	0x3e106f0a	0.14104858
103	0x3c54d7a6	0.012990868
104	0x3d51920b	0.051164668
105	0x3e24201d	0.16027875
106	0xbdb1c85a	-0.08680792
107	0xbd97126f	-0.07376563
108	0x3e05dc66	0.13072357
109	0xbccf0c6f	-0.025274483
110	0xbdeff872	-0.11717309
111	0xbd303bd6	-0.043025814
112	0x3e47cd67	0.19511949
113	0x3e13b86b	0.14425819
114	0xbdb0f7ab	-0.08640989
115	0x3e18c3b6	0.14918408
116	0x3d689d48	0.05679062
117	0x3bab3df0	0.0052258894
118	0xbdb67aa5	-0.08910111
119	0xbe340508	-0.17580044
120	0x3e3bbf01	0.18334581
121	0x3cc8f2ca	0.024529833
122	0x3dd0df6b	0.101988636
123	0x3d323d1c	0.04351531
124	0xbd39d7f4	-0.045371965
125	0xbda36f3f	-0.07980203
126	0x3e2e3a5e	0.17014453
127	0xbd31ceee	-0.043410234
128	0xbe1b8aea	-0.1518971
129	0x3d165456	0.036701523
130	0x3d7f1d3b	0.062283736
131	0xbcdff4cf	-0.027338414
132	0x3dad06aa	0.08448537
133	0x3d3affbd	0.045654047
134	0x3df1c35f	0.11804842
135	0x3dfc781a	0.12327595
136	0xbdc579a6	-0.09642343
137	0x3de4baba	0.11168428
138	0xbde9b8de	-0.11412214
139	0x3da27a8f	0.079335324
140	0xbdfae389	-0.1225043
141	0x3e621633	0.22078781
142	0x3e0c415b	0.13696806
143	0xbdf04127	-0.11731177
144	0x3d458c82	0.0482297
145	0xbdd7e229	-0.105411835
146	0xbe15d720	-0.14632845
147	0x3e12c78f	0.14333938
148	0x3dd4fc19	0.10399646
149	0xbbd845fb	-0.006600139
150	0xbe199107	-0.1499673
151	0xbdc30ea9	-0.095242806
152	0x3e195ec0	0.1497755
153	0xbd08e382	-0.033420093
154	0xbde88154	-0.113527924
155	0x3dbe4ad7	0.09291618
156	0xbd43e58b	-0.04782633
157	0x3e450f8d	0.19244213
158	0x3e3c194e	0.18369028
159	0xbc7fc36b	-0.015610556
160	0x3e1882cd	0.14893647
161	0x3d8ce547	0.06879669
162	0x3c569fd4	0.013099629
163	0xbde99fb8	-0.11407417
164	0x3d6db011	0.058029238
165	0x3e375147	0.17902099
166	0xbdbf6ad6	-0.09346549
167	0x3d71d9d4	0.059045628
168	0x3d110431	0.035404388
169	0x3e609b2f	0.21934198
170	0x3dc1b447	0.09458213
171	0xbd21efef	-0.03953546
172	0x3db0296a	0.08601649
173	0x3da4311e	0.08017181
174	0xbe0f17cd	-0.13973923
175	0xbdc4f890	-0.09617722
176	0x3e31c710	0.17361093
177	0xbdc0cff0	-0.09414661
178	0x3ca5fcd7	0.020262165
179	0x3e3fd0e8	0.18732035
180	0x3d462712	0.048377104
181	0xbe472b40	-0.19450092
182	0x3d913ce6	0.070916936
183	0x3cd27cad	0.025694216
184	0x3e00195f	0.12509678
185	0xbdbaf06a	-0.091278866
186	0x3d8c7c91	0.06859697
187	0x3d7aca34	0.061227992
188	0xbc493584	-0.0122808255
189	0xbd3091df	-0.043107864
190	0xbe05b122	-0.13055852
191	0xbe14fb49	-0.14548983
192	0xbdbda2fa	-0.09259601
193	0xbe1c50e7	-0.15265237
194	0xbdcc501b	-0.099762164
195	0x3d17c53d	0.037053335
196	0x3d2ef3c6	0.04271295
197	0xbdd9ebe5	-0.106406964
198	0x3d0b3b1f	0.03399193
199	0x3c9df4ea	0.019281823
200	0xbdbd6bfa	-0.092491105
201	0x3e0b0835	0.1357735
202	0xbe1817d9	-0.14852847
203	0x3d0c34c1	0.034229998
204	0x3e0aa712	0.13540295
205	0x3dcda3dd	0.1004102
206	0xbcd51bb9	-0.026014196
207	0xbafb7596	-0.0019184824
208	0xbe1f6489	-0.15565695
209	0x3a22b36b	0.0006206545
210	0xbe091335	-0.13386233
211	0xbda0bcd1	-0.07848514
212	0x3c15836c	0.009125572
213	0xbe2efb3f	-0.1708803
214	0x3e2fcec5	0.1716872
215	0xbe3142ef	-0.1731069
216	0xbe055f6b	-0.1302468
217	0xbd8b7299	-0.06808967
218	0xbd606a16	-0.05478867
219	0x3c7c321b	0.015392805
220	0x3e42e7b8	0.19033706
221	0xbd92f30a	-0.07175262
222	0x3dbc6325	0.09198598
223	0xbe321e8a	-0.17394462
224	0x3dc6b91e	0.09703277
225	0xbe0b3bda	-0.1359705
226	0x3df531f8	0.119724214
227	0x3d880f78	0.066435754
228	0xbda26114	-0.079286724
229	0x3de4096b	0.11134609
230	0x3e3e53e3	0.18586688
231	0xbd9353d4	-0.07193723
232	0x3e1c30ee	0.1525304
233	0x3d0a3db4	0.03375025
234	0x3c09799b	0.008390809
235	0x3dd64429	0.10462219
236	0xbe0839af	-0.13303255
237	0x3e398aef	0.18119405
238	0xbda5e11d	-0.080995776
239	0x3de2c14e	0.11072026
240	0xbdacb09c	-0.08432123
241	0xbd1c12e9	-0.03810397
242	0xbde1bf40	-0.11022806
243	0x3e4bb563	0.19893412
244	0xbb57f095	-0.0032949795
245	0xbde4119b	-0.111361705
246	0x3d8fc1ac	0.07019362
247	0x3d83d2be	0.0643668
248	0x3d45b295	0.048266012
249	0x3dd48efb	0.10378834
250	0x3d5f6d46	0.05454757
251	0xbe2bd16d	-0.16779108
252	0xbd153f50	-0.036437333
253	0x3e59e4aa	0.21278635
254	0xbdcd5ff6	-0.10028069
255	0x3d8faa3a	0.0701489

lstm2.bias_ih_l0 f4 [128]
0	0x3e291635	0.16512378
1	0x3e208d61	0.15678932
2	0xbd36828c	-0.044558093
3	0x3ca2331a	0.019799758
4	0xbdf929a4	-0.121661454
5	0xbd20ec5e	-0.039287917
6	0x3dcea530	0.10090101
7	0x3d9db7a0	0.07701039
8	0x3caa4a94	0.020787515
9	0xbd7e6dcc	-0.06211643
10	0x3dd06138	0.10174793
11	0x3e0c9272	0.1372774
12	0xbd014feb	-0.031570356
13	0xbdce9d39	-0.100885816
14	0xbdca8854	-0.09889284
15	0xbd2fbbc3	-0.042903673
16	0xbd1fa25a	-0.03897319
17	0x3dbae4c5	0.091256656
18	0x3d13d4e4	0.0360917
19	0xbc66da8d	-0.0140901925
20	0x3bca777b	0.006178794
21	0x3e4afb60	0.19822454
22	0xbc2a68b5	-0.010400941
23	0x3e25ca62	0.16190484
24	0xbe0a0b0b	-0.13480775
25	0xbdcaa67d	-0.09895036
26	0xbd5fa4f3	-0.054600667
27	0xbc756360	-0.014977306
28	0x3d593919	0.05303297
29	0x3dc236a1	0.09483076
30	0x3e3f9931	0.18710782
31	0x3daf80fd	0.085695244
32	0x3cf6c4b2	0.030123089
33	0xbd9708e5	-0.07374743
34	0x3e4079f6	0.18796524
35	0x3e550123	0.20801215
36	0x3e4ad7c1	0.19808866
37	0x3d569b7a	0.052394368
38	0xbdd6127c	-0.10452744
39	0x3e41366c	0.18868417
40	0x3d523d10	0.051327765
41	0x3d543ff5	0.051818807
42	0x3e4672fa	0.19379798
43	0x3dca9212	0.09891142
44	0xbd115048	-0.035476953
45	0xbd59d9a1	-0.053186063
46	0x3d56ecac	0.0524718
47	0x3e1490df	0.14508389
48	0xbc3d4522	-0.011552127
49	0xbd9f4347	-0.07776504
50	0x3d354c18	0.04426202
51	0x3caff5cc	0.02147951
52	0xbe020794	-0.12698203
53	0xbc945298	-0.01810579
54	0x3e17f27a	0.14838591
55	0x3e237c57	0.159654
56	0xbcaa7833	-0.020809269
57	0xbda3a0e1	-0.079896696
58	0xbe0cb4da	-0.13740864
59	0xbd199ff4	-0.03750606
60	0x3d66205d	0.056183208
61	0x3db78d69	0.08962519
62	0x3d90788d	0.07054243
63	0xbe04597f	-0.12924765
64	0xbde73e04	-0.112911254
65	0x3de2a3b4	0.1106638
66	0xbe254969	-0.16141285
67	0xbe2ab4b8	-0.16670501
68	0xbb3d93e8	-0.002892727
69	0xbd296d25	-0.041363854
70	0x3dd8a6bf	0.10578679
71	0x3e21f4e6	0.15816078
72	0xbbba32f5	-0.005682344
73	0x3d206572	0.039159246
74	0x3e128bc7	0.14311133
75	0xbcb1a120	-0.021683276
76	0xbd85520e	-0.06509791
77	0x3e094812	0.13406399
78	0x3d848e48	0.064724505
79	0xbe2d09a6	-0.16898212
80	0xbb23d6c8	-0.0024999846
81	0x3d745146	0.05964782
82	0xbdc77867	-0.09739762
83	0xbd8d1222	-0.06888224
84	0x3cfa1b98	0.030530736
85	0xbd1e8e1b	-0.03870974
86	0xbdcead8f	-0.100916974
87	0xbd5a6c7a	-0.053326108
88	0xbd43e264	-0.047823325
89	0xbd6e631a	-0.05819998
90	0xbdf0c9b7	-0.11757224
91	0xbd7f745c	-0.06236683
92	0xbc9e329d	-0.019311244
93	0x3e063b3a	0.1310853
94	0xbd710b0e	-0.058848433
95	0x3dc433cd	0.09580193
96	0xbcfe1a18	-0.031018302
97	0x3e40459f	0.18776558
98	0x3e2132d5	0.15742047
99	0xbd066b57	-0.03281721
100	0xbd64aeeb	-0.055830877
101	0x3e1c65c2	0.15273193
102	0xbc810f94	-0.015754499
103	0xbb944921	-0.004525319
104	0x3e0d977c	0.13827318
105	0xbd93ee33	-0.07223167
106	0x3dab50e8	0.08365041
107	0xbdd8e469	-0.10590441
108	0x3d9a8162	0.07544209
109	0xbded17c7	-0.11576801
110	0x3e29eff2	0.16595438
111	0x3e2036a0	0.15645838
112	0xbd0a30ce	-0.03373795
113	0xbe00475e	-0.12527224
114	0xbbf4cea3	-0.007470922
115	0x3d624a4a	0.05524663
116	0xbdc0e05e	-0.09417795
117	0xbb39f5d6	-0.002837529
118	0x3d839264	0.06424406
119	0x3e06e52b	0.13173358
120	0xbca7a8e5	-0.020466277
121	0x3d075424	0.033039227
122	0x3e2e5766	0.17025527
123	0x3e3fd6fb	0.18734352
124	0xbdb84dc0	-0.08999205
125	0x3d44c6b1	0.04804105
126	0x3dceac9c	0.100915164
127	0xbdfd556f	-0.12369811

lstm2.bias_hh_l0 f4 [128]
0	0xbdb59f4d	-0.08868275
1	0x3e39c415	0.18141206
2	0x3e35cc42	0.177537
3	0xbd55e375	-0.052218873
4	0x3dc13de3	0.09435632
5	0x3b6d528f	0.0036212539
6	0xbde79a5f	-0.11308741
7	0x3e3a436e	0.18189785
8	0x3e5558be	0.20834634
9	0x3ded43e5	0.115852155
10	0xbd90bec2	-0.07067634
11	0x3c50e858	0.012750708
12	0x3e15a209	0.14612593
13	0x3e03d0b8	0.12872589
14	0xbd07b078	-0.033127278
15	0x3e36e945	0.17862423
16	0x3bfb0734	0.007660771
17	0x3e17de2f	0.1483085
18	0xbd22fe58	-0.039793342
19	0xbb8008c8	-0.003907297
20	0x3d5dd616	0.054159246
21	0x3e5674fc	0.20943063
22	0x3db1217c	0.08648965
23	0x3da88cd0	0.08229983
24	0xbd6ea34c	-0.0582612
25	0xbc96f615	-0.018427888
26	0x3dc37dd2	0.09545483
27	0x3e1d5eee	0.15368244
28	0xbca00aad	-0.01953634
29	0xbe37974f	-0.17928813
30	0x3e3aacba	0.18229952
31	0x3e374493	0.17897253
32	0xbe10fed1	-0.14159705
33	0x3e011e84	0.12609297
34	0xbd883f28	-0.06652671
35	0x3dc7ad0f	0.09749805
36	0xbda9cdb7	-0.0829119
37	0xbb2381b7	-0.0024949142
38	0x3dd97fbd	0.10620067
39	0x3d92e370	0.071722865
40	0xbcd79936	-0.026318174
41	0x3e25885d	0.161653
42	0x3e3b5f5c	0.18298095
43	0xbc85c3ae	-0.016328659
44	0x3dd43a14	0.1036264
45	0xbce8ebd7	-0.02843277
46	0xbddefad1	-0.10887683
47	0x3de973e9	0.11399061
48	0x3dd240c8	0.10266262
49	0xbd5089b1	-0.050912563
50	0x3d624fc6	0.05525186
51	0xbe2ce8f0	-0.16885734
52	0x3d01a253	0.031648945
53	0x3e516278	0.20447719
54	0xbdcd4336	-0.10022585
55	0x3e0075ce	0.12544939
56	0xbc59756d	-0.013272625
57	0x3da80c11	0.082054265
58	0x3e53e460	0.20692587
59	0xbbe3acd3	-0.0069480925
60	0x3dc5b480	0.09653568
61	0x3d270482	0.040775783
62	0xbd79134b	-0.060809415
63	0xbdebe32f	-0.11517941
64	0xbbfd3755	-0.0077275434
65	0x3a417e20	0.000738116
66	0xbe0689d3	-0.13138513
67	0x3d4c2e4c	0.04984884
68	0xbe0e0688	-0.13869679
69	0x3e22d28d	0.15900631
70	0x3dd4f1e0	0.103976965
71	0x3d5dcab4	0.05414839
72	0x3d431d36	0.04763528
73	0xbdfa52fc	-0.12222859
74	0x3d29e7e6	0.04148092
75	0x3d1d69bf	0.038430925
76	0x3e36b66c	0.17843026
77	0xbd39b3c4	-0.045337453
78	0x3d80d744	0.06291059
79	0xbd5042e3	-0.05084504
80	0x3dd9bd39	0.106317945
81	0x3db7b420	0.08969903
82	0xbdad2613	-0.08454528
83	0x3e15384f	0.14572261
84	0xbda2804e	-0.079346284
85	0xbdc8aa18	-0.09798068
86	0x3d944ffb	0.072418176
87	0x3cd4e90a	0.025990028
88	0xbdb2aa53	-0.08723893
89	0xbe1fbdba	-0.15599719
90	0xbd41399e	-0.04717409
91	0x3e030e0d	0.12798329
92	0xbd3e607b	-0.04647873
93	0x3de2a1e5	0.11066035
94	0x3e152083	0.14563183
95	0x3dcfb412	0.101417676
96	0xbc39a155	-0.011329968
97	0x3db734db	0.08945628
98	0xbe0bef8d	-0.136656
99	0x3e08ddf2	0.13365915
100	0x3e0964af	0.13417314
101	0xbc7d7ed6	-0.015472135
102	0xbd9876ba	-0.0744452
103	0x3e418d1f	0.1890149
104	0x3da3ec30	0.080040336
105	0x3d375660	0.044760108
106	0xbd6b9b0f	-0.057520922
107	0xbdd5f8a7	-0.10447817
108	0xbc04d0b4	-0.008106399
109	0xbd716dd4	-0.05894263
110	0x3e361dfc	0.17784876
111	0x3dfa28e2	0.12214829
112	0xbcfbf46c	-0.030756198
113	0xbdbe7132	-0.09298934
114	0x3ddb7179	0.107150026
115	0xbd3dfb51	-0.046382252
116	0x3dc7aa18	0.0974924
117	0x3e0c058d	0.13673992
118	0xbcde44a6	-0.027132344
119	0xbda7b8b6	-0.08189528
120	0x3e47cb8b	0.19511239
121	0x3e30105f	0.17193745
122	0x3d776a8e	0.060404353
123	0xbdb40477	-0.08789914
124	0x3e450e71	0.1924379
125	0x3e3304bc	0.17482275
126	0x3e60f3bb	0.21967976
127	0x3d985f8f	0.07440101

fc.weight f4 [1, 32]
0	0x3e5b5618	0.21419561
1	0xbe235501	-0.15950395
2	0xbe507b9e	-0.20359656
3	0x3dfce93d	0.12349174
4	0x3e384f6a	0.17999044
5	0x3e41f86d	0.18942423
6	0x3e100175	0.14063056
7	0xbe150dcc	-0.14556044
8	0xbe1bb946	-0.15207395
9	0x3e719b70	0.23594451
10	0xbe35674d	-0.17715187
11	0x3dd879d8	0.10570115
12	0xbdd7c1b8	-0.10534996
13	0x3e52996f	0.20566343
14	0xbe48e189	-0.19617285
15	0xbe4f0b2d	-0.20219107
16	0x3e547cac	0.20750684
17	0x3e66057d	0.22463031
18	0xbdd931ea	-0.106052235
19	0x3e3c002c	0.1835944
20	0xbe1a3f52	-0.15063217
21	0xbdec954f	-0.11551916
22	0x3e862220	0.2619791
23	0xbdf6e7fb	-0.120559655
24	0x3e5acdd1	0.21367575
25	0x3ddd4b3a	0.10805364
26	0x3dda9d07	0.10674482
27	0xbdd7feb3	-0.10546627
28	0x3e82caec	0.25545442
29	0x3dff9ddc	0.12481281
30	0x3e5a04e3	0.21290927
31	0xbe3b6bed	-0.18302889
