models/lstm15.pth (torch, 135733 bytes, 9 tensors)

lstm1.weight_ih_l0 f4 [256, 14]
000000 ff 3a c3 bd ed 59 0d 3d 5a 38 fc bd 23 55 e7 3d
       -0.09532737 0.034509588 -0.12315436 0.112955354
000010 fa 68 d1 ba 24 13 af bd c0 db 1d 3d 3e 69 6e bd
       -0.001597672 -0.08548573 0.038539648 -0.058205836
000020 e1 c4 b5 3d 12 c9 2f 3c 9c ff 83 3d b3 8c 92 3d
       0.08875442 0.010729091 0.06445238 0.071557425
000030 fd 97 a8 bd 3c c0 a3 bd d0 c4 d8 bd 59 5c dc 3d
       -0.082321145 -0.0799565 -0.10584414 0.107598014
000040 24 c1 dd bd 82 f5 6d bd 17 30 07 3e 70 14 d7 3d
       -0.10827854 -0.058095463 0.13201939 0.10501945
000050 c4 b4 99 3d 9f 9a a3 3d b0 c8 cf 3d 65 5e 1d 3d
       0.075051814 0.07988476 0.101457 0.0384201
000060 31 b2 41 3d c3 f0 9b bd 94 ac dc 3d 8d 0d 3d bd
       0.047289077 -0.07614281 0.10775104 -0.0461555
000070 4c 65 9c 3d c1 79 9e bd 03 53 9e 3d 4b bc e5 3c
       0.07636508 -0.077380665 0.07730677 0.028043887
000080 88 7b b2 bd 77 f7 19 3d 23 fa 5a 3d 2a 6f ac 3d
       -0.08714968 0.037589516 0.053461205 0.0841964
000090 c0 3f b4 bd ad 95 5b bc 81 83 ec bd 76 f2 d3 bd
       -0.08801222 -0.013402385 -0.1154852 -0.1034898
0000a0 72 cb df 3d 9e bb 0e 3d 1c ca a8 bd ab fb 4e 3d
       0.10927476 0.034846894 -0.08241674 0.050532978
0000b0 03 b2 12 be fa 29 7a 3d 75 bd 13 be 5b f4 a3 bd
       -0.14325719 0.06107519 -0.14427741 -0.080055915
0000c0 5f 40 04 3e fc d9 0c be 0a 41 f8 3c 3d 31 bd 3d
       0.1291518 -0.1375503 0.03030445 0.09237907
0000d0 96 47 28 bd 03 77 ad bd a6 70 62 bd 1c 65 ba bd
       -0.041083895 -0.08469965 -0.05528321 -0.09101316
0000e0 73 ea b5 3c 7a 94 a8 bd 71 66 02 3e 8f 9d 8b bd
       0.02220652 -0.08231445 0.12734391 -0.06817161
0000f0 9d 50 47 3c ed 7a 29 bb 62 d6 8d 3d 2d ec 80 3d
       0.012165216 -0.0025860623 0.06925656 0.06295047
000100 9e 6f d3 bd ec a3 d8 bd 40 03 02 3e 8c 40 e8 bd
       -0.10324024 -0.105781406 0.12696552 -0.11340436
000110 25 69 c1 bc d8 66 45 3d e9 9e 02 bd 88 1c 46 bd
       -0.023609707 0.048193783 -0.03188983 -0.048367053
000120 a0 f0 df bd ea 28 1b 3b a4 42 51 bd 4a 8c d0 bc
       -0.109345675 0.002367551 -0.051088944 -0.02545752
000130 48 aa cb 3d 7d ec 0f bd 88 bf ec bd af aa 83 3d
       0.09944588 -0.035137642 -0.11559969 0.0642904
000140 01 f2 d8 3d 0b 10 c5 3d 40 d3 c5 bd 3b c3 d7 bc
       0.105930336 0.096222006 -0.09659433 -0.02633821
000150 e9 c7 24 3d 07 6f b3 bd bc cf e7 3d 06 11 f4 3c
       0.04022971 -0.08761411 0.11318919 0.029793274
000160 40 a8 a2 3d 28 a6 0b 3e ef ce d7 3d 8a 50 bc 3d
       0.079422474 0.13637602 0.10537516 0.09195049
000170 c3 55 2b bb 52 1c a1 bd ee d5 fb 3c c2 91 93 bd
       -0.0026143647 -0.0786673 0.030741658 -0.072055355
000180 86 a0 6d 3d 96 26 b9 bc b6 f4 a1 bd 3d 14 df 3d
       0.058014415 -0.022601407 -0.07908003 0.10892532
000190 03 df d0 3d c0 d1 ee bd bf cf 2c 3d 0c 36 0d 3b
       0.10198786 -0.116611004 0.04219031 0.0021547107
0001a0 76 ec 35 bd f8 7b 03 3c 97 5c a3 ba 2f af 96 3b
       -0.04441496 0.008025162 -0.0012463507 0.00459852
0001b0 a1 8c 74 3d b5 72 92 bd 9a 49 04 3e a0 78 af 3d
       0.059704427 -0.07150785 0.12918702 0.08567929
0001c0 c9 d2 d8 3d a7 32 d7 3d 22 27 13 3d 15 0d 40 bd
       0.10587079 0.10507708 0.03592599 -0.046887476
0001d0 99 59 bb 3c 1a 5e 62 3d 83 72 8c 3d b0 ac a6 3d
       0.022869872 0.055265523 0.06857779 0.08138406
0001e0 fd 7d 64 3c 88 1c f5 3d 82 f6 ae 3d fd 44 7a 3d
       0.013946054 0.119683325 0.085431114 0.06110095
0001f0 fd 00 22 bd 80 0f c9 3d 9f e0 30 bd 37 e0 a8 3d
       -0.039551724 0.098174095 -0.043182965 0.082458906
000200 0b aa c7 3d 38 74 df bd 69 9c 43 3b d6 62 09 3e
       0.0974923 -0.10910839 0.0029847866 0.13416609
000210 a4 8a 99 3d 0e 26 94 3d 56 9c 00 3e 2c 10 7c bd
       0.07497147 0.07233821 0.12559637 -0.06153886
000220 9b be cb 3d a0 3f a7 bd 6f 0f 11 bd 61 5e bb bd
       0.099484645 -0.081664324 -0.03541511 -0.09148861
000230 f4 d5 0c 3d cb 2d 5b bd 09 1d ec bc 16 2f 42 3d
       0.03438373 -0.05351047 -0.028822439 0.047408186
000240 06 58 03 3e c3 59 cc 3d f2 ad 73 3c 4c f4 12 3e
       0.12826547 0.09978058 0.014873015 0.14351004
000250 83 ae c9 3d 56 a5 ae 3d d5 66 51 3d 9c a7 8e 3d
       0.098477386 0.08527629 0.05112346 0.06965563
000260 4a c0 aa 3d 29 37 b6 38 90 a0 4f 3d 41 0e 87 3d
       0.083374575 8.688711e-05 0.050690234 0.065945156
000270 79 2c c6 bc f8 cb e4 bd 53 59 b0 bc 87 0c 0a 3d
       -0.024191128 -0.111717165 -0.021526968 0.033703353
000280 e9 a3 65 bb 6c 4c 81 bd bf 66 b6 3d 0b e0 c3 3d
       -0.0035040325 -0.063134044 0.08906316 0.09564217
000290 19 91 62 3d fc 50 1c 3e 13 f1 ad 3d 7f a0 11 bc
       0.055314157 0.15265268 0.08493247 -0.008888363
0002a0 0e f8 c9 3b 18 71 7f 3a ff c2 a7 bd c7 cb 54 bc
       0.0061636036 0.00097443303 -0.081914894 -0.012988037
0002b0 f1 a9 6a bd 10 25 1f be 11 6b 9c bd 57 28 94 bc
       -0.057290975 -0.15541482 -0.07637609 -0.018085642
0002c0 c5 ac 0a 3e e0 0d 44 3d f9 ed 04 be b6 2d 63 bd
       0.13542469 0.047864795 -0.12981404 -0.055463515
0002d0 e9 de 17 3d 56 81 ef 3d f4 f3 a4 3d 1a 19 11 3d
       0.037077818 0.11694591 0.08054343 0.03542433
0002e0 7f ae 87 3c 46 e5 25 3c 15 a0 f9 3c d5 46 ec b9
       0.016562698 0.010125464 0.03047184 -0.00045066202
0002f0 1d 64 58 bd 80 6d e1 3d bc 75 a4 3d 80 a4 c0 3d
       -0.05282985 0.110072136 0.080302685 0.09406376
000300 2c e9 d4 bc 86 3f a2 bd de db d2 3d 5e b9 ab 3d
       -0.025990091 -0.079222724 0.102958426 0.08384965
000310 2b c1 26 3d 39 e0 8c bd 99 8f 0e 3c f6 5d ba bd
       0.040711563 -0.068787046 0.008701229 -0.09099953
000320 83 95 1a 3e 39 f5 fa bc 01 84 a0 bd fc 38 b1 3c
       0.15096097 -0.03063451 -0.07837678 0.021633618
000330 93 a0 ca 3d 3e 87 d5 bd 80 f9 8c 3d 10 e0 bf bc
       0.09893908 -0.10426186 0.06883526 -0.023422271
000340 15 9e b0 bc b0 38 7c bd 97 46 b5 3d c5 0c d8 bd
       -0.021559754 -0.0615775 0.088513546 -0.105493106
000350 89 47 8a 3d 83 27 70 bd 7b 7b a6 bd d3 71 9c 3d
       0.067519255 -0.05863143 -0.08129021 0.07638898
000360 26 9b ec 3d fd 3a f8 bd 46 b9 23 3c 75 7a ad 3d
       0.1155303 -0.12120626 0.009992903 0.084706225
000370 62 1e a4 bd 26 6b 80 3d 10 a1 09 be ef d2 13 bd
       -0.080136076 0.06270437 -0.13440347 -0.036089834
000380 57 d5 63 bd be 46 a9 bd 5a 08 bd bd dc 3b ac bd
       -0.05562338 -0.08265446 -0.092301086 -0.08409855
000390 33 a7 42 3d 65 3a 89 3d f3 14 bc 3d 9d 7a e9 bd
       0.047522735 0.06700591 0.09183683 -0.1140034
0003a0 e2 39 02 bc 3f 4f 12 3e 7f 78 18 bd ce 51 e2 3d
       -0.007948371 0.14288042 -0.03722429 0.11050759
0003b0 b4 20 a4 3d 63 6b 7d 3d 54 61 49 3d a3 ed 02 be
       0.0801405 0.06186999 0.049165085 -0.12785964
0003c0 23 9e 92 3d a7 b2 6c bd b8 6d 9a bd fd cc bf 3d
       0.071590684 -0.057787564 -0.075404584 0.0936527
0003d0 65 d4 2b bd c2 43 e5 bd 11 c4 e5 bd 1f 6b cc bd
       -0.041950602 -0.111945644 -0.11219037 -0.09981369
0003e0 4c 44 b8 3c 41 8b 38 bd d3 e4 f6 bb 10 6a ad 3d
       0.022493504 -0.045054678 -0.007534602 0.084674954
0003f0 dd 2f c2 3d d3 db b0 bd 96 76 a8 3d af d3 bf 3d
       0.094817854 -0.08635678 0.082257435 0.09366547

lstm1.weight_hh_l0 f4 [256, 64]
000000 61 d7 8c bd 76 4a 18 bd ae 0c a0 bb dc 2d 0c 3d
       -0.06877018 -0.037180386 -0.004884324 0.034223422
000010 77 f3 05 3e 7b 19 7b 3d f3 6c a5 3d 69 8b ad bd
       0.13081156 0.061303597 0.08077421 -0.08473856
000020 68 fd 90 3d 5f 9f 78 3d 35 13 db 3d 56 db 6c bc
       0.070795834 0.060698863 0.10697023 -0.014456591
000030 9b 36 91 bd f7 a9 f2 3c d4 58 09 bc f4 1f 15 be
       -0.07090493 0.029622061 -0.008382995 -0.1456297
000040 bf 55 aa bd 3e 5d 45 bd e8 48 9c 3d f8 26 30 bd
       -0.08317136 -0.048184626 0.07631093 -0.043005913
000050 63 ed ed bd 09 6e 9f 3d 7c ce 7a bd be 7f a0 bd
       -0.116175435 0.077846594 -0.061232075 -0.07836865
000060 23 d5 78 3d 6c 38 7e 3a 64 c2 73 3c 17 ba 26 be
       0.060750138 0.00096977386 0.014877889 -0.16281925
000070 42 ae 0c be e7 ed b3 bd 18 54 a0 39 72 04 77 bd
       -0.13738349 -0.08785611 0.00030580233 -0.060306974
000080 2d 54 fa 3d 66 e2 c3 bc 58 d8 cc bc 9b 92 f5 bc
       0.122230865 -0.023911666 -0.025005504 -0.029977133
000090 c2 5c 47 3d 90 6f 61 bd 7e 6e 53 3d de c8 dd bd
       0.048672445 -0.055038035 0.051619045 -0.10829328
0000a0 3d fa 83 bd 68 d9 85 bd ad c2 07 be 74 ca c4 3d
       -0.064442135 -0.065356076 -0.13257857 0.09608927
0000b0 7c c3 4e 3d a5 cf dc bd b0 44 d7 bd 41 2f 13 bd
       0.050479397 -0.107817926 -0.10511148 -0.035933737
0000c0 24 6e f9 3d 2f 2c c2 bd ea 01 72 3d c9 44 23 bd
       0.12179211 -0.094810836 0.059083857 -0.03986052
0000d0 76 e4 b6 bc 62 0e 57 bd 04 73 cd 3c f5 89 f9 bd
       -0.022325736 -0.05250395 0.025079258 -0.12184516
0000e0 31 b4 c6 bc 0b 24 4c bd 26 c7 b3 bc 0d 1e c4 bd
       -0.024255844 -0.04983906 -0.021945547 -0.09576044
0000f0 2c 79 00 be 28 d8 48 bd ce cf cc bd 15 d3 2b 3d
       -0.12546223 -0.049034268 -0.10000573 0.04194935
000100 45 d1 bf bb 77 1a b5 bd 32 1d a5 bc 8f 8b 0e 3c
       -0.0058538043 -0.088429384 -0.020155523 0.008700266
000110 8a cd d9 bd b7 2a c8 3c 07 fe 14 3b f5 62 a4 3d
       -0.106349066 0.02443443 0.002273442 0.08026687
000120 30 d1 26 bd 7e 1f e0 bd 63 12 b8 bc 52 49 9b 3d
       -0.04072684 -0.10943507 -0.022469705 0.07582344
000130 40 0d c7 3d 71 9d ed 3c 45 f4 28 be 60 70 88 bd
       0.09719324 0.029005738 -0.16499431 -0.06662059
000140 39 f3 c4 3d 23 47 5a bd a3 53 e5 3c e3 86 5f bd
       0.096167035 -0.053290498 0.027993983 -0.054571997
000150 26 4b 0a 3e 4c 1b 99 bd bf 8c d0 3c b6 d5 04 be
       0.1350523 -0.074759096 0.025457738 -0.12972149
000160 7d 5d 8a bd 83 ab af bd 16 a0 f4 3d 40 e2 7d 3d
       -0.06756113 -0.08577635 0.119445965 0.061983347
000170 4b 24 09 3e 76 c4 8c 3b 3f 56 9c bc 0d 15 14 3c
       0.13392751 0.004295881 -0.019084094 0.009038222
000180 11 88 7c 3d 3e 9e 11 be 9f f8 c7 bd ea 97 6d ba
       0.0616532 -0.14220521 -0.097642176 -0.00090634695
000190 36 14 1e 3d 0e ac 56 3d 48 e0 aa 3c f8 0d 50 3c
       0.038593493 0.052410178 0.020858899 0.012698643
0001a0 1a 3e f2 bc c1 a2 5e bd b9 ae 6c bd cb 0b d5 bd
       -0.029570628 -0.054354433 -0.057783816 -0.1040264
0001b0 a1 96 f4 bd fc 04 ec 3d 82 a9 8f bd 2b 20 6c bd
       -0.11942793 0.11524388 -0.07014753 -0.057647865
0001c0 e0 a8 1b bc ed 50 af 3d e8 6d 02 3d 85 e0 4a bd
       -0.009500712 0.08560357 0.031843096 -0.049530525
0001d0 7b b9 17 3e 22 ed ae 3d 94 e6 bd 3d de 49 e9 bd
       0.14816849 0.08541323 0.09272495 -0.11391042
0001e0 11 e9 22 3d bb fe a7 3d 1c e1 dc 3d 03 f0 32 3d
       0.03977305 0.08202883 0.10785124 0.043685924
0001f0 e7 bc ac bc b8 af a1 bd 94 c0 83 bd ce 80 db bd
       -0.02108617 -0.07894844 -0.06433216 -0.10717927
000200 f6 a5 ed 3d b7 af b7 3d 80 ac a2 bd 60 59 d1 3d
       0.1160392 0.08969062 -0.07943058 0.10222125
000210 0b fe b6 3d 38 d4 55 3d e7 e5 a2 3d 60 db ba 3d
       0.089351736 0.05220434 0.07954007 0.09123874
000220 d7 59 3e 3d 1f 9a d0 bb 43 1f 05 3e 22 e1 b3 3d
       0.046472397 -0.006366029 0.13000207 0.08783175
000230 fb 20 59 bd b5 da 80 bd d0 0b 09 be ce 75 db bd
       -0.05300997 -0.06291715 -0.13383412 -0.10715829
000240 4f 36 01 3e dd a2 84 3c 76 3c b7 bd bd 5c d1 3d
       0.12618373 0.01619094 -0.08947079 0.102227665
000250 79 73 81 bd ab 69 cd 3d 62 a1 06 be 75 6c f9 bd
       -0.06320853 0.1002992 -0.131475 -0.1217889
000260 4d 85 1d 3c 1c 94 6f bd 24 4c f8 bd 1c 42 4a bc
       0.009614301 -0.058490857 -0.12123898 -0.012344863
000270 09 e4 3b 3d fc 28 a8 bd ee d8 31 bd 74 47 6d bd
       0.04587177 -0.08210942 -0.04341977 -0.05792947
000280 59 e8 f7 bd d2 29 e8 3d c1 b7 ee 3d f7 33 83 bd
       -0.12104864 0.113361016 0.11656142 -0.06406396
000290 07 7d ed bc a7 2d 14 3e 6a 2a 7f 3c 40 37 66 3d
       -0.028990282 0.1447054 0.015574077 0.056205034
0002a0 20 6b 8d 3c d7 08 ff bd 12 9a b1 bd df 6e fc bc
       0.017262995 -0.12452858 -0.08671965 -0.030814586
0002b0 67 11 cd bd fc 6a c6 3d cc 1f 41 bc b3 cf a9 bb
       -0.10013085 0.096883744 -0.011787366 -0.0051822304
0002c0 ee fa 13 3d fd b8 b1 bc 5f cc db 3d bf ba f3 bd
       0.036127977 -0.021694655 0.1073234 -0.11900853
0002d0 15 b7 06 3e 8f 4f 55 3d 48 3a 28 3d 8d 05 f5 bd
       0.13155778 0.052077826 0.041071206 -0.11963949
0002e0 a5 d2 c0 3d 3f 11 bd 3d 84 b4 1f bc 00 ca c0 bd
       0.09415177 0.09231805 -0.009747628 -0.094135284
0002f0 0e 3e 0c bb f9 d3 9a 3d 9e 47 7b bd 7c ab 8f bd
       -0.0021399292 0.07559962 -0.061347596 -0.0701513
000300 85 0f 57 3d e9 18 43 3d 84 6f 3a bd 2c a1 f6 bd
       0.052505035 0.047631178 -0.045516506 -0.1204246
000310 b8 ab b5 3d bc b8 a1 bc 9b f2 1b 3d bd bf b9 bd
       0.088706434 -0.019741409 0.038073163 -0.09069774
000320 25 eb 52 bb 29 a5 2f bd d4 bc e6 3d 67 ba bb 3b
       -0.0032183614 -0.04288212 0.11266485 0.005729008
000330 b9 e6 9b 3c d0 9b e3 3c 0a fb 0e be 23 23 8f bd
       0.019030916 0.027784258 -0.13962951 -0.06989124
000340 67 4f 96 3d d9 87 ab 3d 8c 6e 12 3c 59 77 ce bd
       0.073393635 0.0837552 0.008937489 -0.100813575
000350 3d c4 8a bd 01 04 8f bd a9 e9 a9 3d 97 ad 14 3d
       -0.06775711 -0.069831856 0.0829652 0.03629836
000360 ac e4 8e bd 8a ed a2 bd 3f 75 fa 3d 18 e8 03 3c
       -0.069772094 -0.07955463 0.12229394 0.008050941
000370 83 2d 06 3e 04 e8 54 bd 26 2d 06 bd 00 f5 d9 3d
       0.13103299 -0.05197908 -0.0327579 0.10642433
000380 ed 12 dc 3d f9 c6 83 3c 57 19 d0 bc a0 82 ed bb
       0.10745797 0.016086088 -0.025402708 -0.0072482377
000390 fc f2 e5 3c 08 e7 62 bd cd 23 8c bc 47 8f 4c 3d
       0.028069966 -0.05539611 -0.017106915 0.049941327
0003a0 28 37 b5 3d db c5 b8 3c 29 38 df bc 7f 4b 12 3c
       0.08848411 0.022555282 -0.027248459 0.0089291325
0003b0 f4 98 0f 3d 98 c3 c3 3d 46 44 57 3d 5d 6f 35 3d
       0.035057977 0.09558791 0.052555345 0.044295657
0003c0 b1 44 18 bc f3 da 1b 3b 8f d4 c8 bd d3 29 e6 bd
       -0.009293721 0.0023781627 -0.09806167 -0.11238446
0003d0 17 d7 62 3c 3a f9 bd 3d a0 e0 59 bd c1 b7 5a 3d
       0.013845227 0.09276052 -0.053192735 0.053397898
0003e0 c9 19 65 3d 83 ec 26 bd d1 6a 80 bc 8f ae f6 bc
       0.055932794 -0.0407529 -0.015675934 -0.030112533
0003f0 61 83 40 ba 53 eb 63 bc f0 0b 8c 3d 16 fb 83 bd
       -0.0007343796 -0.013911086 0.068382144 -0.06444375

lstm1.bias_ih_l0 f4 [256]
000000 68 11 09 3d 8d a9 fe bd fe 85 d2 bd fd 98 fc bd
       0.033463866 -0.12434683 -0.10279463 -0.12333868
000010 16 ef 14 3c 5c 10 57 bc b3 9f cb bd 87 f1 cb bd
       0.009090206 -0.013126459 -0.099425696 -0.09958177
000020 f2 27 bb bc ad ae ff bd bb aa 4f bb a3 cb e9 3d
       -0.022846196 -0.12484489 -0.0031687457 0.11415794
000030 5a 8a 7a 3b 8c e0 95 bd f0 66 8b bc 98 e8 eb bd
       0.0038229437 -0.073182195 -0.017016858 -0.11518973
000040 77 fb 39 bd 75 9d 9a 3d 8e 55 ad bd 6e 4f f6 3c
       -0.04540583 0.07549564 -0.08463584 0.030067172
000050 92 72 a2 3d 9c 40 20 bc 8d a2 e9 3c 38 2f c7 bd
       0.07932009 -0.009781029 0.028519893 -0.09725803
000060 cf f2 b7 3d 0c b9 f0 3c d0 50 8a 3d 65 e9 09 bd
       0.08981859 0.029385112 0.06753695 -0.033669848
000070 66 91 62 3d e5 e3 9f bd 7f 8e f9 3c 34 ee de bd
       0.055314444 -0.07807139 0.030463455 -0.108852774
000080 62 dd 98 bd fa a2 06 be 62 66 a4 3b c3 19 0f 3e
       -0.074641004 -0.13148108 0.005017088 0.13974671
000090 e1 a9 f9 3d 78 40 c1 bd cc f6 0c be 0f f5 6f 3d
       0.12190605 -0.094361246 -0.1376602 0.058583315
0000a0 64 c5 e0 bd 99 5e ef bd f1 18 a5 bd a5 82 3a bd
       -0.10975149 -0.11687965 -0.08061398 -0.04553475
0000b0 81 19 ba bd c9 32 e3 3d 52 9e 1d 3a e2 11 9e 3d
       -0.09086896 0.11093671 0.0006012666 0.077182546
0000c0 02 08 3b 3d 6e 75 ba bd 27 ed e2 ba 18 85 a4 3d
       0.045661934 -0.09104429 -0.0017313109 0.08033198
0000d0 3a 7f 92 ba 0e 77 ba bd c9 bb c9 3d 83 8f e0 bd
       -0.0011176832 -0.09104739 0.0985027 -0.10964873
0000e0 50 93 f0 bc 7d c2 c9 3d 06 d1 2f 3e 8a e9 8d bc
       -0.02936712 0.09851549 0.1716958 -0.017323274
0000f0 77 2b 9f bd 38 9f 3f bd bb ab d2 3d 78 ed 79 bd
       -0.07771962 -0.046782702 0.10286661 -0.061017483
000100 6b 8b df bd 3d 08 3c 3d 8d 7d 11 be 9a 2b de bd
       -0.10915264 0.045906294 -0.1420805 -0.1084816
000110 87 9b ac bd a1 08 4c 3d 5d 76 f6 bc 0d 11 ad bd
       -0.08428102 0.049812917 -0.030085737 -0.08450518
000120 34 69 03 3e bb be 8f 3d f5 e7 e1 3c e3 57 b8 bd
       0.128331 0.07018801 0.027576426 -0.09001138
000130 46 fd 0c be 06 95 08 3e 55 e2 78 bd 65 34 64 3d
       -0.13768491 0.13338098 -0.060762722 0.05571403
000140 e1 13 59 3c cd 9c 34 3d c0 51 bd bc 22 3f ec 3d
       0.013249368 0.04409485 -0.02311027 0.11535479
000150 0b b2 c1 bd 36 41 ab bd e5 0c 64 3d 19 fd f0 bd
       -0.09457787 -0.083620474 0.05567636 -0.117670245
000160 d4 de 0f 3d 6d 6d ac 3d 50 2b 2c 3d 88 32 0d 3e
       0.035124615 0.08419309 0.042033494 0.13788807
000170 69 6a 4a bd aa e4 40 bd 89 bb e4 bd 17 ec e0 bc
       -0.049417887 -0.04709307 -0.11168582 -0.027456326
000180 ae 34 09 3d 38 70 83 3c 10 7c f2 3d e0 e5 7a bd
       0.033497505 0.016044721 0.11840069 -0.061254382
000190 ec d9 40 3c 15 9f 9f bd 3b 99 b1 3d a1 77 0b bd
       0.011770707 -0.07794014 0.086718045 -0.034049634
0001a0 f8 29 89 3d fe f6 e8 3d 86 3f 2d 3c b9 22 56 bd
       0.06697458 0.11375235 0.010574227 -0.052279208
0001b0 0a 31 d2 bb 1d 8d 27 3d 8d 13 06 bd b6 f2 f0 3d
       -0.0064145373 0.04090606 -0.03273349 0.117650434
0001c0 12 71 a5 bd 69 d0 f3 bc 22 d2 37 3c 82 f6 e4 bd
       -0.08078207 -0.029762464 0.011219533 -0.1117983
0001d0 55 cc 16 3e 24 de 19 be 26 a3 bf 3c 8a 11 a4 3c
       0.14726384 -0.15026146 0.023393225 0.020027895
0001e0 0c 91 99 3b ec ed 8a 3d 09 21 65 3c 0a c0 4c bd
       0.0046864804 0.06783661 0.013984927 -0.04998783
0001f0 e7 6b 63 3d 9c 1d 84 3d 2f 9b 8d bd 08 98 57 bb
       0.055522826 0.0645096 -0.069143645 -0.0032897014
000200 0a 56 fb 3d 9b 21 4f 3c 67 ea ab bc da c8 92 bd
       0.1227227 0.0126422895 -0.020985795 -0.07167216
000210 70 9e 8a 3d 1d 2b a1 3d 11 5f 08 3d e9 64 a6 3d
       0.06768501 0.07869551 0.033293787 0.08124716
000220 9b f2 0c 3e 9d a8 4d 3c ed a3 11 be 00 52 58 bd
       0.13764422 0.012552408 -0.14222689 -0.052812576
000230 2f 36 c2 bd da 26 fc 3d 0e 17 4b bd 24 7c cf 3d
       -0.09482991 0.12312098 -0.049582534 0.101311
000240 f8 b2 ee bd fc a0 d4 bc 92 bc 3c bc b9 c9 1a 3d
       -0.11655229 -0.02595567 -0.011519568 0.037790034
000250 e5 5f 0d be 19 41 12 3d 26 84 d2 bd 04 33 d3 bd
       -0.13806112 0.035706613 -0.102791116 -0.10312465
000260 36 38 10 38 59 fe 80 bd bc 23 54 3d 6a 28 fc 3c
       3.4384626e-05 -0.06298513 0.05179189 0.03078099
000270 dd 08 99 bd 78 83 8f bd 06 01 2e 3d 5f 2b a1 3d
       -0.07472394 -0.070074975 0.042481445 0.078696005
000280 2e f2 78 3d 97 0b 65 3a 46 d4 da 3d 4e 20 d7 3d
       0.060777836 0.0008737384 0.10685019 0.105042085
000290 05 6b 6b 3d 6f f2 72 3d bf d3 ee 3d 13 a9 57 bd
       0.05747511 0.059313234 0.11661481 -0.052651476
0002a0 9f 10 7e 3c a0 1c be bc 21 81 7f bd 77 57 7c 3d
       0.015506892 -0.023207009 -0.062379006 0.06160685
0002b0 5b 19 ec bd 40 fd dc 3d f0 6f b2 3c e3 e8 5c bd
       -0.11528274 0.10790491 0.021781892 -0.053933036
0002c0 eb 07 19 bd 9b 5f bb 3d ff 1b 29 3c 99 21 c3 bd
       -0.037361067 0.09149095 0.010321616 -0.095278926
0002d0 6a 59 a5 bd 5b f6 0c 3d 3a 05 09 bd 03 50 2b bb
       -0.08073695 0.03441463 -0.03345225 -0.002614022
0002e0 47 66 d2 3d 5f 32 ea bc 94 76 1c bd eb cf 99 bd
       0.10273414 -0.028588472 -0.038199022 -0.0751036
0002f0 17 e3 c3 bd 86 d1 80 bc 9f 51 c3 bd 81 be a3 bd
       -0.09564798 -0.015724909 -0.09537052 -0.0799532
000300 72 b5 a8 bd 84 9f fd bc 81 36 ef bd aa 49 69 3d
       -0.08237733 -0.030959852 -0.11680318 0.056955017
000310 5c a9 d5 3c dd 43 a4 3d f2 76 aa 3d 4d 82 6c 3b
       0.026081733 0.080207564 0.08323468 0.0036088408
000320 90 86 02 3d a1 0d a8 3d cf f6 0d 3d c7 81 00 3c
       0.03186661 0.082057245 0.034659203 0.007843441
000330 0a ad f3 bd cb ed 49 3d 2c 2c a1 3d 21 20 b2 bd
       -0.11898239 0.049299043 0.07869753 -0.08697534
000340 50 de 17 bd 6a 29 80 bd 94 5b 8b 3d d4 5b 84 bc
       -0.037077248 -0.06257899 0.068045765 -0.016157068
000350 56 aa f8 bd f0 4a eb bc 02 72 5a 3b 94 f0 f8 bc
       -0.12141864 -0.028722256 0.0033332114 -0.030388154
000360 bb 20 40 bd be 59 85 3d 5b da be bd f2 21 f6 3c
       -0.046906214 0.065112576 -0.09318992 0.030045483
000370 53 a0 9c 3d c0 62 7d bc 33 11 89 3b 1b 8a d1 3d
       0.07647767 -0.015465438 0.0041829585 0.1023142
000380 f3 ec cb 3c 0a b3 5c 3c b3 0f 1e 3e 51 e3 4b bd
       0.02489326 0.013470421 0.15435676 -0.049777333
000390 86 8d e1 3c 1e d2 1b 3b af 63 e0 bd e6 d5 3d bd
       0.027533304 0.0023776363 -0.10956513 -0.046346568
0003a0 cd 33 a5 3d f1 ab 2e 3d 88 2d db 3b 9b 95 f6 bc
       0.08066521 0.042644445 0.0066887774 -0.030100634
0003b0 81 a3 df 3d 9e 21 03 3c 1d 1e 42 3d 6a a5 1a 3d
       0.10919858 0.00800362 0.047392 0.037755407
0003c0 07 52 58 bd 62 f7 03 be 55 d2 a6 3d cf 02 e8 bd
       -0.052812602 -0.12887338 0.081455864 -0.11328661
0003d0 c9 ff 9c bb 42 ca 8a bd d0 bf 5d bd dc f9 98 bd
       -0.004791234 -0.06776859 -0.054138005 -0.07469532
0003e0 8c e5 76 3d ea c1 01 3e 1b da 84 bd 40 74 97 b9
       0.060277507 0.12671629 -0.06486913 -0.00028887577
0003f0 37 57 38 bd 23 78 e2 bd d1 91 ad bc a2 e9 54 bb
       -0.04500505 -0.110580705 -0.021187695 -0.0032487889

lstm1.bias_hh_l0 f4 [256]
000000 0f ff b7 3c 96 28 37 3d ed 6d 44 3d 35 16 c3 3d
       0.022460489 0.04471644 0.047956396 0.0952572
000010 8c 6d 08 3e 5c b2 96 3d 1e 73 a1 bc b3 5d d5 3d
       0.13323039 0.07358238 -0.019708212 0.10418262
000020 b7 a2 02 3e 90 aa 79 3d 1f 9c 24 3e f1 43 b1 3c
       0.12757383 0.060953677 0.1607518 0.021638842
000030 4e 8c 96 3c 07 d3 78 3d 7b 5d e3 bd 4d 1a 0e bd
       0.01837745 0.060748126 -0.11101814 -0.03469305
000040 1b 0c 09 3c eb 31 a7 3d f0 ff 90 bd 60 23 55 3d
       0.008364703 0.08163818 -0.07080066 0.05203569
000050 32 d3 5b bd 47 fb a7 3d 6e 22 bb 3d 23 ce 25 3d
       -0.05366821 0.08202224 0.09137426 0.04047979
000060 4d 7d b4 3d 04 c5 85 3d 4e a3 bd 3d 16 55 bf 3c
       0.08812962 0.065317184 0.092596635 0.023356002
000070 6c f0 e8 3d d3 ff 8c bd 79 be 16 be 3c 8f aa 3d
       0.11373982 -0.06884732 -0.14721097 0.08328101
000080 04 fe 8c 3c a5 20 76 bd 3e da 03 3e d3 fe 04 3e
       0.017210968 -0.060089726 0.12876222 0.12987833
000090 46 ff db 3d 61 d2 ed 3c eb 1c fb bd f3 86 f8 3c
       0.10742049 0.02903098 -0.12261375 0.030337786
0000a0 66 4d 17 3d 0c 49 25 bc 57 fc 89 bd 32 40 dd bd
       0.036939047 -0.0100882165 -0.06737583 -0.1080326
0000b0 6f b9 97 3b 31 9b da 3d a6 a1 fc 3d ec 03 82 3d
       0.0046302597 0.10674132 0.123355195 0.06348404
0000c0 4b e3 c5 bd ea 74 a4 bd e9 df ad 3d f2 b3 ae bd
       -0.09662493 -0.08030112 0.08489973 -0.085304156
0000d0 70 7c 89 3d e2 a0 c0 bd c5 81 52 bc 01 bf c9 3d
       0.06713188 -0.09405686 -0.012848322 0.09850884
0000e0 c7 89 ab 3c 07 c1 c2 3d c2 fb 2a 3e 2e cb 89 bd
       0.02093972 0.09509473 0.166976 -0.067282066
0000f0 52 c6 0c bb 0d d2 6a bd 9f 5d 9e bd 7d b6 c8 bd
       -0.0021480513 -0.057329226 -0.077327006 -0.09800432
000100 d0 ba 2d bd ab 9b 13 be 8f 1f 28 bd fe f0 b3 bd
       -0.042414486 -0.14414851 -0.04104572 -0.087862
000110 4d ff 8d bd a0 ed e5 bd d5 09 85 bd 37 b1 cf 3d
       -0.069334604 -0.11226964 -0.06496016 0.10141223
000120 a1 3b 05 3e 1a 33 32 3d fe 13 bb 3d 32 19 ef bc
       0.13011028 0.043505765 0.091346726 -0.029186819
000130 da f2 c1 3d 7a 71 64 3d 56 bb be 3d dc 56 ee 3c
       0.094701484 0.055772282 0.09313075 0.029094152
000140 a6 4e a8 3d b4 c5 ee bb 84 7f d9 bc f4 3a e4 3d
       0.08218126 -0.0072867516 -0.026550062 0.11144057
000150 55 0f 81 3c 17 a7 5c 3d ec aa 71 3b 82 57 b1 bd
       0.015754381 0.053870287 0.003687556 -0.08659269
000160 45 1a c1 3c 5a 16 55 bd 50 0c 53 3d 70 46 ef 3c
       0.023572097 -0.05202327 0.051525414 0.029208392
000170 81 3a 57 3d f0 b6 00 be 3a 99 1e bd 50 73 b3 3b
       0.052546028 -0.12569785 -0.038720347 0.005476393
000180 19 58 b5 3c dd df 1c 3d bb bf da 3b 51 fb 91 3d
       0.022136735 0.03829943 0.006675688 0.07128013
000190 95 ad 01 3e d3 b8 1a be e7 5c b1 3d 13 c3 33 bd
       0.12663873 -0.15109567 0.08660298 -0.04388721
0001a0 44 43 d2 3c 11 ab 29 bc 68 11 53 3d a0 43 df bd
       0.02566684 -0.010355727 0.05153027 -0.1090157
0001b0 8c f1 12 bd 43 fd a1 bd c7 02 a0 bd fa 88 c2 bc
       -0.03587489 -0.07909634 -0.0781303 -0.023746956
0001c0 a7 34 85 3d d7 eb 69 3d 34 f6 dc 3d 9a b6 92 3d
       0.06504183 0.05710968 0.10789147 0.07163735
0001d0 1d 20 c6 3d c4 fd 5e 3d 6c 8f b4 3d ca 2c 41 bc
       0.09674094 0.05444123 0.08816418 -0.011790464
0001e0 ce ed 8e 3d 38 2a e7 bd 80 73 5a 3d d1 00 11 3e
       0.069789514 -0.112873495 0.053332806 0.14160468
0001f0 a0 23 42 bc c6 1a fc 3c 86 4e ce bc 69 47 c1 bd
       -0.011849314 0.030774485 -0.025183927 -0.094374485
000200 1f 3d 9b bc bb d1 0c bc ea 78 eb bd 9b 36 dd bd
       -0.018950043 -0.0085949255 -0.11497672 -0.10801431
000210 1e e7 b1 bd ee 3d 01 be 4d 9f 3f bb 4d 3e ac bb
       -0.0868666 -0.1262128 -0.0029239238 -0.0052564503
000220 b0 c8 1f 3d c0 fe 0a be cf 4b 74 3c f6 81 21 3d
       0.03900975 -0.13573742 0.014910652 0.03943058
000230 bd c7 a9 bd 52 d7 a7 bd d2 f4 02 3e 54 72 b7 3d
       -0.0829005 -0.08195366 0.12788704 0.08957353
000240 40 36 aa 3d a0 31 19 bd 2a e5 71 3d 33 66 84 bd
       0.083111286 -0.03740084 0.05905644 -0.064648055
000250 65 d5 92 3c da a4 d9 3d 4e 3a 2b 3d 17 79 d0 bc
       0.01792402 0.10627146 0.04180365 -0.025448365
000260 bb 02 b1 3b d5 88 f0 3c 16 06 05 bc 33 1e 55 3d
       0.005401937 0.029362122 -0.008119127 0.052030753
000270 c0 7d dd bc 19 cd 22 3d 1e df 40 3c 1d 7c 9c bd
       -0.027037501 0.039746378 0.011771945 -0.0764086
000280 62 4b 92 3c 5e 0e 88 bc ec d6 d1 bd 9a 74 9d bd
       0.017858211 -0.016608413 -0.10246071 -0.076882556
000290 d8 8b 00 be 5f 41 10 bd b1 30 67 3d 5c 56 92 3d
       -0.12553346 -0.035218593 0.05644292 0.07145378
0002a0 c9 ba ec 3d eb 88 d7 bd 29 9e a1 3d 28 92 99 bd
       0.11559064 -0.10524162 0.07891495 -0.0749858
0002b0 77 0f 38 3d b0 92 9a bd 4f ec 6f bc 6c 6b be bd
       0.044936623 -0.0754751 -0.014643743 -0.09297833
0002c0 e4 42 99 3b 69 80 85 3d b9 c3 86 bd 21 85 c8 3b
       0.0046771634 0.06518633 -0.065803 0.006119386
0002d0 89 fc af bd 90 d6 18 bd 1a d9 e4 3d 47 11 d6 bd
       -0.08593089 -0.037313998 0.11174221 -0.10452514
0002e0 04 7b 00 3e e6 39 f1 3d 09 ad f4 bd 88 62 bc 3c
       0.12546927 0.117786214 -0.11947066 0.022996202
0002f0 5b 99 9f bd be 89 e5 bc 77 13 d9 3c c5 a9 53 3c
       -0.07792922 -0.028019782 0.02649854 0.012918894
000300 0b 35 76 bd f4 ef 0f 3c 33 57 d3 bb 8d e2 07 3d
       -0.06010918 0.008785237 -0.006449604 0.03317504
000310 31 ff 0a 3e 2f d4 52 3d 88 1c 84 3d 42 82 0f 3d
       0.1357391 0.051471885 0.064507544 0.035036333
000320 9a 6b 29 bd 26 ce 6a 3c f6 25 dc bc 3d 86 33 bd
       -0.041362382 0.014331376 -0.02687357 -0.04382919
000330 07 f1 7f bd ea 56 a4 3d be 0b 89 bd 05 a6 9f 3d
       -0.06248572 0.0802439 -0.06691693 0.077953376
000340 1b ca d4 3d 5c 98 88 bc f2 92 bb 3d 54 90 a0 bd
       0.10390111 -0.016674213 0.09158887 -0.078400284
000350 80 f9 f3 bc 34 ce ba 3d d2 c0 c5 bd 7f 1e 08 be
       -0.029782057 0.091213614 -0.09655918 -0.13292883
000360 27 03 5b 3c fb cd df bd 53 6d ac bd 76 db a9 bc
       0.013367451 -0.109279595 -0.084192894 -0.02073453
000370 79 7f aa bd 1f ab 8a 3d e3 bb 6f 3d fb fa 4a 3d
       -0.08325095 0.0677092 0.058528792 0.04955576
000380 bc e9 41 bd df 73 90 bd 38 25 db 3c 5a c0 d5 bd
       -0.047342047 -0.07053351 0.026751146 -0.10437079
000390 30 31 dd 3d a4 ac 0c 3b 4b d8 cb 3d 21 f0 0a 3e
       0.108003974 0.0021465207 0.09953364 0.13568164
0003a0 e1 eb 9c bd e0 5e 3a 3c 3c fc 19 3e 4c 20 fe 3d
       -0.07662178 0.011375159 0.15037626 0.12408504
0003b0 9e 39 64 bd 2b 1d 8c bb d0 62 82 bd 4a 9d 2c 3d
       -0.05571901 -0.004275938 -0.06366503 0.04214219
0003c0 2b 37 89 3d ff 7b f8 bc 36 de d5 3d 2d 22 a5 bd
       0.066999756 -0.030332563 0.10442774 -0.08063159
0003d0 3c 87 fb 3d 2c 75 f3 bd 04 77 61 3c 17 92 c6 3d
       0.12281653 -0.11887583 0.013761286 0.09695833
0003e0 e7 5c df bd e2 7d 44 bc 01 a9 05 3e 88 80 59 3b
       -0.109063916 -0.011992903 0.13052751 0.0033188183
0003f0 b3 fd 1a 3e 33 8f c4 bd a5 c0 74 bd e8 e3 01 be
       0.15135841 -0.095976256 -0.059754033 -0.12684596

lstm2.weight_ih_l0 f4 [128, 64]
000000 82 51 c0 bd 05 44 2f be ea 1b ab 3d 43 d6 04 3e
       -0.093905464 -0.17115791 0.083549336 0.1297236
000010 ab 21 34 be ea f1 15 3d 9c 59 68 bc d0 d2 64 3d
       -0.17590968 0.03660766 -0.014181521 0.05586511
000020 e1 72 08 be 8f 65 52 3d c6 3f 10 3e e1 0e 2c be
       -0.13325073 0.051366385 0.14086828 -0.16802551
000030 02 6e f1 3d c8 71 83 3d c3 ab 18 be 4a 42 34 bd
       0.117885605 0.064181864 -0.14909272 -0.04400853
000040 15 b6 e0 bd e4 fb 32 3e 4c 2a 94 3d 5f 88 08 3e
       -0.109722294 0.17478901 0.0723463 0.13333271
000050 ef 30 0c be 02 4a cf bd 5c 8f 37 be d1 e5 3d 3d
       -0.13690542 -0.10121538 -0.17925781 0.046361748
000060 98 58 ba bd 75 79 2c bd a4 9c 41 bc 20 eb 36 be
       -0.09098929 -0.042108018 -0.011817131 -0.1786313
000070 e1 fc 4e bd 83 b8 40 bd 50 84 d3 3d ab 74 77 3c
       -0.050534133 -0.047050964 0.10327971 0.015103499
000080 cc 60 19 be 44 a2 a9 3a 39 83 0a be 5a fe cc 3c
       -0.14978331 0.0012942036 -0.1352662 0.025023628
000090 33 8b f4 3d 7a 9e 80 ba 44 6e 8f 3d b8 b3 bb bd
       0.11940613 -0.0009812855 0.070034534 -0.09165138
0000a0 a0 65 52 3d 9c fb 4d 3c 72 90 2c be 45 31 06 be
       0.05136645 0.012572195 -0.16851977 -0.13104732
0000b0 12 6f 1f 3e 11 53 37 3e 3a 30 19 3e e6 c6 22 3e
       0.15569714 0.17902781 0.14959803 0.15896186
0000c0 e8 cd 50 bd 19 5b 5b 3c 09 07 18 be 86 24 04 3e
       -0.050977618 0.013388419 -0.14846434 0.12904558
0000d0 18 08 ac 3d af 80 0e be fc bd 0d bc 2c db 42 be
       0.08399981 -0.13916276 -0.008651253 -0.1902892
0000e0 d1 f2 66 bd e6 4a af bd 1a aa e5 bc 5a 18 11 3e
       -0.05638391 -0.085592076 -0.028035212 0.14169446
0000f0 d4 05 39 bd 37 2b 48 be 1b b8 25 be dc 76 88 bd
       -0.045171574 -0.19547735 -0.16183512 -0.066632956
000100 39 41 13 3e cd a8 c9 3d b0 ab 35 bd a6 17 62 bc
       0.14380349 0.09846649 -0.044353187 -0.013799584
000110 e6 79 b6 bd 24 2d ce 3d 91 1e c7 bd 6c ee 90 3d
       -0.08909969 0.10067204 -0.09722627 0.07076725
000120 2a 49 49 be c3 e7 57 bd cc 62 9f 3d cd 0b 12 3e
       -0.19656816 -0.05271126 0.07782516 0.14262314
000130 a8 5d 09 be 3c a8 f6 bd 65 14 05 be 94 64 29 3e
       -0.13414633 -0.12043807 -0.12996061 0.16542274
000140 e8 82 13 3e 43 01 20 3d a8 87 2d 3e ca 28 08 3c
       0.14405406 0.039063703 0.1694628 0.008310506
000150 fd 6d 0a 3e 36 a0 36 3b ac 55 4a bd e0 35 1e 3e
       0.1351852 0.002786649 -0.04939811 0.15450239
000160 96 a9 e2 bd 79 c2 b5 3d 8b 6d db 3d 5e 73 3a 3c
       -0.11067502 0.08874983 0.10714253 0.011380045
000170 e2 f2 4f 3d 1a 9d 3d bd e4 dd 35 3e 86 ee c1 3d
       0.05076874 -0.0462924 0.17760426 0.09469323
000180 d9 1b 60 bd fd f5 28 be 53 f5 77 3d 8e 2f b0 3d
       -0.054714058 -0.16500087 0.060536694 0.0860282
000190 51 25 3c 3d 3c 56 ea bd 6f 83 27 3e b9 b5 ce ba
       0.045934025 -0.11442229 0.16358732 -0.001577071
0001a0 b1 3e ee 3d 4c 4d 69 3c 27 18 1b 3e 04 d6 59 bd
       0.11633051 0.01423962 0.15145932 -0.053182617
0001b0 4d 5d be bd ee e3 12 be 41 b5 b3 bd 06 64 43 bd
       -0.092951395 -0.14344761 -0.08774806 -0.04770281
0001c0 fd 55 9e 3d 57 05 0b 3e 5c bf 85 3d ac 94 08 3c
       0.07731245 0.13576256 0.065306395 0.008336227
0001d0 68 b0 02 bd ef c5 53 be d6 6b 2f 3d ed 7d 02 be
       -0.031906515 -0.20680974 0.04282745 -0.1274335
0001e0 66 95 0d be b4 53 c0 bd b8 0f bf bd 45 4f ff 3d
       -0.13826522 -0.09390965 -0.0932917 0.12466291
0001f0 ee 4f f0 bd b1 5a 23 3d 6c ed 45 bc 2e 20 1c 3e
       -0.117339954 0.039881412 -0.012080532 0.1524665
000200 62 91 cb 3c 3f 24 f2 3d f5 3e fb bd c2 00 11 3e
       0.024849597 0.1182332 -0.122678675 0.14160445
000210 d6 83 c4 bd b9 8d 0c be e1 cb 10 3e cf ee 3a 3e
       -0.09595458 -0.13725938 0.14140274 0.18255161
000220 75 c2 99 3d 50 c9 37 bd 6c 97 f7 bd 02 be 6c 3d
       0.07507793 -0.04486972 -0.12089428 0.057798393
000230 28 cf 33 be 1c 13 f0 3d c8 97 55 3d c3 9a 2a 3e
       -0.17559493 0.11722395 0.052146703 0.166606
000240 45 2a ab bd aa fb 46 3e 79 49 d7 3d b5 b7 ce bd
       -0.08357672 0.1943194 0.10512061 -0.10093633
000250 9f d8 03 3e 1f 7a 1b be 0a 0f 4a bd ac f5 0f be
       0.12875603 -0.15183304 -0.04933075 -0.1405856
000260 36 63 08 ba af b7 2f 3e 30 10 02 3e 8d c6 f8 bd
       -0.0005202772 0.17159913 0.12701488 -0.121472456
000270 1f 6e 04 be d2 20 46 3c cd 00 e5 bd be c3 4c bc
       -0.12932633 0.012092786 -0.11181793 -0.01249784
000280 3c 86 dd 3d e8 56 11 bd 81 74 f1 bd 97 9e 3a 3e
       0.10816619 -0.03548327 -0.117897995 0.1822456
000290 b9 48 34 be 52 88 37 3e af 39 53 3c 5b 59 be 3c
       -0.17605866 0.17923096 0.012892171 0.023235967
0002a0 14 24 8b bd dc d9 eb 3d 7d 7a bb b9 ce 55 a9 bd
       -0.06793991 0.11516163 -0.0003575868 -0.08268319
0002b0 fd e8 9d 3c a6 47 f6 3a 16 29 1a 3d fa 6e 92 bd
       0.019276137 0.0018789663 0.03763684 -0.07150073
0002c0 78 a2 d3 3d 54 e4 e9 bc 0e 41 46 be f6 64 c1 3d
       0.10333723 -0.028551258 -0.19360754 0.09443085
0002d0 55 ea 89 bd 17 5e d3 bd 1a ff aa 3d 6f c2 07 bc
       -0.067341484 -0.103206806 0.08349438 -0.008286103
0002e0 9e 5b c7 bc ac 59 8a 3c ce c5 da 3c 66 53 29 be
       -0.024335679 0.016888462 0.026705649 -0.1653572
0002f0 61 d7 ed bd ea cf 75 bd 81 6c 45 3e ce 28 2c be
       -0.11613346 -0.060012735 0.19279672 -0.16812441
000300 47 3e 05 3e 11 7c 0e be 35 77 9c 3d 57 4c e9 3d
       0.13012038 -0.13914515 0.076399244 0.11391514
000310 60 8a b7 3d 42 31 58 3b 51 cb 12 be 92 9d 01 3e
       0.0896194 0.0032988344 -0.14335372 0.12657765
000320 bd e7 d1 bc c2 ce 4d 3e 99 21 c6 bd c0 e9 9d bd
       -0.025623197 0.20098403 -0.09674377 -0.077106
000330 46 20 64 3d d8 47 94 bd 77 90 ae 3d 27 b0 d5 3d
       0.05569484 -0.072402656 0.08523648 0.10433989
000340 0e e7 0a 3e 8f 62 9f 3d f2 83 82 bd ed c7 be 3d
       0.13564703 0.077824704 -0.06372823 0.093154766
000350 6c fd 7a 3c 6e 93 3d bd c3 b8 c7 3d bf a1 1a be
       0.01531921 -0.046283178 0.097520374 -0.15100764
000360 f9 f8 2d 3b 14 87 fb bd dc 87 0b be 02 50 6c 3d
       0.0026546104 -0.122816235 -0.13626045 0.05769349
000370 d3 1a 0f 3e 7e b2 ee 3d 2f c3 80 3d d1 80 0e 3d
       0.13975076 0.116551384 0.06287228 0.034790818
000380 12 1f c9 3d 69 12 6b bd 32 9e 20 3d db 34 a7 3d
       0.09820379 -0.057390604 0.039213367 0.08164378
000390 d7 c8 d7 3d cd ad e8 bd cb d6 73 3c 3e bb f4 bd
       0.10536354 -0.11361275 0.014882754 -0.11949776
0003a0 fc 44 1b be 71 bb be 3d 26 64 6c 3d 48 40 44 3d
       -0.15163034 0.09313095 0.057712696 0.047912866
0003b0 4c 9f ef bd d0 8c 07 3e 8a 78 d8 bd 71 30 b6 bc
       -0.11700305 0.1323731 -0.10569866 -0.022239896
0003c0 e1 8d 24 be 02 8c 78 3d fb ec 98 3d dd 65 47 bd
       -0.16069748 0.060680397 0.074670754 -0.04868113
0003d0 c7 d9 39 3e ab cb 03 be b5 1b ff bb 21 f9 90 3c
       0.18149482 -0.12870662 -0.0077852854 0.017696919
0003e0 4d 72 3d be d1 91 88 bc f1 9e 6d bd 20 c9 1c be
       -0.18500634 -0.016671093 -0.058012906 -0.15311098
0003f0 de 14 d3 3c 16 25 00 3e fb 4c 70 3c 91 88 de bd
       0.025766786 0.12514147 0.014666791 -0.10865892

lstm2.weight_hh_l0 f4 [128, 32]
000000 af 2b a2 3d 38 07 68 bd bb af cf ba 15 98 0f 3e
       0.07918488 -0.05664751 -0.0015845218 0.14022858
000010 9f b5 d3 3d 4a cc 0c bd ac f1 b0 3d 54 32 2a be
       0.10337376 -0.034374513 0.08639845 -0.16620761
000020 82 4c 2a bd 38 47 0b be 13 11 9e 3d 4b 64 a1 3d
       -0.04157687 -0.13601387 0.077181004 0.078804575
000030 de c5 0d be cd 11 d2 bd b6 54 19 3e 0a 6f 28 be
       -0.13845012 -0.102573015 0.14973721 -0.16448608
000040 4c 29 4d 3b bc 43 e2 ba f3 29 14 bc 25 80 a2 bc
       0.0031305132 -0.0017262618 -0.009043205 -0.019836495
000050 0a fa 01 3e e1 4e 10 3e 56 48 11 3e c4 60 07 bd
       0.12693039 0.1409259 0.1418775 -0.033051267
000060 72 13 ee 3c 38 5a c0 bc 16 b4 e2 bd 83 f9 89 bd
       0.029062007 -0.02348052 -0.11069505 -0.06737044
000070 e2 1b bf bd 46 f3 c8 3d 95 27 e7 bd 4d b7 1a 3e
       -0.0933149 0.09812026 -0.112868465 0.15108986
000080 56 30 1f be 19 67 f0 b8 33 9b 0d 3e 3a 54 df bd
       -0.15545782 -0.00011463295 0.13828735 -0.10904737
000090 cb b9 a5 bd a9 18 17 bd ed 66 13 3e d9 b0 f8 bd
       -0.08092078 -0.036888752 0.14394732 -0.12143106
0000a0 e5 1b 36 3e 23 ee 88 bd 9f 26 b4 bc a0 8c 19 3e
       0.17784078 -0.06686046 -0.021991072 0.1499505
0000b0 b4 95 04 be b0 41 ba bd ef 9b bc bd a9 0c 10 3d
       -0.12947732 -0.0909456 -0.092094295 0.035168324
0000c0 c7 24 43 be a2 71 23 3e db 6b f0 3c 33 d5 33 bd
       -0.19056998 0.15961316 0.029348304 -0.043904494
0000d0 20 75 80 bd f0 25 a1 bd d7 da 87 bd ca 02 a8 bd
       -0.0627234 -0.07868564 -0.06633537 -0.08203657
0000e0 98 51 bf bb c3 98 12 be ee aa 5e 3d cf f6 fb bd
       -0.005838584 -0.14316086 0.05436223 -0.123029344
0000f0 44 8c 2e bd 44 5a 9d 3d 7b 3f b8 bd 3c 32 10 3e
       -0.042614236 0.076832324 -0.08996483 0.14081663
000100 7a 7f 37 3e 9c e3 27 3d 03 c4 8d 3d 75 2a 4e bd
       0.17919722 0.04098855 0.06922152 -0.05033346
000110 fe 60 ee 3c 2b e0 0a 3e 1d da a2 bd c3 c6 96 3d
       0.029098984 0.13562076 -0.07951758 0.073621295
000120 c1 ac c4 bd 41 b5 80 3b b0 b5 15 bd fb 21 09 3e
       -0.09603263 0.003927857 -0.036550224 0.13391869
000130 d3 ae a6 3d 38 8d b3 3d a0 f9 82 3d af c7 9d bb
       0.08138814 0.0876717 0.063952684 -0.004815064
000140 09 2c 68 3d 8e 0c 20 be 9c 8a b7 bd cc 1f 4d bc
       0.05668262 -0.15629789 -0.089619845 -0.012519788
000150 20 58 96 bd 4b 32 32 be 22 07 ff bc 23 43 6b 3d
       -0.07341027 -0.17401998 -0.03113133 0.057437073
000160 70 72 88 bc 3e 29 af bd 02 67 b1 3d e5 75 9a 3d
       -0.01665613 -0.08552788 0.08662225 0.07542018
000170 94 41 de 3c 08 38 9e 3d 39 10 8b 3d 0f 17 9a bd
       0.02713088 0.07725531 0.067902036 -0.07523929
000180 dd bb 56 bd b1 ee 78 3d 49 96 24 3d 12 3c 25 be
       -0.052425254 0.06077451 0.040182386 -0.16136196
000190 18 a1 bb bd ca be 11 be b2 c4 92 bd 89 e4 a1 bd
       -0.091615856 -0.14232937 -0.07166423 -0.07904918
0001a0 e2 1f 90 bc 48 58 56 3d d9 89 cc 3c 7b 41 f2 bd
       -0.017593328 0.052330285 0.024968075 -0.11828896
0001b0 50 39 f5 bd 1b e9 c5 bd ac c2 8e bd 4d 64 88 bd
       -0.11973822 -0.09663602 -0.069707245 -0.06659756
0001c0 0c 40 0d 3e d9 31 0a 3d 5b 3c ba bd db ff e6 3d
       0.13793963 0.033738945 -0.09093543 0.11279269
0001d0 3a c9 fe bd eb 4b 95 bd aa 97 5a 3d 12 f8 f6 bd
       -0.12440725 -0.07289871 0.053367294 -0.120590344
0001e0 3b e5 ee 3d 95 2f 9b 3d 6c 5c e4 3c f4 3f 29 be
       0.11664816 0.07577435 0.027876101 -0.16528302
0001f0 e1 f1 0c 3e 98 2d 1d be 34 70 b1 bd 60 1d c1 3d
       0.13764144 -0.15349424 -0.08663979 0.09429431
000200 bb ce 1f be f8 f4 af bd d2 95 8e 3d 4d fa b4 bc
       -0.15606205 -0.08591646 0.0696217 -0.022092009
000210 10 2d fd bd fe 02 47 3e e3 ee c8 3d 19 d6 d1 bd
       -0.123621106 0.19434735 0.09811189 -0.10245914
000220 10 6e d1 3d eb 34 eb 3d a9 45 b6 bd 73 27 a9 bd
       0.10226071 0.11484703 -0.08900005 -0.082594775
000230 a4 83 44 3b e2 f9 70 3c 77 19 ed 3d 20 c4 e8 bd
       0.002998569 0.014708014 0.11577123 -0.11365533
000240 ab c6 a7 bd 6d d5 6d 3d 95 fd e9 3c 90 58 1c bd
       -0.0819219 0.058064867 0.0285633 -0.038170397
000250 c0 78 b2 bb d1 2c db bd 4e c5 03 3e ff 39 24 be
       -0.0054465234 -0.107019074 0.12868235 -0.16037749
000260 3a 11 eb bd c1 e7 09 3e 2d c7 aa bd 8f b9 33 be
       -0.11477895 0.13467313 -0.08338771 -0.17551254
000270 d4 ea 33 be 71 c6 05 3e 6d fe bb 3d 97 e8 20 3d
       -0.17570049 0.1306398 0.09179387 0.039284315
000280 5c 28 45 be 14 f4 cd 3a 85 a8 59 3d 0a a7 ef bd
       -0.19253677 0.0015713 0.05313923 -0.11701782
000290 e8 45 0c 3e a6 db 80 3d bc f8 86 3d b5 e8 e7 bd
       0.13698542 0.062918946 0.06590411 -0.11323682
0002a0 68 ef d0 bd 6d 48 53 3e cb 09 13 3e 1d a6 c9 bd
       -0.10201913 0.20633097 0.14359204 -0.09846137
0002b0 50 f9 ab bd e8 59 f2 3d e3 cc f5 3c 6b 2c 22 be
       -0.08397162 0.118335545 0.030004924 -0.15837257
0002c0 2d e7 c8 bc c1 e8 95 3b 94 7f 16 bd 99 86 10 3e
       -0.024524296 0.0045748656 -0.03674276 0.14113845
0002d0 4f 82 ac bc 08 be d4 3d e2 4d eb bd 11 6a f8 3b
       -0.02105823 0.10387808 -0.11489464 0.0075810035
0002e0 c3 bb 2b 3e ac 50 d3 3c 2c 7d 02 be 9d 12 e0 3c
       0.16770844 0.025795303 -0.12743062 0.027352626
0002f0 05 e1 0e 3e e3 78 c2 bd 10 6d 9c 3d d0 8c 0f be
       0.13953026 -0.094957136 0.076379895 -0.1401856
000300 11 a5 06 be 40 c4 a3 bb 8f 7d 33 3e 16 2d c3 3d
       -0.13148905 -0.00499776 0.17528366 0.09530084
000310 c6 0c 28 bd 93 a7 6e bd 21 62 c1 3d 5a bf 2d be
       -0.041027807 -0.05826528 0.09442545 -0.16967526
000320 4b df 23 bd 91 ef 03 be 69 4b 05 3d c3 e4 b0 bd
       -0.04000787 -0.12884356 0.03254262 -0.08637383
000330 b2 49 15 3e 38 73 16 be 90 b1 38 bd 5b d3 8b bc
       0.14578894 -0.1469239 -0.04509121 -0.017068556
000340 63 58 05 be 3f 3e 82 3d d2 82 1d be 24 df f0 3c
       -0.13021998 0.06359529 -0.15381935 0.029403277
000350 bf d1 bf 3b 5e 80 14 3d 49 b9 24 be 6e 4b 80 3c
       0.005853861 0.036255233 -0.16086306 0.015660968
000360 2f 0c f9 3d 25 e7 e1 bb 56 a9 8b bc 27 c0 de bd
       0.12160527 -0.0068940097 -0.01704852 -0.10876494
000370 35 f2 bf bd 35 45 56 bc 6a 4b 8a bd 4a ca db 3b
       -0.09372369 -0.013078024 -0.06752665 0.0067074643
000380 4a 5d bb bc 7c 33 08 be 8a 34 d2 3d 23 c0 b5 bd
       -0.022871632 -0.1330089 0.10263927 -0.08874538
000390 d1 e4 c3 3d 8e dd b7 3d 7a 71 27 bd 12 45 e8 bd
       0.09565128 0.08977805 -0.040879704 -0.11341299
0003a0 58 67 46 bd cd 45 ac bc 86 45 70 bc d3 cd 64 bc
       -0.0484384 -0.021029377 -0.014665013 -0.013965088
0003b0 af f9 0c 3e 61 8b 18 3e 81 aa 0f be 71 0c 3d bd
       0.13767122 0.14896919 -0.14029886 -0.046154443
0003c0 54 a9 ce bd ca 84 8a 3d c7 9c 82 bd 32 9e f4 bd
       -0.100908905 0.06763609 -0.06377559 -0.11944236
0003d0 c7 6b 89 bc 93 0e 32 be d3 23 23 be 20 76 95 bc
       -0.016775025 -0.17388372 -0.15931635 -0.018244803
0003e0 48 3c 79 bd 74 e2 a7 bd d1 ee 4e bd 5e cd 15 3e
       -0.060848504 -0.081974894 -0.05052072 0.14629123
0003f0 04 db 2a bd 9a 02 a6 bd 26 22 2f be 0a 59 26 3d
       -0.041712776 -0.08105965 -0.1710287 0.040612258

lstm2.bias_ih_l0 f4 [128]
000000 01 23 9c bb 4b 19 19 3d 83 fe 8a bd ed dc ab 3b
       -0.004764915 0.037377637 -0.067868255 0.0052448423
000010 07 bc 8e 3d ce 06 7a 3d 4d 25 f9 3d 8b 30 2c 3e
       0.06969457 0.061041646 0.12165318 0.16815393
000020 ce 59 06 be bc 0c c7 3d f6 a5 8b 3c c5 87 0f 3e
       -0.13120195 0.09719226 0.01704691 0.14016636
000030 1f 5e 20 3e 7d a6 1d be e1 e0 dc 3c a8 c0 90 3c
       0.15660904 -0.15395541 0.0269627 0.01766999
000040 95 0f d6 3c 31 7f b4 3d f5 77 e8 bc ea d1 87 bd
       0.026130477 0.08813322 -0.028377512 -0.06631835
000050 43 d6 00 be 98 1b 89 bc cf e2 e4 bd cf e3 0a be
       -0.12581734 -0.01673679 -0.11176073 -0.13563465
000060 20 78 bb bb 77 bd 2e be 70 b7 48 3c 26 fa 42 3e
       -0.005721107 -0.17064463 0.012250766 0.19040737
000070 84 30 03 bc c9 b0 21 3e 06 02 82 3d 8e 9f 80 bd
       -0.0080071725 0.15790094 0.06348042 -0.06280433
000080 87 f3 5f bd fb 07 ca bd 33 ee c5 bc f5 ba 17 3d
       -0.054675605 -0.098648034 -0.024161434 0.03704353
000090 63 7c d6 3d eb c4 39 bd 1e 13 09 bd 56 55 c4 bd
       0.10472944 -0.04535381 -0.033465497 -0.09586589
0000a0 d1 c1 64 3d 88 e1 e7 bd 24 b8 92 3d fe 67 06 3e
       0.0558489 -0.113223135 0.07164028 0.13125607
0000b0 fe ab 53 bd 75 fd 1b 3a 4a 0e ed bc e1 ec d7 b9
       -0.051677696 0.0005950549 -0.028937478 -0.00041184484
0000c0 30 1c e0 bd 4a 40 18 be e0 c7 db bc f6 4b be 3c
       -0.10942876 -0.14868274 -0.026828706 0.02322958
0000d0 bb 30 20 3e 90 cf b6 bc 93 9b 1e 3e 59 d1 a2 3c
       0.15643589 -0.02231577 0.15489034 0.019875215
0000e0 a6 21 26 3e 75 f2 a3 3d 10 31 ed 3d b7 b3 49 bc
       0.16223773 0.080052294 0.115816236 -0.012310914
0000f0 dd 3e 40 3e 34 55 05 3e 72 69 cb bd e9 45 ad bc
       0.1877398 0.13020784 -0.099322215 -0.0211515
000100 c4 d4 ce bd c2 3d 05 3e e0 6e 09 bd 7b 07 89 3d
       -0.100991756 0.1301184 -0.033553004 0.0669088
000110 73 39 08 bd 6e 0d 19 be aa 14 13 be b9 67 fe bd
       -0.033257913 -0.1494653 -0.14363351 -0.12422127
000120 6f 0e f1 bc fa 73 93 bd 8c 06 e3 bd a7 31 35 be
       -0.029425828 -0.07199855 -0.11085233 -0.17694722
000130 9e b9 99 3d 23 14 21 3e 42 ff d2 3c 5a 74 a9 3d
       0.07506107 0.15730338 0.025756482 0.082741454
000140 58 06 1b bd 53 93 0c 3e 37 87 18 be 4d 4a 16 3e
       -0.037847847 0.13728075 -0.1489533 0.14676781
000150 e8 71 fc 3d 41 94 0a 3e ef aa a2 3c fa f1 10 be
       0.123264134 0.13533117 0.019856898 -0.14154807
000160 66 75 15 be 0e 40 04 be e5 c1 f2 3d 29 4a 5e 3d
       -0.14595565 -0.1291506 0.11853389 0.054269943
000170 36 25 2a 3e 5d e2 05 3e 02 e5 e6 bd 91 ec 27 3d
       0.16615757 0.13074632 -0.112741485 0.04099709
000180 18 17 14 bd 0f 72 7d 3d 49 60 f3 bd ad 8e 04 3e
       -0.036154836 0.061876353 -0.11883599 0.12945051
000190 e2 77 7f bd c1 a8 00 be 2f c4 0a 3e 3a 82 dd 3d
       -0.06237019 -0.12564375 0.135514 0.10815854
0001a0 b3 48 ce bd c1 b0 c3 3d 69 d0 8a 3c 42 45 92 bc
       -0.1007246 0.095551975 0.01694508 -0.01785529
0001b0 af a0 c9 bd 06 78 bf bd 01 26 cd 3d ce 48 21 bd
       -0.09845101 -0.093490645 0.10017014 -0.039376073
0001c0 0f 11 7c 3d 9e 52 0b 3e 39 5e 23 bd fd 0d e6 bd
       0.061539706 0.13605735 -0.03988478 -0.11233137
0001d0 67 35 db 3d 30 a4 01 3e 82 ee 84 3d ee 9a 3a 3d
       0.10703545 0.12660289 0.06490804 0.04555791
0001e0 a3 19 45 3e 5f 75 1e 3e e5 fa 4b bd d2 20 56 3d
       0.19248061 0.15474461 -0.04979982 0.052277394
0001f0 b1 61 7f bd 9f 57 33 bc ac f1 67 bc b2 a6 20 3d
       -0.062349025 -0.010946183 -0.01415674 0.039221473

lstm2.bias_hh_l0 f4 [128]
000000 72 74 44 3d 51 4c 04 3d 82 82 af 3c 3a 66 20 3e
       0.047962613 0.032299343 0.021424536 0.15663996
000010 88 74 a3 3d c8 6a 16 be e2 ec d4 3d 4a 82 28 be
       0.07981211 -0.14689171 0.10396744 -0.16455951
000020 e7 bf f9 3d 0e 93 b5 bd d1 74 d1 3d ed e7 24 3e
       0.121948056 -0.08865939 0.10227359 0.16104098
000030 fb be 0d 3e 55 b0 af 3d 7b 1d 08 bd fc 02 1a be
       0.13842385 0.085785545 -0.03323124 -0.15040201
000040 24 46 a5 3d a3 11 3f 3d a8 1a db 3d b2 bc b7 3d
       0.08070019 0.04664768 0.10698444 0.08971538
000050 b9 ad 09 be 75 53 18 be 42 85 fd bd 5c 2b 2e 3e
       -0.13445176 -0.14875586 -0.123789325 0.17008728
000060 90 4d cd bb 80 31 6e 3d 03 18 00 be f2 e8 f1 bd
       -0.0062653497 0.058152676 -0.1250916 -0.11812009
000070 04 34 30 3e e1 56 22 be 7b dc ba 3d 42 b0 1d 3e
       0.17207342 -0.15853454 0.091240846 0.15399268
000080 6f d1 b2 bd c2 65 74 3b 46 24 ba 3d e1 d1 8d 3d
       -0.087313525 0.0037292098 0.0908895 0.06924797
000090 f1 e7 e0 3d 65 e7 ea 3d 4c 0b 52 bd 17 93 de 3c
       0.10981739 0.11469916 -0.051280305 0.027169747
0000a0 13 c9 2e be 9e 9a 9d bc d2 51 e4 bd 39 19 9a 3d
       -0.17068891 -0.019238766 -0.111484185 0.07524342
0000b0 35 9e a1 bd 02 82 17 3d 35 6d 26 bd af 15 9d 3d
       -0.07891504 0.03698922 -0.04063149 0.076701514
0000c0 13 e1 9c bd eb b7 bb 3b 50 b0 95 3b 08 a8 26 bc
       -0.07660117 0.005728712 0.004568137 -0.010171898
0000d0 8b 38 a0 bd a4 98 b7 bc ce ee 14 be be 0c cd 3c
       -0.07823285 -0.022411652 -0.14544222 0.02503049
0000e0 ba 34 b8 3d 27 64 26 be 56 bb fb 3d 9c 25 6b bd
       0.08994432 -0.16249143 0.12291591 -0.057408914
0000f0 cb 91 3e 3e 38 f1 ee bd d2 f5 f1 3d 09 54 f6 bd
       0.18610303 -0.116671026 0.11814465 -0.12027747
000100 4e c8 d3 3d 92 da 7b 3c 86 35 4a be a3 b0 82 3d
       0.103409395 0.015371935 -0.1974698 0.06381347
000110 ff ea 48 bd 02 50 ca bd d2 7f 13 bd f9 32 f6 bd
       -0.049052235 -0.098785415 -0.03601057 -0.12021441
000120 90 51 9d bd e1 3d 0c 3e 40 f6 0d be 59 fd b2 bc
       -0.076815724 0.1369548 -0.13863468 -0.021849321
000130 1e 24 30 3d 74 63 4d bc 60 7e 7b 3c ba e7 b5 bd
       0.043003194 -0.0125359185 0.015349954 -0.08882089
000140 1b 0e d6 bd 2d 2d 16 3e f1 f2 88 bd b4 15 2d 3c
       -0.10451909 0.1466567 -0.066869624 0.010564256
000150 0e d0 46 3d 1b 29 09 3e 85 cb 0a 3e dc d0 06 3e
       0.04853826 0.13394587 0.13554199 0.13165611
000160 82 f2 0f 3e 6c 85 8c bc 4f 8c 00 3e a6 9a be bc
       0.14057353 -0.017153464 0.12553523 -0.023267101
000170 c2 9e eb 3d 09 7d 1e be 28 dd 9c bc d9 03 42 3e
       0.1150489 -0.15477385 -0.019148424 0.1894678
000180 01 76 06 be 32 49 09 be 8a f7 07 3e a6 72 dd 3d
       -0.13130952 -0.13406828 0.13278022 0.10812883
000190 3d 74 a4 3c 58 49 ba bd f7 e9 48 3e 15 ab b0 bd
       0.020074958 -0.090960205 0.196205 -0.08626381
0001a0 0f af 30 3c 5b 42 68 bd 93 3b 0a 3e 99 1a 20 3e
       0.010783925 -0.056703907 0.13499288 0.15635146
0001b0 14 ed 0a 3b 9b 8f 3d 3c 9d c8 00 be f0 92 ba bd
       0.0021198438 0.011569883 -0.12576528 -0.09110057
0001c0 0c 23 2f 3e e2 de 64 bd 13 39 09 bd bb 15 5c 3e
       0.17103213 -0.05587662 -0.033501696 0.21492665
0001d0 c6 1b 0d 3d 26 f8 af bd ca 97 14 be ca 1d f4 bc
       0.034450315 -0.085922524 -0.14511028 -0.02979936
0001e0 a1 0b 37 3e db a9 0f 3e 49 08 1f 3e ac 47 fb bd
       0.1787553 0.14029638 0.15530504 -0.1226953
0001f0 2a 4a 95 3a 51 99 91 bc 2c 56 22 3e c4 0a 88 3c
       0.00113899 -0.017773302 0.15853184 0.016606696

fc.weight f4 [1, 32]
000000 35 d2 71 be 15 44 6d be 25 74 28 be e6 6f c5 3d
       -0.23615344 -0.23170502 -0.16450556 0.096404836
000010 2b 7b 63 be 97 cc 72 3e e0 df 60 3e 27 ae 4e be
       -0.22214954 0.23710857 0.21960402 -0.20183621
000020 61 8c 2e 3e 5d 32 fb 3d 84 ef 61 3e 99 e8 6e be
       0.17045738 0.122654654 0.22064024 -0.23330916
000030 e5 0e a8 3d 50 60 85 be 88 ad f4 3d 6d 67 a1 3d
       0.08205966 -0.26050043 0.11947161 0.07881055
000040 c9 ae a1 bd 29 bf 5c be 02 45 5b 3e 0e c9 06 3e
       -0.07894666 -0.21557297 0.21413043 0.13162634
000050 ec 68 7c 3e 16 59 82 be 24 79 f0 3d df ad 1d be
       0.246494 -0.25458592 0.11741856 -0.15398358
000060 e1 76 10 3e 9e 05 e9 3b ce 4b 4c be 40 d7 80 be
       0.14107849 0.0071112653 -0.19950792 -0.25164223
000070 96 d8 0c 3e da 01 3c 3e d4 8d 73 3e f1 a6 0a 3e
       0.13754496 0.18360081 0.23784572 0.13540246
