models/lstm15.pth (torch, 135733 bytes, 9 tensors)

lstm1.weight_ih_l0 f4 [256, 14]
0	0x3d60e419	0.05490503
1	0xbb8e1cf0	-0.0043369457
2	0x3d0df96f	0.034661707
3	0xbe0c8bdf	-0.13725232
4	0x3d48649a	0.048924066
5	0xbc8de954	-0.017323174
6	0x3df63484	0.12021735
7	0x3d88c933	0.06679001
8	0x3d555ca2	0.052090295
9	0x3dc32087	0.095276885
10	0xbc02ec2b	-0.007990877
11	0xbc2d6eb6	-0.010585478
12	0xbd28bb93	-0.04119451
13	0x3d756215	0.05990799
14	0x3db253c7	0.087073855
15	0x3db9658b	0.09052571
16	0xbdd18bbb	-0.102317296
17	0xbd753828	-0.059868008
18	0xbdd1afa5	-0.1023858
19	0xbc754eae	-0.014972372
20	0x3dc5adbb	0.09652277
21	0x3da01076	0.0781564
22	0x3bb18733	0.0054177283
23	0xbd9023f9	-0.07038111
24	0x3d69953a	0.05702708
25	0xbd9ea58d	-0.0774642
26	0xbd01afb2	-0.031661697
27	0xbceb567d	-0.028727764
28	0xbd398428	-0.04529205
29	0x3c7d92f0	0.015476927
30	0x3d6eb151	0.05827457
31	0xbd944ed8	-0.07241601
32	0xbc2effbb	-0.010681088
33	0x3d8ab046	0.06771903
34	0xbdc6be25	-0.09704236
35	0x3de685e5	0.11256007
36	0x3dee3ba3	0.116324686
37	0xbc24de36	-0.010062745
38	0xbc7c423f	-0.015396654
39	0x3d3987dc	0.04529558
40	0x3da9acb3	0.08284893
41	0x3df7b8a4	0.12095764
42	0xbd52678f	-0.051368292
43	0x3c816107	0.015793337
44	0x3c43ed1c	0.011958387
45	0xbd7b9078	-0.061417073
46	0xbdf1c44e	-0.1180502
47	0xbd56c095	-0.052429754
48	0xbde2aa0d	-0.11067591
49	0x3de195f0	0.110149264
50	0xbd29301f	-0.041305657
51	0xbdb823c5	-0.089911975
52	0x3cd28cc6	0.025701892
53	0x3d0c9f10	0.03433138
54	0xbd4934fb	-0.04912279
55	0xbdc040fb	-0.09387394
56	0x3df9867b	0.12183853
57	0xbde00a85	-0.109395064
58	0xbdbaf47d	-0.09128664
59	0xbe1dc4a2	-0.1540704
60	0x3d41cc71	0.04731411
61	0x3da26100	0.079286575
62	0xbd9587c4	-0.07301286
63	0x3da8f2c1	0.08249427
64	0x3deb5e78	0.11492628
65	0x3cf97b0c	0.030454181
66	0xbc0a590d	-0.008444083
67	0x3dd827fe	0.10554503
68	0x3d8cb169	0.06869776
69	0x3ce3758c	0.027766012
70	0xbdc91288	-0.09817988
71	0x3d839ced	0.064264156
72	0x3d752725	0.059851784
73	0xbb2452b0	-0.00250737
74	0x3e088ae4	0.13334233
75	0x3c39dbbc	0.011343893
76	0x3ded9f14	0.11602607
77	0x3cbdc0bb	0.02316319
78	0xbd0c06f1	-0.034186307
79	0x3d2cad7a	0.042157628
80	0x3d2099ff	0.039209362
81	0x3dab7eb9	0.0837378
82	0xbdd039e2	-0.1016729
83	0xbce86225	-0.028367111
84	0x3d8daa23	0.06917217
85	0xbc256bfe	-0.010096548
86	0x3c98ca10	0.018651038
87	0x3da0d686	0.07853417
88	0x3ddd1b49	0.1079622
89	0x3df03095	0.11728016
90	0x3de5ab3d	0.11214302
91	0xbcf086e7	-0.029361201
92	0x3dfc615a	0.12323256
93	0xbd01eb80	-0.03171873
94	0xbd9afee2	-0.07568146
95	0xbc3f6594	-0.011681933
96	0x3d7e6adb	0.062113624
97	0x3d8aeac4	0.06783059
98	0xb906d9cb	-0.0001286037
99	0x3d1cc1dd	0.03827082
100	0x3d4a872b	0.049445312
101	0x3ba20bb9	0.004945245
102	0xbdb89a60	-0.0901382
103	0xbdeeb62d	-0.11655841
104	0xbd8f4a51	-0.069965966
105	0x3cf52bac	0.029928051
106	0xbd0e4b90	-0.03474003
107	0x3d85482d	0.06507907
108	0x3d6e5546	0.05818679
109	0x3dfbe648	0.12299782
110	0xbc54969d	-0.012975362
111	0xbde11a46	-0.109913394
112	0xbc933910	-0.017971545
113	0x3dbb9b63	0.09160497
114	0xbde4e049	-0.111755915
115	0xbd033868	-0.032036215
116	0x3de0f339	0.10983891
117	0xbd9640e3	-0.07336595
118	0xbc9fc57f	-0.019503353
119	0xbd772a08	-0.06034282
120	0x3c86e933	0.01646862
121	0x3dce813e	0.10083245
122	0x3dc49289	0.09598262
123	0x3cfb7f6a	0.030700404
124	0xbd25ec1f	-0.040508386
125	0x3ce71c9a	0.02821188
126	0xbd090acc	-0.033457562
127	0x3d4bfd1f	0.049801942
128	0x3d6d36f1	0.057913724
129	0xbd8bb0cc	-0.06820831
130	0xbdc9bad8	-0.09850091
131	0x3d65a9e0	0.05607021
132	0x3de0476a	0.10951121
133	0xbdbc3da2	-0.09191443
134	0x3db15115	0.08658043
135	0xbdcc0373	-0.099615954
136	0xbd910e60	-0.0708282
137	0xbdce11a1	-0.10061956
138	0x3db99b1d	0.09062789
139	0x3dcb10d4	0.09915319
140	0x3dadff3a	0.08495946
141	0x3ddc4ec4	0.10757211
142	0x3da6b19c	0.08139345
143	0xbcd02130	-0.02540645
144	0xbd01d7b8	-0.031699866
145	0xbd06b7a2	-0.03288997
146	0x3e1a27a3	0.15054183
147	0x3db695fb	0.08915325
148	0x3dbcd146	0.09219603
149	0xbc09b038	-0.00840383
150	0x3dc6c50f	0.09705555
151	0xbd8ec828	-0.069717705
152	0xbe00b84e	-0.12570307
153	0x3c710967	0.014711714
154	0xbdebf213	-0.11520781
155	0xb8b592a2	-8.658065e-05
156	0x3d867a2a	0.0656627
157	0x3df96bc9	0.121787615
158	0x3dcc01fd	0.09961317
159	0x3db0e875	0.08638088
160	0xbdbc49b3	-0.091937445
161	0x3db9f789	0.09080417
162	0xbce8b763	-0.028407758
163	0xbd123b42	-0.035701044
164	0xbc52cffb	-0.012866969
165	0xbc30986b	-0.010778527
166	0x3d848c49	0.0647207
167	0xbcd0458b	-0.025423786
168	0xbe1051d1	-0.1409371
169	0xbdf13cb5	-0.11779157
170	0xbe0bb093	-0.13641576
171	0x3db7d744	0.089766055
172	0x3d02d5a2	0.031942017
173	0x3d94bf87	0.072630934
174	0x3c616a1d	0.0137582095
175	0xbdbbe16e	-0.09173857
176	0xbda3d93a	-0.08000417
177	0x3d03e877	0.032204118
178	0xbd214360	-0.039370894
179	0xbad58deb	-0.0016292905
180	0xbd722579	-0.059117768
181	0xbd9a22b7	-0.075261526
182	0xbd24c7dc	-0.040229663
183	0x3d83d9a7	0.06437998
184	0x3dc784f6	0.09742157
185	0xbd25047b	-0.040287476
186	0x3d5bddac	0.0536782
187	0xbdf4a8f6	-0.11946289
188	0x3cd4c74d	0.02597394
189	0x3d684f16	0.056716047
190	0x3d15709e	0.036484353
191	0xbc7cd085	-0.015430574
192	0x3d14ed47	0.036359098
193	0x3d1b4b04	0.037913337
194	0xbd5c577d	-0.053794373
195	0x3d64d0c1	0.055863146
196	0xbd01ca64	-0.031687155
197	0xbd22f84d	-0.03978758
198	0x3c10af13	0.008830803
199	0xbddb7813	-0.10716262
200	0xbd4447bd	-0.047919977
201	0xbba2ac18	-0.004964363
202	0xbd0d8942	-0.034554727
203	0x3d31881d	0.0433427
204	0x3daddb7d	0.0848913
205	0xbc22a3c8	-0.009926744
206	0x3df5fe9b	0.12011453
207	0xbd4f059a	-0.05054245
208	0x3dc8dfdb	0.09808322
209	0xbdb3952b	-0.08768686
210	0x3de341d7	0.11096542
211	0x3e02ae29	0.1276175
212	0x3df8033f	0.12109994
213	0x3d3aaba6	0.045573853
214	0x3d37e6a3	0.044897687
215	0x3d73c1a0	0.059510827
216	0x3dcd43e6	0.10022716
217	0x3db4d80d	0.08830271
218	0xbbe0af09	-0.0068568033
219	0xbc3a652f	-0.011376663
220	0x3ce133f1	0.027490588
221	0xbdb575d3	-0.08860364
222	0xbd9860f1	-0.07440365
223	0xbc927e93	-0.01788262
224	0xbcf7701a	-0.030204821
225	0xbd8fa577	-0.07013982
226	0x3dbb2b30	0.09139097
227	0xbe19b4de	-0.15010402
228	0xbda878f5	-0.08226196
229	0x3db05d99	0.08611602
230	0xbde63497	-0.112404995
231	0xbdecd0d0	-0.11563265
232	0xbc255618	-0.010091327
233	0x3dd7d8b5	0.105393805
234	0x3da7a8cb	0.081864916
235	0x3d3b0c39	0.045665953
236	0x3de1cfe8	0.11025983
237	0xbd6bb51f	-0.057545777
238	0x3d7722ea	0.06033603
239	0x3ce21f02	0.027602676
240	0xbcf1bdf8	-0.02950953
241	0xbdd43f02	-0.1036358
242	0x3d63e058	0.055633873
243	0xbd8c2f9c	-0.06845018
244	0xbcd6c09c	-0.02621489
245	0x3d06c88d	0.032906104
246	0xbda77fa8	-0.08178645
247	0x3d787f38	0.0606682
248	0xbd52e6f5	-0.05148979
249	0xbd866db2	-0.065638915
250	0xbc0bb107	-0.008526093
251	0x3d46204d	0.04837065
252	0x3e081d21	0.13292362
253	0xbdaef810	-0.08543408
254	0xbdc4b5fd	-0.09605024
255	0xbd20062a	-0.03906838

lstm1.weight_hh_l0 f4 [256, 64]
0	0xbd99c70d	-0.07508669
1	0xbdd08db8	-0.10183281
2	0xbcf5c845	-0.030002723
3	0xbd237c06	-0.0399132
4	0xbda5279c	-0.080641955
5	0xbbc7bf83	-0.006095828
6	0x3e090aa3	0.13382964
7	0x3d9cbb8c	0.07652959
8	0xbdcb06fa	-0.0991344
9	0x3dd42dd8	0.103603065
10	0xbd447423	-0.04796232
11	0xbd825c8a	-0.06365307
12	0x3d91607e	0.070984825
13	0x3daaabf8	0.08333582
14	0x3d9f7555	0.07786051
15	0x3d018ee3	0.031630408
16	0x3db30eeb	0.0874308
17	0xbd92e758	-0.071730316
18	0xbde320c2	-0.110902324
19	0x3df5ca8f	0.120015256
20	0xbcb329b5	-0.021870473
21	0xbdec5425	-0.11539487
22	0x3d9d4b47	0.07680374
23	0x3cb7aa0e	0.022419956
24	0x3c11cb92	0.008898633
25	0x3cca3b26	0.024686407
26	0x3c88192f	0.016613571
27	0x3dc3e964	0.09566
28	0xbd23fb4d	-0.04003458
29	0xbdf09718	-0.11747569
30	0x3e17ec79	0.14836301
31	0x3d41325c	0.047167167
32	0x3d3767b5	0.044776637
33	0xbd3b10af	-0.045670208
34	0x3dfb15d0	0.1226002
35	0xbcd286a7	-0.025698973
36	0x3ac93b19	0.0015352695
37	0x3d5851f4	0.05281253
38	0xbdd4ae7f	-0.10384845
39	0xbde15a03	-0.110034965
40	0x3d28d3bc	0.04121755
41	0xbd682881	-0.056679253
42	0xbdf036a0	-0.11729169
43	0xbdb5712c	-0.088594764
44	0xbb5f154b	-0.0034039791
45	0xbd4e1a42	-0.05031801
46	0x3de3e886	0.11128335
47	0x3c8c2b72	0.01711056
48	0xbdcc85e9	-0.09986479
49	0xbe064301	-0.13111497
50	0xbd38af5f	-0.045089122
51	0xbdb4224d	-0.08795605
52	0xbd94a8a5	-0.07258729
53	0x3d6a74ec	0.05724041
54	0xbd7cac73	-0.061687898
55	0x3d0f2d12	0.03495509
56	0xbd65c3bd	-0.056094874
57	0x3e05dcbb	0.13072483
58	0x3bfba74b	0.007679855
59	0x3dc99a89	0.09843928
60	0xbdc7b49f	-0.097512476
61	0xbd73d017	-0.05952462
62	0x3e0f7405	0.14009102
63	0x3ccb58aa	0.024822552
64	0x3d98a17b	0.07452675
65	0x3de43293	0.11142459
66	0x3da2fa6c	0.079579204
67	0x3c0bc24b	0.00853021
68	0xbd948ca3	-0.07253387
69	0x3b9f8439	0.004868057
70	0xbdce8576	-0.100840494
71	0x3d756fa9	0.05992094
72	0x3cabc03b	0.020965686
73	0x3dd2d932	0.10295333
74	0xbcba45d1	-0.02273837
75	0xbd403f3a	-0.046935298
76	0xbd94e59b	-0.07270356
77	0x3dd81549	0.10550935
78	0x3d8ed1e9	0.06973631
79	0x3d79a371	0.060946885
80	0x3d93be11	0.07213987
81	0xbd9b00f5	-0.07568542
82	0x3c10c50e	0.008836044
83	0xbdc30803	-0.095230125
84	0xbd94fdfe	-0.07275008
85	0xbdbeb193	-0.09311213
86	0x3dca181e	0.09867881
87	0xbd065781	-0.032798294
88	0x3ded7157	0.115938835
89	0x3cf46cd7	0.029837055
90	0x3dbed6fd	0.093183495
91	0x3ce71903	0.028210169
92	0x3d977bed	0.07396684
93	0x3c966ad0	0.018361479
94	0x3c9ecbb2	0.019384239
95	0xbdc34fc9	-0.09536702
96	0xbd9cf33e	-0.07663582
97	0x3c0e7ab7	0.00869625
98	0x3df3075d	0.11866639
99	0x3db17f90	0.08666909
100	0x3d19a658	0.037512153
101	0x3d98a10c	0.07452592
102	0xbe1c4691	-0.15261294
103	0x3d80a5ee	0.062816486
104	0xbd7ed2af	-0.062212642
105	0xbd8dc5b0	-0.069224715
106	0x3b5f031d	0.0034028955
107	0x3ca38196	0.019959252
108	0x3d52eb11	0.051493708
109	0x3e0897fd	0.13339229
110	0x3cb9cd47	0.022680892
111	0xbd8f6017	-0.070007496
112	0xbd1d4ca7	-0.03840318
113	0x3db5cba5	0.08876733
114	0x3dce602b	0.10076936
115	0xbcf19d4e	-0.029493954
116	0xbdb8260c	-0.08991632
117	0xbcf136d2	-0.029445086
118	0xbda78989	-0.081805296
119	0x3dacd1b2	0.08438434
120	0xbd26bb5b	-0.04070602
121	0xbcaedfed	-0.02134701
122	0x3cf16869	0.029468732
123	0x3d8b3923	0.06798007
124	0x3c1f3638	0.009717517
125	0x3d828b53	0.0637423
126	0x3de9a0d1	0.114076264
127	0x3d2e1e2a	0.042509235
128	0x3d74522c	0.059648678
129	0xbd369197	-0.04457244
130	0x3dd1599c	0.1022217
131	0xbd3dffb4	-0.046386436
132	0x3cd1499a	0.025547791
133	0xbdb8540b	-0.09000405
134	0xbd4496d1	-0.047995392
135	0x3dc566c4	0.096387416
136	0xbcdc85aa	-0.026919205
137	0x3dcd3338	0.10019535
138	0x3b0b84b7	0.002128882
139	0xbc204e9b	-0.009784366
140	0xbdcd8de2	-0.100368276
141	0xbd1546de	-0.036444537
142	0x3c7c3d2b	0.015395443
143	0xbd391a8f	-0.045191344
144	0xbde7e7d6	-0.11323516
145	0x3e172e1b	0.14763682
146	0xbdd46562	-0.103709
147	0x3cd11ad8	0.025525495
148	0xbe181ace	-0.14853975
149	0x3d695a6f	0.05697101
150	0x3cfbf3b9	0.030755864
151	0xbdadfba2	-0.08495261
152	0xbd1ae30a	-0.037814178
153	0x3dea613a	0.11444326
154	0x3d29a0ab	0.04141299
155	0x3d2bd354	0.041949585
156	0xbca25658	-0.019816563
157	0xbd09aedf	-0.033614036
158	0x3cbb8a4f	0.0228931
159	0xbb46540c	-0.0030262498
160	0xbdf61498	-0.12015647
161	0x3da8d783	0.082442306
162	0xbd411ba8	-0.047145516
163	0x3d4f2b47	0.050578382
164	0x3cc0a1c5	0.023514638
165	0xbe0f27c1	-0.13980009
166	0xbd9028a0	-0.070389986
167	0xbd9d7a76	-0.07689373
168	0x3dfacbd5	0.12245909
169	0xbcb80138	-0.022461519
170	0xbbb5fbe1	-0.005553708
171	0xbc31d6ad	-0.010854405
172	0xbd967ff9	-0.073486276
173	0x3d9f8ccb	0.07790526
174	0x3db8161e	0.089885935
175	0x3da86152	0.082216874
176	0xbcfeec03	-0.031118399
177	0x3ddef998	0.1088745
178	0xbcaea191	-0.021317275
179	0xbd74629c	-0.059664354
180	0x3cbb80d7	0.022888584
181	0x3d0bd5b4	0.03413935
182	0xbda31388	-0.0796271
183	0xbdd8d765	-0.10587958
184	0xbda909b3	-0.08253803
185	0xbce333dc	-0.02773469
186	0xbd98ae70	-0.07455146
187	0x3dbf32bc	0.09335849
188	0x3d40e495	0.047092993
189	0xbd39bf98	-0.045348734
190	0xbc802e1a	-0.015646983
191	0xbdac5d55	-0.08416239
192	0x3c14c087	0.009079105
193	0xbdcf91c1	-0.10135222
194	0xbdc6511a	-0.09683438
195	0x3cc88b2d	0.024480427
196	0x3e067740	0.13131428
197	0x3e04e188	0.12976658
198	0x3b81ef9d	0.0039653317
199	0xbe0d739e	-0.13813636
200	0x3d2c528e	0.042070918
201	0x3db49b87	0.08818727
202	0xbdd873bd	-0.1056895
203	0xbd9c70e9	-0.076387234
204	0x3c836394	0.016038693
205	0x3da94c07	0.08266454
206	0xbe1c7f6f	-0.15282987
207	0xbd2e3786	-0.04253342
208	0xbcfebf97	-0.031097217
209	0xbd2cb6de	-0.042166583
210	0x3e0075c6	0.12544927
211	0x3df82530	0.12116468
212	0x3be726d1	0.007054188
213	0xbd44660f	-0.047948893
214	0xbe0543fa	-0.13014212
215	0xbbe1b9ca	-0.006888603
216	0x3cbf15a2	0.023325745
217	0x3d902816	0.07038896
218	0x3d58569a	0.052816965
219	0xbd339ccb	-0.0438507
220	0x3debfa91	0.11522401
221	0xbcb7c223	-0.022431439
222	0xbdbe8ad6	-0.093038246
223	0xbdc9b97b	-0.09849831
224	0xbd17f9ec	-0.03710358
225	0xbd1b0e48	-0.037855417
226	0xbc9776b8	-0.018489227
227	0x3d76a121	0.06021226
228	0x3e114d9d	0.14189763
229	0x3cd6d801	0.026226046
230	0x3d4cf5b9	0.050039027
231	0xbb232838	-0.0024895798
232	0x3d3f69bd	0.0467317
233	0x3da8479c	0.082167834
234	0x3de552a6	0.111974046
235	0x3d78d61a	0.06075106
236	0x3d44a24f	0.048006352
237	0xbdc2465f	-0.094860785
238	0x3da53933	0.080675505
239	0xbdb8c75d	-0.090224005
240	0xbd7c13ae	-0.061542206
241	0xbcd602a5	-0.026124308
242	0xbca3567a	-0.019938696
243	0x3d476f8a	0.048690356
244	0xbd471899	-0.048607443
245	0xbdacf6a1	-0.08445478
246	0xbe109c36	-0.1412209
247	0xbb8e8084	-0.0043488164
248	0x3da2225f	0.07916712
249	0x3da8a151	0.08233894
250	0xbdd9eec7	-0.10641246
251	0x3cc90e3b	0.024542918
252	0x3d2936e8	0.04131213
253	0xbe06a6ca	-0.13149562
254	0x3d1fac23	0.03898252
255	0xbd580449	-0.05273846

lstm1.bias_ih_l0 f4 [256]
0	0xbcd9f105	-0.026604185
1	0x3df50435	0.11963693
2	0xbd848619	-0.064708896
3	0x3da78e96	0.08181493
4	0x3d97c0d0	0.07409823
5	0x3db86438	0.0900349
6	0x3d2e5ca7	0.04256883
7	0xbdfc9f3f	-0.12335061
8	0x3d846080	0.064637184
9	0x3d9f5b4e	0.07781087
10	0x3dd6b645	0.10483984
11	0xbc103308	-0.008801229
12	0xbd93672c	-0.07197413
13	0xbcd898c9	-0.026440041
14	0xbd308f52	-0.04310543
15	0xbd36e832	-0.044655032
16	0x3c94d93a	0.018169988
17	0x3bdca725	0.0067337924
18	0x3acfa9db	0.0015843468
19	0xbcfecc04	-0.031103142
20	0x3d00f75e	0.031485908
21	0xbe12d91a	-0.1434063
22	0x3dcc6105	0.099794425
23	0x3de1943c	0.110146016
24	0x3dbdd43b	0.092689954
25	0x3d8a7469	0.06760485
26	0xbdca1795	-0.09867779
27	0xbda8421d	-0.08215735
28	0x3dd3ec7e	0.10347842
29	0x3d31ae55	0.043379147
30	0x3dc7822c	0.09741625
31	0xbc6f4b4c	-0.0146053545
32	0xbd1fb456	-0.03899034
33	0x3dc4a654	0.09602037
34	0xbcaf38cd	-0.02138939
35	0x3da2622f	0.07928883
36	0x3de1135e	0.10990022
37	0xbd043c43	-0.032284033
38	0x3e168411	0.14698817
39	0x3d51c966	0.05121746
40	0x3d93ba0f	0.07213222
41	0x3dcf9d75	0.101374544
42	0x3d485cb0	0.04891652
43	0xbc9960ac	-0.018722855
44	0xbd64b797	-0.055839147
45	0x3d71356a	0.05888883
46	0xbc81a812	-0.015827212
47	0xbda61f94	-0.08111492
48	0xbe08a736	-0.13345036
49	0x3df43f40	0.119261265
50	0x3dcfee51	0.10152877
51	0xbdc139f5	-0.094348826
52	0xbcdcedf0	-0.026968926
53	0xbc6b61f5	-0.0143666165
54	0x3cd96746	0.026538502
55	0x3dcee2f1	0.101018794
56	0x3d58e8f7	0.052956548
57	0xbdbf68c5	-0.09346155
58	0xbd4f14ae	-0.05055683
59	0x3d6e5c2c	0.05819337
60	0x3bd63ef5	0.006538267
61	0xbc5b67b9	-0.013391429
62	0x3d65dccd	0.056118775
63	0x3d380de6	0.04493513
64	0xbdecc24c	-0.11560497
65	0x3e066d8d	0.13127728
66	0xbd64e3a4	-0.055881158
67	0x3d5115f7	0.051046338
68	0x3daf3cf1	0.085565455
69	0x3ae3a66d	0.0017368324
70	0xbd101372	-0.035174794
71	0x3d8fa478	0.07013792
72	0xbdc3a017	-0.09552019
73	0x3d8df321	0.06931139
74	0x3d924033	0.07141151
75	0x3dff3500	0.12461281
76	0xbb9fb14e	-0.0048734313
77	0xbc975283	-0.018471962
78	0xbb8af53c	-0.00424066
79	0x3dd9ed9d	0.10641024
80	0xbd50eb04	-0.05100538
81	0xbcacf886	-0.021114599
82	0x3dc68d2e	0.09694897
83	0xbded6f92	-0.11593546
84	0x3df49b06	0.11943631
85	0xbd991756	-0.07475154
86	0x3cfde321	0.030992093
87	0x3dde785a	0.10862799
88	0x3e06d680	0.13167763
89	0x3e1a3547	0.15059386
90	0xbda03822	-0.078232065
91	0x3da05004	0.07827762
92	0xbdbdccf9	-0.09267611
93	0x3d88c09f	0.066773646
94	0x3de58739	0.11207432
95	0x3d6605d5	0.056157906
96	0xbdb417f4	-0.08793631
97	0xbe05d352	-0.13068894
98	0xbdd6ff78	-0.104979455
99	0xbdf6d764	-0.12052801
100	0x3dbd6f0a	0.09249695
101	0xbd99874b	-0.07496508
102	0x3e1e3c93	0.15452795
103	0x3d5403a1	0.051761273
104	0x3df246d4	0.11829916
105	0x3dd65e4e	0.10467206
106	0x3cc41737	0.023936851
107	0x3d9278bd	0.07151935
108	0xbdd0c070	-0.101929545
109	0x3d906176	0.07049839
110	0x3d427e93	0.04748399
111	0xbd85a6be	-0.06525944
112	0xbd9860f1	-0.07440365
113	0x3d182417	0.037143793
114	0x3de8a3a1	0.11359335
115	0xbc9314d7	-0.017954273
116	0x3d8b6d23	0.068079256
117	0x3daafd9d	0.08349154
118	0x3d936ca4	0.07198456
119	0x3ddedeac	0.10882315
120	0x3d93d20f	0.072178
121	0xbdbdb4c0	-0.09262991
122	0xbcb60720	-0.022220194
123	0x3d75619b	0.059907537
124	0xbcd7b624	-0.026331969
125	0x3ddf563c	0.1090512
126	0x3d82d5ec	0.063884586
127	0x3e0602f8	0.1308707
128	0xbe02db9b	-0.12779085
129	0x3dc33d52	0.0953318
130	0x3d7ce206	0.06173899
131	0x3d342553	0.043980908
132	0xbda1ef41	-0.07906962
133	0xbd16daac	-0.036829636
134	0xbd3c8cb7	-0.046032634
135	0x3c3d0a09	0.011538037
136	0xbd921bcb	-0.07134207
137	0x3d344b94	0.04401739
138	0x3ca3f351	0.020013483
139	0xbdae47c9	-0.08509786
140	0x3dce23d7	0.1006543
141	0x3c4285d7	0.01187273
142	0x3e0491a2	0.1294618
143	0x3d28b9aa	0.041192688
144	0x3d84f206	0.06491475
145	0x3dd878ca	0.10569914
146	0x3da9145c	0.08255836
147	0x3dc069a3	0.093951486
148	0xbdcdd97d	-0.10051248
149	0xbd332bd0	-0.043742955
150	0xbdb95690	-0.090497136
151	0x3d5b3979	0.053521607
152	0xba6a5f34	-0.0008940578
153	0x3de6b3f6	0.112647936
154	0xbce4999c	-0.027905278
155	0x3de2bd2a	0.110712364
156	0x3da47ee8	0.08032018
157	0xbba06e83	-0.0048959865
158	0xbd5026dc	-0.05081831
159	0xbda73f6e	-0.08166395
160	0xbd4f0f4f	-0.05055171
161	0x3dbda31c	0.09259626
162	0x3dcf9ce3	0.10137346
163	0xbdc13120	-0.09433198
164	0x3ceb75a2	0.028742615
165	0xbc507361	-0.012722821
166	0x3d4283dd	0.047489036
167	0x3de90695	0.113782085
168	0x3dbda554	0.092600495
169	0x3dce01bb	0.10058924
170	0xbbf97a35	-0.007613445
171	0x3d1b46e7	0.037909415
172	0xbce77985	-0.028256187
173	0x3dac8688	0.08424097
174	0xbc987309	-0.01860954
175	0x3dc72d60	0.097254515
176	0x3db246d3	0.08704915
177	0xbd6f5445	-0.058429975
178	0x3d887763	0.06663396
179	0x3d26cd46	0.040723108
180	0xbc9bc908	-0.019016758
181	0xbdf8aa37	-0.12141841
182	0xbced0fd7	-0.028938217
183	0x3dd31b9b	0.10308
184	0x3c6ec833	0.014574098
185	0x3d9186f9	0.07105822
186	0xbd847d2e	-0.06469189
187	0x3d8e31d8	0.06943101
188	0xbd767e14	-0.06017883
189	0x3df0ac06	0.11751561
190	0x3d9934dc	0.07480785
191	0x3cc4a9ba	0.024006713
192	0xbdb19cf9	-0.08672518
193	0xbdcd6ed4	-0.100309044
194	0x3ccfc058	0.025360271
195	0xbc2072a8	-0.009792961
196	0xbdb6d64f	-0.08927595
197	0xbd1b2538	-0.03787729
198	0xbda5872e	-0.08082424
199	0xbdb13a88	-0.08653742
200	0x3dbdbcc3	0.09264519
201	0x3d3c378c	0.04595141
202	0x3d3cf3f8	0.046131104
203	0xbd401a2c	-0.04689996
204	0x3de7e222	0.11322428
205	0xbd052b32	-0.032511897
206	0xbcbf66e7	-0.023364497
207	0x3de63f5f	0.11242556
208	0xbd1f6a83	-0.038919937
209	0x3cd7cc88	0.026342645
210	0x3dff4996	0.12465207
211	0xbd460ff2	-0.04835505
212	0x3dfe3235	0.1241192
213	0xbb613903	-0.0034366257
214	0x3d92bb3c	0.071646184
215	0xbd116f6a	-0.035506643
216	0xbdae63ed	-0.08515153
217	0x3d8f6e8c	0.07003507
218	0x3d1cf251	0.03831703
219	0x3d67afbc	0.056564078
220	0xbdbf9f44	-0.093565494
221	0xbdb4fdbf	-0.08837461
222	0xbd47ec99	-0.04880962
223	0x3de37e61	0.11108089
224	0x3dca1101	0.098665245
225	0x3dc4c33b	0.0960755
226	0x3da0a23d	0.078434445
227	0xbcbff119	-0.023430394
228	0x3d6033ac	0.05473678
229	0xbd255462	-0.040363677
230	0x3cbd2d27	0.02309282
231	0xbdd6dd49	-0.104914255
232	0x3e09907f	0.13434027
233	0xbe01f216	-0.12690005
234	0x3e0f9520	0.1402173
235	0xbc179598	-0.0092519745
236	0x3b2a354a	0.0025971704
237	0x3e02bf1e	0.12768218
238	0xbd2ccc14	-0.04218681
239	0xbc6c2419	-0.014412903
240	0x3d579782	0.052634723
241	0x3d76f2fb	0.060290318
242	0x3dc0b540	0.09409571
243	0x3dab66c9	0.08369214
244	0x3d871883	0.06596472
245	0x3c79e562	0.015252443
246	0x3d9f6c8c	0.077843755
247	0x3a89c3a3	0.0010510575
248	0x3de7538e	0.11295234
249	0x3d9f4f70	0.077788234
250	0xbca6f09d	-0.020378405
251	0x3d68df5b	0.056853633
252	0x3cdb65c9	0.026781933
253	0xbd74987e	-0.05971574
254	0x3d6c8656	0.0577453
255	0x3d3af971	0.045648042

lstm1.bias_hh_l0 f4 [256]
0	0x3be26a0b	0.006909614
1	0x3d8aeaf3	0.06783094
2	0xbd8f8f10	-0.07009709
3	0xbe03caf2	-0.12870386
4	0xbd92bd7c	-0.071650475
5	0x3dad898c	0.084735006
6	0xbdd224a0	-0.10260892
7	0x3d0e3576	0.034718953
8	0x3db6cdea	0.08925994
9	0x3d2677aa	0.040641464
10	0xbdcb60c7	-0.09930568
11	0x3e0f628a	0.14002433
12	0xbd2319c1	-0.039819483
13	0xbddbbfa5	-0.10729913
14	0x3dbd87d4	0.09254423
15	0x3d40cc7c	0.04707001
16	0x3c303e44	0.010757033
17	0x3dd84d16	0.10561578
18	0x3dba91b2	0.091098204
19	0xbd8b9fcd	-0.06817589
20	0xbc117fe1	-0.008880586
21	0xbdcf1fc8	-0.10113484
22	0x3dfaf092	0.122529164
23	0x3df48654	0.119396836
24	0x3e0988b1	0.1343105
25	0x3df83cc2	0.12120964
26	0xbe042906	-0.12906274
27	0xbddb1275	-0.1069688
28	0xbcda4b33	-0.026647186
29	0x3de9fbbf	0.1142497
30	0xbcee6b83	-0.029104
31	0xbdadda4b	-0.08488902
32	0x3db6e0b2	0.08929576
33	0x3d75331a	0.059863187
34	0xbe0fcd0d	-0.14043064
35	0xbd03a24c	-0.0321372
36	0x3d7399e7	0.059472945
37	0x3d9bafc6	0.076018855
38	0xbc482e78	-0.01221811
39	0xbdeab014	-0.114593655
40	0x3d7e04ad	0.062016178
41	0x3cb7e280	0.02244687
42	0x3d232f4a	0.03984002
43	0x3d6e0130	0.0581066
44	0xbdd27729	-0.10276634
45	0xbdd9fe46	-0.10644202
46	0xbda3cb00	-0.079977036
47	0xbd2a1bc4	-0.041530386
48	0x3b39190c	0.002824369
49	0xbdcf4a2b	-0.10121568
50	0xbd06a79e	-0.032874696
51	0x3d9831a5	0.07431344
52	0xbd5922b7	-0.053011622
53	0xbd1d5862	-0.038414367
54	0xbdca3b9f	-0.09874653
55	0xbca4677e	-0.02006888
56	0x3d4a2f3f	0.049361464
57	0x3ddfc8ca	0.10926969
58	0xbdfd6d92	-0.123744145
59	0x3d9a14f6	0.07523529
60	0x3d201648	0.03908375
61	0x3dd6460c	0.10462579
62	0xbab054f2	-0.001345305
63	0x3c10892e	0.008821769
64	0xbc865b1d	-0.016400868
65	0x3c5b7e2c	0.013396781
66	0x3da13269	0.07870943
67	0x3a61a3b4	0.00086074625
68	0x3db3f08f	0.08786117
69	0xbdc9c163	-0.09851339
70	0x3df63b43	0.12023022
71	0x3d635cf4	0.05550857
72	0xbe0dfbb9	-0.13865556
73	0xbdebbe7b	-0.11510941
74	0xbdb638f1	-0.088975795
75	0x3de392dd	0.11111996
76	0x3bc764dc	0.0060850214
77	0xbe0c37e2	-0.13693193
78	0x3c170b24	0.009218965
79	0x3ca9becc	0.020720862
80	0xbe0c94dd	-0.13728662
81	0xbd1cba1e	-0.038263433
82	0xbddaf76e	-0.10691725
83	0x3dc08e4a	0.094021395
84	0xbd554263	-0.052065264
85	0x3d055969	0.03255597
86	0x3d91020c	0.070804685
87	0xbd1c58c3	-0.038170587
88	0x3de06838	0.10957378
89	0xbbd8c480	-0.0066152215
90	0x3cda0bab	0.026616892
91	0xbd09f01e	-0.03367626
92	0x3d95529f	0.07291149
93	0xbdcdd7cf	-0.10050928
94	0x3a1134eb	0.00055391964
95	0xbdd23a7c	-0.10265061
96	0xbdc2bf92	-0.095091954
97	0xbb151434	-0.0022747638
98	0xbdd370bc	-0.10324237
99	0x3da57716	0.080793545
100	0xbaf54a60	-0.0018714182
101	0x3aa0e667	0.0012275696
102	0x3dd31419	0.10306568
103	0x3c702028	0.014656104
104	0xbd450d20	-0.04810822
105	0xbd3543df	-0.04425418
106	0x3cad1379	0.02112745
107	0x3d480e79	0.048841927
108	0xbc68d750	-0.014211491
109	0x3cefa93c	0.029255502
110	0x3d3971b1	0.04527444
111	0x3bb34471	0.0054708053
112	0xbd93db79	-0.072195955
113	0x3d1b5a1f	0.037927743
114	0xbcd67e77	-0.02618335
115	0x3d23e6fc	0.040015206
116	0xbdd54c4a	-0.104149416
117	0x3e0d6636	0.13808522
118	0x3de01f2c	0.109434456
119	0xbdeb7721	-0.114973314
120	0xbd63f225	-0.05565085
121	0x3d56600f	0.052337702
122	0xbb7c1f75	-0.0038470898
123	0xbda71a8e	-0.08159362
124	0xbcc8954a	-0.02448525
125	0x3daea3f3	0.085273646
126	0xbdc420e4	-0.09576586
127	0x3dd3ba16	0.103382275
128	0x3d1bbdf1	0.03802294
129	0x3dab5298	0.08365363
130	0x3dfbb30e	0.12290011
131	0x3d967a64	0.07347563
132	0xbd1adacb	-0.037806313
133	0xbd47b05c	-0.048752174
134	0xbc870dfc	-0.01648616
135	0xbdabaf69	-0.08383066
136	0x3d2add42	0.041714914
137	0xbd98868c	-0.07447538
138	0x3de46abb	0.1115317
139	0xbe057b3c	-0.13035291
140	0x3d649a06	0.05581095
141	0x3d46dcd7	0.048550453
142	0x3d50ba40	0.05095887
143	0x3c29b341	0.010357679
144	0x3de5cab3	0.112203024
145	0x3cf9e151	0.030502947
146	0xbe0b9fbb	-0.13635151
147	0x3d328840	0.04358697
148	0x3e0b0bba	0.13578692
149	0x3d5a45ad	0.053289104
150	0x3ddb4858	0.10707158
151	0xbde755c5	-0.11295656
152	0x3d8c750d	0.06858263
153	0x3db27fde	0.08715795
154	0x3d862f3b	0.06551977
155	0x3d7a0830	0.061042964
156	0xbd2ef54a	-0.042714395
157	0xbdd0f7fa	-0.10203548
158	0x3b716201	0.0036832097
159	0x3cd8cfe2	0.026466314
160	0x3d8daef6	0.06918137
161	0xbdce0f98	-0.10061568
162	0x3ce7c7e8	0.028293565
163	0x3d97bbb8	0.074088514
164	0xbde298b7	-0.11064284
165	0x3da26d7d	0.079310395
166	0xbd329377	-0.043597665
167	0xbd8510d6	-0.06497352
168	0xbd4b49e3	-0.04963101
169	0x3d9483db	0.07251712
170	0x3da94d5a	0.08266707
171	0x3c8af06e	0.016960349
172	0x3a9a0a31	0.0011752305
173	0xbb2d755b	-0.0026467654
174	0x3ce94175	0.028473595
175	0xbd2a2079	-0.041534875
176	0x3ddc016f	0.10742461
177	0xbde77cac	-0.11303076
178	0x3d37aeb1	0.044844333
179	0xbd551af2	-0.05202765
180	0x3cb204be	0.021730777
181	0xbe0684cb	-0.13136594
182	0x3d860652	0.06544174
183	0x3d863a38	0.06554073
184	0xbd7b1000	-0.061294556
185	0xbdbedc28	-0.09319335
186	0xbd75e8a1	-0.060036305
187	0xbcf948b9	-0.030430185
188	0x3d411c34	0.047146037
189	0xbd803bd6	-0.06261413
190	0xbd69c890	-0.057076037
191	0x3dcfe9da	0.101520255
192	0xbc5845f6	-0.013200274
193	0xbdad2982	-0.084551826
194	0xbdae0786	-0.08497529
195	0x3e081820	0.13290453
196	0xbdc734af	-0.097268455
197	0xb93ddc28	-0.00018106459
198	0xbdc9e594	-0.09858242
199	0x3d8195fd	0.06327436
200	0x3dc4e5f5	0.09614173
201	0x3dd6c06b	0.104859196
202	0x3dde3c32	0.10851325
203	0xbd35b6f8	-0.044363946
204	0xbdd5cd22	-0.104395166
205	0xbd76d91a	-0.060265638
206	0x3e048566	0.12941512
207	0xbd6c76cb	-0.057730477
208	0xbe109182	-0.14118007
209	0xbd7baf03	-0.0614462
210	0xbc82887e	-0.015934225
211	0x3d4e5d1e	0.050381772
212	0x3e051dd5	0.12999661
213	0xbc0995a4	-0.0083974935
214	0x3df88bf2	0.121360675
215	0x3e0dca74	0.13846761
216	0x3aced817	0.0015780953
217	0xbca7d82e	-0.020488825
218	0xbc25332b	-0.010083
219	0xbdf6c4aa	-0.120492294
220	0x3d0d03a3	0.034427296
221	0xbc3ea534	-0.011636067
222	0x3b5e35f4	0.003390667
223	0xbd909726	-0.07060079
224	0xbd81db9a	-0.06340714
225	0xbd580952	-0.052743264
226	0xbdf293e7	-0.118446164
227	0x3d3eaa29	0.046548996
228	0x3d235f56	0.03988584
229	0x3d180507	0.03711417
230	0xbda9b2aa	-0.082860306
231	0xbce0d56d	-0.02744552
232	0x3d95f674	0.07322398
233	0x3d9da762	0.07697941
234	0x3dab9707	0.083784156
235	0x3de3a1ea	0.11114867
236	0x3d3e4718	0.04645452
237	0x3dbbc29f	0.091679804
238	0x3ce64ace	0.028111842
239	0x3e0dfe02	0.13866428
240	0x3c032dde	0.008006541
241	0x3d9ec8ed	0.07753167
242	0x3dcb2730	0.09919584
243	0x3b7bac8b	0.0038402404
244	0x3db4c9f7	0.08827584
245	0x3c132c1e	0.008982686
246	0x3d3bb43b	0.045826178
247	0x3cf831ea	0.030297238
248	0xbd36112b	-0.044449966
249	0xbd046847	-0.03232601
250	0x3db8a010	0.090149045
251	0x3d09682c	0.03354661
252	0x3d9b5a5c	0.07585594
253	0x3d1c7922	0.03820146
254	0xbd0d5c14	-0.03451164
255	0x3dddbb05	0.10826687

lstm2.weight_ih_l0 f4 [128, 64]
0	0xbe0270cc	-0.12738341
1	0x3e2d8cf9	0.16948308
2	0x3d15047f	0.03638124
3	0xbdcf4c5a	-0.10121985
4	0x3dd92104	0.10602
5	0xbda5531e	-0.08072494
6	0x3d80deea	0.062925175
7	0x3cba82f6	0.022767525
8	0x3e2562f0	0.16151023
9	0x3d7b0123	0.06128038
10	0xbdb3456c	-0.087534755
11	0x3d7809d0	0.060556233
12	0x3bd443f6	0.006477828
13	0x3cbaf7bf	0.022823213
14	0xbc82594e	-0.015911724
15	0x3e356351	0.17713667
16	0x3d73a448	0.059482843
17	0x3d930728	0.07179099
18	0xbda6b88f	-0.081406705
19	0x3e386725	0.18008097
20	0xbe6d6f50	-0.23186994
21	0xbd77b134	-0.06047173
22	0xbe287701	-0.16451646
23	0x3e36c35e	0.17847964
24	0xbdb2d87f	-0.087326996
25	0x3e1f161b	0.15535776
26	0x3df47fd4	0.11938444
27	0xbe091e2e	-0.13390419
28	0xbdd7ecc9	-0.1054321
29	0xbc833581	-0.016016724
30	0x3ce9b568	0.028528884
31	0xbcc5abdc	-0.0241298
32	0xbdbe04e5	-0.09278277
33	0xbd687857	-0.05675539
34	0xbe001989	-0.12509741
35	0x3c408b26	0.011751926
36	0xbd5bc9a2	-0.05365909
37	0xbccc924b	-0.024972102
38	0xbdd61428	-0.10453063
39	0x3c755bdb	0.014975513
40	0x3d918cce	0.071069345
41	0xbe002509	-0.12514128
42	0xbda8eb53	-0.082480095
43	0x3dcca750	0.0999285
44	0x3e32a810	0.17446923
45	0xbe2bef0b	-0.16790406
46	0x3d164dc1	0.036695246
47	0xbe225449	-0.15852465
48	0xbc990563	-0.018679326
49	0x3de053bf	0.10953473
50	0x3d813054	0.06308046
51	0x3d00e5e7	0.031469252
52	0x3d8fe8cb	0.070268236
53	0xbe0fed1c	-0.14055294
54	0xbd913661	-0.0709045
55	0x3c8e4e7a	0.017371405
56	0xbc9e744c	-0.019342564
57	0xbe143a4e	-0.14475366
58	0xbe440e8c	-0.19146174
59	0x3bafa9ea	0.0053608315
60	0xbcf011c7	-0.029305352
61	0x3e2f01d4	0.17090541
62	0xbdd0bba7	-0.10192042
63	0x3e20cb57	0.15702568
64	0x3e2de040	0.16980076
65	0xbdb61bca	-0.08892019
66	0x3e0b0d65	0.13579328
67	0xbd76424b	-0.060121816
68	0x3d9fd398	0.0780403
69	0xbdcf20f3	-0.101137064
70	0x3e01b3d4	0.12666255
71	0xbe2dba6b	-0.16965644
72	0xbdb032e4	-0.086034566
73	0x3cbbaf66	0.022910785
74	0x3dfba3b1	0.12287081
75	0xbe3faf6c	-0.18719262
76	0xbdb07a32	-0.08617057
77	0xbd4f4308	-0.050601035
78	0xbde7e9a1	-0.11323858
79	0xbd83c9a0	-0.06434941
80	0x3c92b668	0.017909244
81	0x3e1c8b2f	0.1528747
82	0xbce6ef16	-0.028190177
83	0x3dd6df6a	0.104918316
84	0xbe3f7154	-0.18695575
85	0x3dc5b7f4	0.09654227
86	0x3e1dd8f9	0.154148
87	0x3d364c8e	0.044506602
88	0xbe25573f	-0.16146563
89	0xbdec55cd	-0.11539803
90	0xbe02c6fe	-0.12771222
91	0x3d2cf234	0.04222317
92	0xbd8bb404	-0.06821445
93	0xbd54e465	-0.051975626
94	0xbd857b0d	-0.06517611
95	0x3d6578f4	0.056023553
96	0xbe150510	-0.14552712
97	0x3d0785d8	0.033086628
98	0x3cd8f6c9	0.026484864
99	0xbe2e1436	-0.16999897
100	0x3d407316	0.046984755
101	0x3deea888	0.116532385
102	0xbdab50d4	-0.08365026
103	0x3db641d1	0.08899272
104	0x3d8f9558	0.07010907
105	0xbd22c3fb	-0.039737683
106	0xbd95c91e	-0.07313751
107	0x3df27cec	0.11840233
108	0xbe00137d	-0.12507434
109	0x3dc08f85	0.09402374
110	0xbdf03fac	-0.117308944
111	0xbe17d529	-0.14827408
112	0xbc807200	-0.01567936
113	0x3ddf3c67	0.10900193
114	0xbd19da57	-0.03756174
115	0xbe0911cc	-0.13385695
116	0x3d3ddd93	0.046353888
117	0xbd9c51db	-0.076328
118	0xbdc53f17	-0.09631174
119	0xbd5f7583	-0.054555427
120	0x3e0654e7	0.13118325
121	0xbc8f4cc3	-0.017492658
122	0x3dece457	0.1156699
123	0x3c878a2c	0.016545378
124	0xbd12b52f	-0.03581732
125	0xbdf72ae5	-0.12068728
126	0x3db15bc8	0.08660084
127	0x3e48727a	0.1957492
128	0x3e268746	0.1626254
129	0x3e06dc75	0.13170035
130	0xbe3c7622	-0.18404439
131	0xbe1e7c06	-0.15476999
132	0x3d4852d7	0.048907127
133	0x3e13860f	0.14406608
134	0xbdaa4814	-0.08314529
135	0x3d3de784	0.04636337
136	0x3d2a3629	0.041555557
137	0x3cba9b2e	0.022779074
138	0xbdb0e6ac	-0.08637747
139	0x3d92a23c	0.0715985
140	0x3e2efe2f	0.17089151
141	0xbe11422d	-0.141854
142	0xbcf6ff6f	-0.030151097
143	0x3e44c7ff	0.19216917
144	0xbdf6d311	-0.120519765
145	0xbd26e576	-0.040746175
146	0x3e0efdb7	0.13963972
147	0x3cc50fe9	0.024055438
148	0xbe51bdfc	-0.2048263
149	0xbe0eec2c	-0.1395728
150	0x3d4cf5a4	0.05003895
151	0xbd948f90	-0.07253945
152	0xbe2571d0	-0.16156697
153	0xbdb5b4d6	-0.08872382
154	0x3e08c559	0.13356532
155	0x3c2f37cd	0.010694456
156	0xbd3075e5	-0.043081183
157	0xbd9bfb03	-0.07616236
158	0x3e1030bc	0.1408109
159	0xbe271f8a	-0.16320625
160	0xbe3d8e2c	-0.18511266
161	0x3d304290	0.04303223
162	0x3c361f83	0.011115911
163	0xbe57e53a	-0.21083537
164	0x3e4463af	0.19178651
165	0xbe353cf8	-0.17699039
166	0xbd323e54	-0.043516472
167	0x3dab7983	0.08372786
168	0xbd74fb38	-0.059809893
169	0x3d37240d	0.044712115
170	0xbd0bfd3a	-0.034177043
171	0x3e0070fa	0.12543097
172	0x3db84cf7	0.08999055
173	0x3bc469f3	0.0059940754
174	0x3d235705	0.03987791
175	0xbe377410	-0.17915368
176	0xbe069414	-0.13142425
177	0x3d7904b9	0.06079552
178	0x3dad5651	0.08463729
179	0x3d8a0724	0.06739643
180	0x3e30abca	0.17253032
181	0x3dcddfe3	0.10052469
182	0xbd817815	-0.06321732
183	0xbe01206c	-0.12610024
184	0x3de834f4	0.11338225
185	0xbcb523a5	-0.022111723
186	0x3cdb9336	0.026803594
187	0x3e194e1c	0.14971203
188	0x3d3a8713	0.045538973
189	0xbdba7678	-0.09104627
190	0x3dce369e	0.10069011
191	0xbd7c4766	-0.06159153
192	0x3e0b888b	0.13626306
193	0xbc6e19dc	-0.014532533
194	0xbe2760f3	-0.16345577
195	0xbdd2d391	-0.10294259
196	0xbdc2f522	-0.095194116
197	0xbe2defeb	-0.16986053
198	0x3dee4f5d	0.11636231
199	0xbdf6a53d	-0.120432355
200	0xbe498303	-0.19678883
201	0xbe1caf37	-0.15301214
202	0x3b81974a	0.0039548026
203	0xbd56b457	-0.05241808
204	0xbe2e0c56	-0.16996893
205	0x3dcd2300	0.10016441
206	0x3dfae6ce	0.12251054
207	0x3e3662cb	0.17811124
208	0x3b5545da	0.0032542855
209	0x3d8cd532	0.06876601
210	0xbe1da228	-0.15393889
211	0x3e4740cf	0.19458316
212	0xbc803b58	-0.015653297
213	0xbd8aa1cf	-0.06769144
214	0xbe090171	-0.13379456
215	0x3c09970e	0.008397831
216	0xbdbaec67	-0.091271214
217	0x3e17961d	0.14803357
218	0xbe3ea5d8	-0.18617952
219	0x3d2d5692	0.042318888
220	0x3e123e57	0.14281593
221	0xbcc129a8	-0.023579434
222	0x3d326d76	0.04356142
223	0xbd1c017f	-0.038087364
224	0x3da4920c	0.08035669
225	0xbde619cf	-0.11235391
226	0xbe075864	-0.13217312
227	0x3da2165b	0.0791442
228	0x3e1924bd	0.14955421
229	0x3c18d9db	0.009329285
230	0xbd884478	-0.066536844
231	0xbdcf9935	-0.10136644
232	0x3e5caba2	0.21549848
233	0x3da1d83e	0.07902573
234	0xbda51a2d	-0.08061633
235	0xbdcbf76f	-0.099593036
236	0x3e2bba4c	0.16770285
237	0xbe343a75	-0.17600425
238	0xbe16046a	-0.14650121
239	0x3e034063	0.1281753
240	0xbd36dbc1	-0.044643167
241	0x3e235c61	0.15953209
242	0xbda7797d	-0.08177469
243	0xbcf83fe6	-0.030303907
244	0xbe253ff9	-0.16137685
245	0xbc501781	-0.012700916
246	0x3b182320	0.0023214296
247	0x3dfb75ff	0.12278365
248	0x3e00ea7f	0.12589453
249	0xbd22e031	-0.039764587
250	0xbda46faa	-0.08029111
251	0xbdaedebf	-0.08538579
252	0xbd091d7c	-0.033475384
253	0x3df50c9c	0.11965296
254	0xbe23b9e6	-0.15988883
255	0xbdde1180	-0.108431816

lstm2.weight_hh_l0 f4 [128, 32]
0	0x3e2a9b88	0.16660893
1	0xbd885630	-0.06657064
2	0xbd65688c	-0.056007907
3	0x3d4487a8	0.047980934
4	0xbe36cd7d	-0.17851825
5	0xbdea5a90	-0.11443055
6	0x3d128603	0.035772335
7	0x3d472c36	0.048626147
8	0xbe0ff603	-0.1405869
9	0xbce793bc	-0.028268687
10	0x3cfda596	0.030962747
11	0xbe23a62b	-0.15981357
12	0x3e0fc9f2	0.1404188
13	0x3d556483	0.05209781
14	0x3e272d28	0.1632582
15	0x3da68119	0.08130092
16	0xbe29a329	-0.16566147
17	0xbe0ca9dc	-0.13736671
18	0xbdf242f0	-0.118291736
19	0xbc89dba7	-0.016828371
20	0xbdb841ec	-0.089969486
21	0xbe0d49b2	-0.13797644
22	0xbda1a72b	-0.07893213
23	0x3e031bfc	0.12803644
24	0x3dd75c18	0.10515612
25	0xbd8eef30	-0.06979215
26	0xbe1962db	-0.14979117
27	0xbe14e2a1	-0.14539577
28	0xbcf4381e	-0.029811915
29	0x3d1733a8	0.036914498
30	0xbe0a9562	-0.13533548
31	0xbe1f5101	-0.15558244
32	0xbb159edb	-0.002283028
33	0xbdb18eb5	-0.08669797
34	0x3d1b9542	0.03798414
35	0x3e38188e	0.17978117
36	0xbe09e4d2	-0.13466194
37	0xbdff1e2b	-0.12456926
38	0xbdb71d06	-0.08941083
39	0x3e13ab23	0.14420752
40	0x3e201539	0.15633096
41	0xbe142150	-0.14465833
42	0x3dbf50aa	0.09341557
43	0xbd66dbab	-0.056361835
44	0x3e1a5c56	0.15074286
45	0x3c8ae994	0.016957082
46	0xbde519db	-0.11186572
47	0xbd43b0ed	-0.04777615
48	0x3c7ae276	0.015312782
49	0xbdf6b9d0	-0.1204716
50	0x3d45bd8a	0.04827646
51	0xbd8689de	-0.06569265
52	0xbe15b5b9	-0.14620103
53	0x3d141f29	0.03616253
54	0x3e1ee0e0	0.1551547
55	0xbe1ab7d4	-0.15109187
56	0xbdf700a3	-0.12060668
57	0xbdbd7f01	-0.0925274
58	0x3b82ef38	0.0039958023
59	0xbc8efc47	-0.01745428
60	0x3e110161	0.14160682
61	0x3e23888f	0.15970062
62	0x3ddc7165	0.10763816
63	0x3e343eed	0.1760213
64	0x3e2b7442	0.16743568
65	0xbe033da0	-0.12816477
66	0x3deaa370	0.114569545
67	0xbdd40094	-0.10351673
68	0xbde2f2ab	-0.110814415
69	0xbc55c1ee	-0.013046725
70	0x3db281dd	0.08716176
71	0x3dc82273	0.09772196
72	0x3d122683	0.03568126
73	0xbe22d1ad	-0.15900297
74	0x3e13fbf5	0.14451583
75	0x3e2fdfdc	0.1717524
76	0xbe442de9	-0.19158138
77	0xbd232965	-0.0398344
78	0xbdbd9372	-0.092566386
79	0xbdcf5064	-0.10122755
80	0x3de58749	0.11207444
81	0xbd5f61d2	-0.054536648
82	0xbe00af39	-0.12566842
83	0x3dd73d6d	0.10509763
84	0xbe07c382	-0.13258174
85	0xbe379f59	-0.1793188
86	0x3e231eab	0.15929668
87	0x3e00405e	0.12524554
88	0x3d12bb1f	0.035822984
89	0xbcac8a61	-0.021062078
90	0x3d96de3e	0.07366608
91	0x3d4d8078	0.050171345
92	0x3d755e91	0.05990464
93	0x3c9cfac7	0.019162549
94	0xbe0c3eb0	-0.13695788
95	0xbe1aaf42	-0.15105918
96	0x3e17e349	0.14832796
97	0xbe1e7d3f	-0.15477465
98	0x3e19ac26	0.15007076
99	0xbd67f96a	-0.056634344
100	0x3cd8349c	0.026392274
101	0xbd78c2b4	-0.06073256
102	0xbd8c86f7	-0.0686168
103	0x3e08f4b8	0.13374603
104	0xbcc97a2f	-0.024594394
105	0x3d32d007	0.04365542
106	0x3dbd71e8	0.092502415
107	0xbcf07ac0	-0.029355407
108	0xbdb7e239	-0.089786954
109	0xbddf6b8b	-0.10909184
110	0xbe180969	-0.1484734
111	0xbcf9598d	-0.030438209
112	0xbdcb7ea7	-0.099362664
113	0xbd814fc5	-0.06314043
114	0x3e11fb4a	0.14256015
115	0x3b93b38f	0.004507489
116	0xbdcb3d3c	-0.09923789
117	0xbdfb207f	-0.122620575
118	0x3b2ec707	0.0026668923
119	0x3e25d43c	0.16194242
120	0x3dd8f67a	0.10593887
121	0x3db3fcf2	0.0878848
122	0xbcf43da0	-0.029814541
123	0x3e444109	0.19165434
124	0xbd9b02ba	-0.075688794
125	0xbe31e230	-0.1737144
126	0xbd1eeaea	-0.03879825
127	0x3d61d8bb	0.05513833
128	0xbe1d520b	-0.15363328
129	0x3c764f31	0.015033529
130	0x3d339c6a	0.04385034
131	0xbc194022	-0.009353669
132	0xbd98f9d7	-0.07469528
133	0xbdb2081c	-0.08692953
134	0x3d932943	0.071856044
135	0x3e0a20b8	0.13489044
136	0x3dee43b8	0.1163401
137	0xbd84def6	-0.06487839
138	0xbd84bc40	-0.06481218
139	0xbd546e91	-0.051863257
140	0x3c38834d	0.011261773
141	0x3e4ab6d6	0.19796309
142	0x3e0db62e	0.13839027
143	0xbd5cf45c	-0.053943977
144	0xbbd9120e	-0.0066244667
145	0x3dbd7b9c	0.09252092
146	0xbdd08adf	-0.101827376
147	0x3e0e051a	0.13869134
148	0xbdbde57a	-0.09272285
149	0x3d9327ee	0.0718535
150	0x3de13f07	0.1099835
151	0x3db76f00	0.089567184
152	0x3daf5200	0.08560562
153	0x3dbe3e1f	0.092891924
154	0x3d837f2a	0.06420739
155	0xbd9f7b19	-0.07787151
156	0x3ca363d0	0.019945055
157	0xbe2add55	-0.16685994
158	0x3cd8b68c	0.026454233
159	0x3dc148c7	0.09437709
160	0x3d0140eb	0.03155605
161	0xbde4a1aa	-0.111636475
162	0x3e1f3147	0.15546142
163	0x3dc1c770	0.09461868
164	0xbdea8838	-0.11451763
165	0xbd1d9693	-0.038473677
166	0xbbc58c6e	-0.0060287034
167	0x3d088bce	0.033336453
168	0xbdc8ccfe	-0.09804724
169	0x3cc7f2f8	0.024407849
170	0xbe00a663	-0.12563471
171	0x3d31fbec	0.043453142
172	0xbd1cbb13	-0.038264345
173	0xbd617482	-0.05504275
174	0xbd88955c	-0.06669113
175	0xbdff19a0	-0.124560595
176	0xbd8fdc08	-0.070243895
177	0x3d2cc523	0.04218019
178	0xbde753da	-0.1129529
179	0xbdd30b1b	-0.103048526
180	0xbe192494	-0.1495536
181	0x3c08e662	0.008355709
182	0xbd67fd0d	-0.056637812
183	0x3e17a6fd	0.14809795
184	0xbd423f2b	-0.047423523
185	0x3cada1db	0.021195343
186	0x3d645941	0.05574918
187	0xbd83eed1	-0.06442035
188	0xbdb54687	-0.08851343
189	0x3d0c9401	0.034320835
190	0xbdccd16e	-0.10000883
191	0xbdab8bfe	-0.08376311
192	0x3e128905	0.14310081
193	0xbd58fbf2	-0.05297465
194	0xbe2d4374	-0.16920263
195	0x3e270165	0.16309126
196	0xbdf01744	-0.117231876
197	0xbd795269	-0.060869608
198	0x3c7fa306	0.015602833
199	0x3e27182b	0.16317813
200	0x3deade28	0.11468154
201	0xbd87cd61	-0.0663097
202	0xbc0c815b	-0.008575763
203	0x3e3699b9	0.17832078
204	0x3c3d0359	0.011536443
205	0xbcce28af	-0.025165884
206	0xbb246ba3	-0.002508857
207	0x3d9c2f09	0.07626159
208	0xbd0aa396	-0.033847414
209	0xbd8c9922	-0.06865145
210	0x3e024fe8	0.12725794
211	0xbe15680a	-0.14590469
212	0x3d39d226	0.04536643
213	0x3e1b9691	0.15194155
214	0xbdbea6fc	-0.093091935
215	0x3e4b7a16	0.19870791
216	0x3d10a8b6	0.035317145
217	0x3e1180dd	0.14209314
218	0xbe0de34f	-0.13856243
219	0xbc98883a	-0.018619645
220	0x3c90c7a5	0.017673323
221	0x3d0a4760	0.033759475
222	0x3c1a27a4	0.009408865
223	0x3dea42c3	0.11438515
224	0xbe1e68d0	-0.1546967
225	0x3cb221e0	0.021744668
226	0x3ddb9706	0.10722165
227	0xbe13aa16	-0.14420351
228	0x3e04958b	0.12947671
229	0xbd5c61e3	-0.05380429
230	0xbd48f90a	-0.049065627
231	0xbe16ad76	-0.14714608
232	0xbda7a05e	-0.081848845
233	0x3dba46f9	0.09095568
234	0xbd9b53d5	-0.07584349
235	0xbd33a5aa	-0.04385916
236	0xbc65eade	-0.0140330475
237	0x3e2c5cae	0.1683223
238	0xbd934e62	-0.07192685
239	0x3da19aab	0.07890829
240	0xbdcc429b	-0.099736415
241	0x3df5cfce	0.12002526
242	0xbe276f71	-0.16351105
243	0x3d0e5195	0.03474577
244	0xbd531616	-0.051534735
245	0x3c640a00	0.0139184
246	0xbbffe437	-0.0078091878
247	0x3da11537	0.078653745
248	0x3cd93b1e	0.026517447
249	0x3de6aa08	0.112629
250	0xbdea9b87	-0.11455446
251	0x3e2b048d	0.16700955
252	0xbcdaef3e	-0.026725408
253	0xbd334b56	-0.043773018
254	0xbe28b76a	-0.16476217
255	0x3e1be3f9	0.15223683

lstm2.bias_ih_l0 f4 [128]
0	0x3dc9ac37	0.098473005
1	0x3d8d8afe	0.06911276
2	0xbbf5ac88	-0.007497374
3	0xbd042e6d	-0.032270838
4	0x3cd39e37	0.025832279
5	0x3dabb670	0.083844066
6	0x3cc3b67e	0.02389073
7	0xbdd4702a	-0.10372956
8	0xb89a445b	-7.3560244e-05
9	0x3d8c89f7	0.06862252
10	0x3dbb3ef6	0.09142868
11	0xbaebb547	-0.0017983102
12	0xbdafbfac	-0.085814804
13	0x3d920283	0.07129385
14	0xbd666943	-0.05625273
15	0xbdb6e47f	-0.08930301
16	0xbdaad091	-0.08340562
17	0x3df8eb47	0.121542506
18	0x3e4575da	0.19283238
19	0x3cee55ab	0.029093584
20	0xbd82002f	-0.06347691
21	0x3de96d33	0.11397781
22	0x3da42642	0.080151096
23	0xbd387340	-0.045031786
24	0x3d3056fe	0.043051712
25	0xbe0f1469	-0.1397263
26	0xba86491b	-0.0010245176
27	0x3c99259e	0.018694695
28	0xbbdc9428	-0.006731529
29	0xbdbcdfee	-0.09222399
30	0xbe22fd1f	-0.1591687
31	0x3da1a2d8	0.07892388
32	0xbcf3d629	-0.029765205
33	0x3d71a3d0	0.058994114
34	0xbdd9029b	-0.105962
35	0x3e4498ce	0.19198915
36	0xbcbc2af4	-0.0229697
37	0xbdeeeefd	-0.11666677
38	0xbe126113	-0.14294843
39	0xbccc9d96	-0.024977487
40	0x3bfc294c	0.0076953527
41	0x3b9c0c62	0.0047622183
42	0x3d6216db	0.055197578
43	0x3ba414ba	0.0050073536
44	0xbe049f62	-0.12951425
45	0x3e32fbf6	0.17478928
46	0x3d987c56	0.0744559
47	0x3e1f4316	0.15552935
48	0x3dd9dee3	0.106382154
49	0xbda56569	-0.08075983
50	0xbdc16dac	-0.094447464
51	0xbda25a46	-0.079273745
52	0xbe03322e	-0.12812111
53	0xbdd6c3da	-0.104865745
54	0x3dd0d289	0.101964064
55	0xbdd4495b	-0.10365554
56	0xbdca6c17	-0.09883898
57	0xbdb9e20b	-0.090763174
58	0xbdcc103e	-0.099640355
59	0xbcac72bb	-0.021050802
60	0x3e14327e	0.14472386
61	0x3e3c5c8d	0.1839468
62	0x3df418d6	0.119187996
63	0x3e24528d	0.16047116
64	0xbd4f9c7b	-0.05068634
65	0x3d12efc9	0.03587321
66	0x3db46acf	0.088094346
67	0xbda93d56	-0.08263652
68	0xbe2df979	-0.16989698
69	0x3e25b4a1	0.16182186
70	0x3d1734ff	0.036915775
71	0xbe0f67f2	-0.14004496
72	0xbe0e7a81	-0.13913919
73	0xbbc0bf41	-0.0058821742
74	0xbd746fea	-0.059677042
75	0x3d7d0a41	0.061777357
76	0x3dfc0384	0.12305358
77	0x3e0ad4df	0.13557766
78	0x3d3eddd3	0.046598267
79	0x3e1ecf89	0.15508856
80	0x3e2719ce	0.16318437
81	0xbc0128b4	-0.00788324
82	0xbd039672	-0.032125898
83	0x3cf9421c	0.030427031
84	0xbe1e397a	-0.15451613
85	0xbe040298	-0.12891614
86	0xbb9846fd	-0.0046471343
87	0x3d9d5eec	0.076841205
88	0x3ce46343	0.027879363
89	0x3d41ddb0	0.04733056
90	0xbde7e66e	-0.11323248
91	0x3d878cd2	0.06618656
92	0x3e38147a	0.17976561
93	0x3e0fffd7	0.14062439
94	0x3dfdc3de	0.12390874
95	0x3dabf037	0.08395427
96	0xbd88cba6	-0.06679468
97	0xbdf84656	-0.121227905
98	0xbd19282e	-0.037391834
99	0x3df990b0	0.121858
100	0x3e3835b4	0.17989236
101	0x3cb79e57	0.02241437
102	0x3d8c2429	0.068428345
103	0x3dcc7d97	0.09984892
104	0xbd3de97d	-0.04636525
105	0xbdead2d6	-0.11465995
106	0x3dee71ac	0.11642775
107	0x3dc63849	0.09678704
108	0xbc97ea5f	-0.018544374
109	0xbd7708f1	-0.06031126
110	0xbe0a7e92	-0.13524845
111	0x3d1cb159	0.03825507
112	0x3d58a147	0.05288818
113	0xbc46dccb	-0.012137602
114	0x3d8fe4d3	0.07026067
115	0xbdee8b9b	-0.116477214
116	0xbb7d8b35	-0.003868771
117	0x3e0697d1	0.13143851
118	0x3e3626e2	0.1778827
119	0xbdbb2cff	-0.09139442
120	0xbd91b860	-0.07115245
121	0x3e42987b	0.19003479
122	0x3e2db30b	0.1696283
123	0x3e1543cc	0.14576644
124	0x3e2299b1	0.15878941
125	0xbdfb328e	-0.12265502
126	0xbd6df09c	-0.05809079
127	0xbd3457b1	-0.04402894

lstm2.bias_hh_l0 f4 [128]
0	0x3df0af16	0.11752145
1	0x3d7a44be	0.061100714
2	0x3dd068a6	0.1017621
3	0xbdfdd905	-0.12394909
4	0x3daa329c	0.08310434
5	0x3c4feb7c	0.012690421
6	0x3d45dced	0.048306394
7	0x3c2ded22	0.010615619
8	0xbd10fd50	-0.035397828
9	0x3c643c83	0.013930443
10	0x3defd1fc	0.11709973
11	0xbd561b10	-0.052271903
12	0x3e34b627	0.1764761
13	0x3db4e08f	0.08831894
14	0x3ceb6864	0.0287363
15	0x3d936e0a	0.07198723
16	0x3d8c05e0	0.06837058
17	0xbdd8c67e	-0.105847344
18	0x3e1b7214	0.15180236
19	0xbd749327	-0.059710648
20	0x3d4276ba	0.047476508
21	0xbdf99ba1	-0.12187887
22	0x3e34c86a	0.17654577
23	0xbe04b16c	-0.12958306
24	0xbda0b222	-0.07846476
25	0xbe18fd71	-0.1494043
26	0xbe003549	-0.12520327
27	0x3e2902bc	0.1650495
28	0xbda1b962	-0.07896687
29	0xbc55aaf9	-0.013041251
30	0xbcaeabdc	-0.021322183
31	0xbe1ab32e	-0.15107414
32	0x3cf89fd5	0.030349651
33	0xbdccd3df	-0.10001349
34	0xbde86cfd	-0.11348913
35	0x3df5b2f2	0.11997022
36	0x3e421ed2	0.1895707
37	0x3e051857	0.12997566
38	0x3b3d23f7	0.0028860548
39	0x3db39725	0.08769063
40	0xbc362e6f	-0.011119469
41	0x3e0817e1	0.13290359
42	0x3cd13318	0.025537059
43	0x3e14e534	0.14540559
44	0xbd65e3cc	-0.056125447
45	0x3d9e80c8	0.07739407
46	0xbd1fa92a	-0.038979687
47	0x3dee0330	0.11621702
48	0xbb985376	-0.004648621
49	0xbd68427e	-0.056704037
50	0x3c808b75	0.015691498
51	0x3e464ff4	0.19366437
52	0xbdb27930	-0.08714521
53	0xbdd44243	-0.10364201
54	0xbe022b8c	-0.12711924
55	0xbc017f7a	-0.007903928
56	0x3ca33d8a	0.019926805
57	0xbda3cccb	-0.079980455
58	0x3db4ff88	0.08837801
59	0x3d9a934a	0.075476244
60	0xbd028bb2	-0.031871505
61	0x3cbf587b	0.02335762
62	0xbd8ccdca	-0.06875189
63	0x3de5cb62	0.11220433
64	0xbbb13b95	-0.005408714
65	0x3d234f0f	0.039870318
66	0xbc94838a	-0.018129129
67	0xbcc6bec2	-0.024260882
68	0xbe2f6cdb	-0.17131369
69	0xbdcccc14	-0.09999862
70	0x3d26ea94	0.040751055
71	0xbdbe529d	-0.09293101
72	0x3d285e30	0.04110545
73	0x3cd576e5	0.02605767
74	0x3d35cbd5	0.044383842
75	0x3e20147b	0.15632813
76	0x3dcb5c89	0.09929759
77	0xbcd1ca9a	-0.025609303
78	0xbdb84895	-0.08998219
79	0xbe2061f9	-0.15662374
80	0xb9cc2d1e	-0.00038943527
81	0x3e3ab444	0.18232828
82	0xbe108c74	-0.14116079
83	0xbdbeafed	-0.09310899
84	0xbd00652b	-0.03134648
85	0x3d9811bb	0.07425257
86	0x3e292054	0.16516238
87	0xbdf37fa6	-0.118895814
88	0xbe2c5571	-0.16829468
89	0xbe287964	-0.16452557
90	0xbda1fc5e	-0.07909463
91	0x3e1e5719	0.15462913
92	0x3dc28f43	0.09499981
93	0x3b740c7d	0.003723889
94	0xbdf219a5	-0.118212976
95	0x3c9c6860	0.019092739
96	0xbd2f001f	-0.042724725
97	0x3e326305	0.17420585
98	0xbc80c7c6	-0.01572026
99	0x3e2bfdd6	0.1679605
100	0x3e60277a	0.21890059
101	0x3e1c9ce7	0.15294228
102	0x3e0488b3	0.12942772
103	0x3dd70c55	0.10500399
104	0x3e09f7e3	0.13473468
105	0xbd97b398	-0.07407302
106	0x3bf34ca4	0.0074249078
107	0x3d01c7a2	0.031684525
108	0xbdb3b4cb	-0.08774718
109	0x3cca78e1	0.024715843
110	0x3dc0717f	0.09396648
111	0xbdcb265f	-0.09919428
112	0xbdd80518	-0.105478466
113	0xbda5a54f	-0.08088171
114	0xbda92e6d	-0.08260808
115	0x3d934e71	0.07192696
116	0x3e2b3d15	0.1672252
117	0x3e256914	0.16153365
118	0x3db6a52e	0.08918224
119	0xbc63a440	-0.013894141
120	0x3dc3287e	0.09529208
121	0xbdad9385	-0.08475403
122	0xbd9142e5	-0.07092837
123	0xbcdd1709	-0.026988523
124	0xbdddea0f	-0.10835659
125	0x3da5600f	0.08074962
126	0x3b9d6ddf	0.0048043574
127	0xbb984643	-0.0046470477

fc.weight f4 [1, 32]
0	0x3e581384	0.21101195
1	0x3e85ac90	0.26108217
2	0xbdd8806b	-0.10571369
3	0x3e2b6ac5	0.16739948
4	0x3e12a4c8	0.14320672
5	0x3e393bf3	0.18089275
6	0xbe236e83	-0.15960126
7	0xbdcbe0a5	-0.09954957
8	0x3e437f3c	0.19091505
9	0x3daf5071	0.08560265
10	0x3e55e707	0.20888911
11	0x3e47633c	0.19471449
12	0xbe80b442	-0.25137526
13	0x3e0ff226	0.14057216
14	0xbe5f350f	-0.21797584
15	0x3df83c58	0.12120885
16	0xbe3e3d45	-0.1857806
17	0x3e623e65	0.22094114
18	0x3e27fff9	0.1640624
19	0x3e8d5451	0.2760339
20	0x3e23a18b	0.15979593
21	0xbe60c224	-0.21949059
22	0xbe4e63f8	-0.20155323
23	0xbe3395f6	-0.17537674
24	0x3e23500a	0.15948501
25	0xbe74ee68	-0.2391907
26	0xbe32efe4	-0.17474324
27	0x3dfd01ff	0.12353896
28	0x3e086058	0.13318002
29	0xbe07d440	-0.1326456
30	0x3c091ad9	0.008368217
31	0x3e001994	0.12509757
